Baseline/Classification/model_state_dict_model2.pt (torch, 488079 bytes, 12 tensors)

conv1.weight f4 [10, 3, 3, 3]
0	0x3e1b080a	0.15139785
1	0x3e8f37d5	0.27972284
2	0xbc7fb701	-0.015607596
3	0x3e940cb8	0.28915954
4	0x3e2f81fd	0.1713943
5	0x3ea9e9ab	0.33186087
6	0x3e59fb83	0.2128735
7	0x3e5ec00d	0.21752949
8	0x3e97924b	0.296038
9	0xbdc8bcad	-0.09801612
10	0xbd1f7bdf	-0.038936492
11	0xbe528bff	-0.20561217
12	0xbe145071	-0.14483811
13	0xbde0479e	-0.1095116
14	0xbd1240d1	-0.035706345
15	0xbdf579b2	-0.11986102
16	0x3ddd8645	0.108166255
17	0x3b8447d4	0.004036883
18	0xbe3008fb	-0.17190926
19	0xbe61d4bf	-0.22053812
20	0xbe22285e	-0.15835711
21	0xbe5f6d53	-0.21819048
22	0xbe1b8a9b	-0.15189593
23	0xbd325363	-0.043536555
24	0xbc1b0c01	-0.009463311
25	0x3d4475a2	0.047963746
26	0xbe6e4e95	-0.23272164
27	0x3e456a4c	0.1927883
28	0x3e0802c0	0.13282299
29	0x3ec8c83b	0.39215264
30	0x3e1415d6	0.14461455
31	0xbbae7607	-0.0053241285
32	0x3d7f1d19	0.06228361
33	0xbd341ba6	-0.04397168
34	0x3edad035	0.42736974
35	0x3ddfb7c2	0.10923721
36	0x3db7340f	0.08945476
37	0xbd947333	-0.07248535
38	0x3eb1b0dc	0.34705245
39	0xbe09e5fc	-0.13466638
40	0x3e85d14c	0.26136243
41	0x3e4cf82b	0.20016544
42	0xbdf855d0	-0.121257424
43	0x3e9fc9b1	0.31208566
44	0xbc6948f3	-0.014238584
45	0xbd319f5f	-0.04336488
46	0xbe0f58f1	-0.13998772
47	0x3d5e99ea	0.054346003
48	0xbeb45941	-0.35224345
49	0xbd759cef	-0.059964117
50	0x3e6b97a5	0.23007067
51	0xbe310db5	-0.17290385
52	0x3ead1183	0.33802423
53	0x3e229c98	0.15880048
54	0x3e1b7288	0.15180409
55	0x3adc27e8	0.0016796561
56	0x3e9773c8	0.29580522
57	0x3e4085fa	0.18801108
58	0x3b3021d3	0.002687563
59	0x3ea92037	0.3303239
60	0x3e7c81e4	0.24658924
61	0x3eae29c4	0.3401624
62	0x3d697e61	0.05700529
63	0xbd5f75fb	-0.054555874
64	0xbd7ac337	-0.061221328
65	0x3cbfd6a7	0.023417784
66	0xbe547af0	-0.20750022
67	0xbe4daf6d	-0.20086451
68	0x3e009dcc	0.12560195
69	0xbdda98e4	-0.10673693
70	0x3d97bc2e	0.07408939
71	0xbc5907b8	-0.013246469
72	0x3d05e2fd	0.032687176
73	0xbcf01c9f	-0.029310523
74	0x3d6ab757	0.057303753
75	0x3c9c9202	0.01911259
76	0xbe85008c	-0.2597698
77	0x3de47f60	0.11157107
78	0xbe595dbf	-0.21227168
79	0xbe33f081	-0.17572214
80	0xbcd321df	-0.025772987
81	0xbd2586e0	-0.04041183
82	0x3dd5f6dc	0.10447475
83	0xbe029363	-0.12751536
84	0xbe478006	-0.19482431
85	0x3e03746b	0.12837379
86	0xbca6fc86	-0.020384084
87	0x3daed8c1	0.08537436
88	0x3d59f582	0.05321265
89	0xbe16a949	-0.14713015
90	0x3d107024	0.035263196
91	0x3d2dc5c5	0.042424936
92	0xbe0fa592	-0.14028004
93	0xbde789ed	-0.11305604
94	0x3d6c4658	0.057684273
95	0x3d479726	0.04872813
96	0xbdd3eec8	-0.10348278
97	0xbd824180	-0.063601494
98	0x3e368320	0.17823458
99	0xbcfd602f	-0.030929653
100	0x3de8cd2b	0.11367258
101	0x3da25ac7	0.07927471
102	0xbe0f2cd2	-0.13981941
103	0xbe26a717	-0.16274677
104	0x3e57e3ec	0.21083039
105	0xbb8f60a0	-0.0043755323
106	0x3e0bb017	0.13641392
107	0x3d566bae	0.052348785
108	0x3d715b5c	0.058925018
109	0x3e9008a7	0.281316
110	0x3e702e65	0.23455198
111	0xbd891d2c	-0.06695017
112	0x3e51cd56	0.20488486
113	0x3e7295de	0.23689982
114	0x3e23adc6	0.15984258
115	0x3e19cec6	0.15020284
116	0xbe3a4131	-0.18188931
117	0xbde70022	-0.11279322
118	0x3d865948	0.06559998
119	0x3ddfece6	0.10933857
120	0x3e937096	0.28796834
121	0x3de0e066	0.109803006
122	0x3e71ab8a	0.23600593
123	0xbd6451a8	-0.055741936
124	0xbde7445b	-0.11292335
125	0xbd561a32	-0.052271076
126	0x3e27304d	0.16327019
127	0x3ed3afd6	0.4134509
128	0xb9c5b9b3	-0.00037713125
129	0x3e376de6	0.17913017
130	0x3eed2a2c	0.46321237
131	0x3e9eb225	0.30995288
132	0x3e5573b9	0.20844926
133	0x3e814f4f	0.2525582
134	0x3e1322ec	0.1436879
135	0x3d4d291f	0.050088044
136	0xbe1c18e4	-0.1524387
137	0xbe4cf9a7	-0.2001711
138	0xbd7600c1	-0.060059313
139	0xbcbd2bc5	-0.02309216
140	0xbe111b47	-0.14170562
141	0x3decf543	0.115702175
142	0x3d9bc116	0.076051876
143	0xbd93db8f	-0.07219612
144	0x3db2f199	0.08737487
145	0x3d50b162	0.050950415
146	0x3daf14c5	0.08548883
147	0x3e33c641	0.17556097
148	0xbd52fb6b	-0.051509302
149	0x3e333b07	0.17502986
150	0x3d346b64	0.04404773
151	0x3ce1ab82	0.027547602
152	0xbe4b2c07	-0.19841014
153	0xbdccb44a	-0.09995325
154	0xbdf34246	-0.11877875
155	0xbde8c8c9	-0.11366422
156	0x3e4e5071	0.20147873
157	0xbd19e4ed	-0.037571836
158	0xbe1b1e32	-0.15148237
159	0x3e28cc90	0.16484284
160	0x3de82097	0.11334341
161	0x3dea96c5	0.11454538
162	0xbd705cce	-0.058682255
163	0x3da64254	0.0811812
164	0xbd816666	-0.06318359
165	0x3cc2a3f9	0.023759829
166	0xbe124bcd	-0.14286728
167	0xbdcba26d	-0.0994309
168	0xbc43aeea	-0.011943558
169	0x3dba2a1e	0.090900645
170	0x3cf581a5	0.029969046
171	0x3db8160f	0.08988582
172	0x3e6d0390	0.2314589
173	0x3e43730b	0.19086854
174	0x3e4f58b9	0.20248689
175	0x3c763346	0.015026873
176	0xbe188fe0	-0.14898634
177	0x3e4e03bd	0.20118614
178	0xbd225773	-0.03963418
179	0xbcbcf6f3	-0.023066973
180	0xbe222cae	-0.15837356
181	0xbd100e7d	-0.035170067
182	0xbe27b4b5	-0.16377528
183	0x3e610652	0.21975067
184	0xbe48d681	-0.19613077
185	0xbe57fd18	-0.21092641
186	0x3c7b8a58	0.015352808
187	0xbe06db5f	-0.13169621
188	0x3c9e8424	0.019350119
189	0xbe367c62	-0.17820886
190	0xbdfc8e5f	-0.12331843
191	0x3e04ba03	0.12961583
192	0x3dd0fe7b	0.10204788
193	0x3d92c479	0.071663804
194	0x3e91a7f2	0.28448445
195	0x3e5dab25	0.21647318
196	0x3ee1b981	0.4408684
197	0xbe29ee37	-0.16594778
198	0xbd48d4ab	-0.04903094
199	0xbe2086b0	-0.15676379
200	0x3e9e68a8	0.3093922
201	0xbdc56563	-0.096384786
202	0x3ebaee62	0.36509997
203	0x3e7229cd	0.23648758
204	0x3dcf41b5	0.101199545
205	0x3e952435	0.29129186
206	0x3cb32145	0.02186645
207	0xbce5afae	-0.028037872
208	0x3c33a2e3	0.010964128
209	0x3e5e47dc	0.217071
210	0xbe4f2bad	-0.20231505
211	0x3edc270a	0.42998534
212	0x3edf6f1c	0.43639457
213	0x3e9630e0	0.29334164
214	0x3efcf3b9	0.49404696
215	0xbe11ac76	-0.14225945
216	0xbd0fbcd9	-0.03509221
217	0x3e836a5d	0.25667086
218	0xbd7ece1b	-0.062208276
219	0x3e46e1dd	0.19422098
220	0xbe0bc12a	-0.13647905
221	0xbdd67584	-0.10471633
222	0x3db4e898	0.08833426
223	0xbe229d6e	-0.15880367
224	0xbd2c9350	-0.042132676
225	0x3e223b76	0.15842995
226	0x3e687fe9	0.22705044
227	0x3e82921a	0.25502092
228	0xbd1b032b	-0.037844818
229	0xbe1cbfb2	-0.15307501
230	0x3e51c41f	0.2048497
231	0xbd88b411	-0.0667497
232	0xbdf782a6	-0.12085466
233	0x3d00911f	0.0313884
234	0xbe228d14	-0.1587413
235	0x3e2d9d6e	0.16954586
236	0x3e27388e	0.16330168
237	0xbe486a1b	-0.19571726
238	0xbe5030cf	-0.20331119
239	0xbd214430	-0.03937167
240	0x3c0c4213	0.008560675
241	0xbdbee811	-0.09321607
242	0xbe1db576	-0.15401253
243	0xbd01f3b1	-0.031726543
244	0xbe987fb8	-0.29784942
245	0xbe55ce3d	-0.20879455
246	0xbe2d0a08	-0.16898358
247	0x3df58c6d	0.11989675
248	0x3e7b4f99	0.24542083
249	0xbe30da1a	-0.17270699
250	0x3d8c211e	0.06842254
251	0x3e11caed	0.14237566
252	0x3cc50a5c	0.024052791
253	0xbe38bcae	-0.18040726
254	0x3d983376	0.074316904
255	0x3dedb2de	0.11606382

conv1.bias f4 [10]
0	0x3e6a1b9c	0.22862095
1	0x3ea0adfe	0.31382746
2	0xbdd6230f	-0.10455906
3	0xbd1767b9	-0.036964152
4	0x3cdf57ec	0.027263604
5	0x3e09b74c	0.13448828
6	0x3d1886ab	0.037237804
7	0x3ec43f4e	0.38329548
8	0x3c722539	0.014779382
9	0x3ee95073	0.4556919

conv2.weight f4 [20, 10, 3, 3]
0	0x3e0039d2	0.12522057
1	0x3d8459a9	0.06462414
2	0xba480135	-0.00076295744
3	0xbc8a3866	-0.016872596
4	0xbd6d51ed	-0.05793946
5	0x3df9c0ac	0.12194952
6	0x3c7007ab	0.014650266
7	0x3d687fb2	0.056762405
8	0x3d17b3cf	0.037036713
9	0xbd8ef0e9	-0.06979544
10	0x3d7bd468	0.061481863
11	0x3d81ca7c	0.06337449
12	0x3b2020e3	0.0024433665
13	0xbd7b9ec2	-0.0614307
14	0xbd2ca2cd	-0.042147446
15	0xbad785cd	-0.0016443074
16	0xbd82b7ab	-0.06382688
17	0xbd79a160	-0.060944915
18	0xbbda5a60	-0.0066636056
19	0xbc9c7441	-0.019098403
20	0x3d1970d9	0.037461136
21	0xbca6072e	-0.020267095
22	0xbb83919d	-0.004015161
23	0xbced77bf	-0.028987763
24	0xbdb7febd	-0.08984134
25	0x3dcdd859	0.10051031
26	0x3cf56740	0.02995646
27	0x3dbf701e	0.093475565
28	0xbc8f7104	-0.017509945
29	0xbcd78003	-0.026306158
30	0xbdccd4f2	-0.100015536
31	0xbd2937a8	-0.041312844
32	0x3d8cab83	0.06868651
33	0xbdd64fb3	-0.1046442
34	0xbd1bb5db	-0.038015228
35	0x3d81b484	0.06333259
36	0x3d6bf736	0.057608806
37	0x3d272410	0.040805876
38	0xbc6125d8	-0.013741933
39	0xbc0cf277	-0.00860273
40	0xbca27c6e	-0.019834723
41	0xbd0f3aa7	-0.034968045
42	0x3d351a8f	0.04421478
43	0xbd13e4e8	-0.036106974
44	0xbd72e5c6	-0.05930116
45	0x3cc79e90	0.0243676
46	0xbd9b28a5	-0.07576112
47	0xbca595b0	-0.020212978
48	0x3d5cf8b7	0.05394813
49	0x3d225984	0.03963615
50	0x3db9087a	0.0903482
51	0xbd93236f	-0.07184493
52	0x3b044039	0.0020179881
53	0xbcf803b2	-0.0302752
54	0xbd65d328	-0.056109577
55	0xbd6a6f6a	-0.05723516
56	0x3cf5c7ae	0.030002441
57	0x3c6204c4	0.0137950815
58	0xbd52125d	-0.051287044
59	0xbd934a08	-0.07191855
60	0xbdaea2f2	-0.08527173
61	0x3dd843b2	0.10559787
62	0xbc8531a9	-0.016259031
63	0xbce433fb	-0.027856817
64	0xbd1d6b68	-0.03843251
65	0xbd407d01	-0.046994213
66	0xbdc9fc5b	-0.09862586
67	0xbd81743c	-0.06320998
68	0x3d8620cd	0.06549225
69	0x3cab9a33	0.020947551
70	0xbd2175de	-0.039419048
71	0xbd2b1d9c	-0.041776285
72	0x3d8e90b4	0.06961194
73	0x3da32930	0.0796684
74	0x3dd7f9b8	0.10545677
75	0x3d005fe6	0.031341456
76	0x3d5da791	0.054114882
77	0xbb7acfbe	-0.0038270797
78	0xbd766e74	-0.06016393
79	0xbdd0d9ea	-0.10197814
80	0x3d870692	0.0659305
81	0xbca2170b	-0.019786378
82	0x3d28b413	0.041187357
83	0x3bbbbb83	0.0057291402
84	0xbdd04b56	-0.10170619
85	0xbd649408	-0.055805236
86	0x3cde595b	0.027142217
87	0xbcc713a3	-0.024301356
88	0xbdd79d28	-0.10528022
89	0x3d091631	0.03346843
90	0x3e00fc4e	0.12596247
91	0x3dbc6d4c	0.09200534
92	0x3e2755ce	0.16341326
93	0x3e18bd30	0.1491592
94	0x3daf6362	0.08563878
95	0x3e5c3193	0.21503286
96	0x3e2fa091	0.17151095
97	0x3e0bc001	0.13647462
98	0x3dd585ac	0.104258865
99	0xbdb60947	-0.08888488
100	0x3dbdd39c	0.09268877
101	0xbc96430a	-0.018342514
102	0xbd68a3ea	-0.056796946
103	0x3da3829b	0.079838954
104	0x3d3fc9d7	0.04682335
105	0x3d1806af	0.03711575
106	0xbc930d67	-0.017950727
107	0xbcba6540	-0.022753358
108	0x3daaedd1	0.08346141
109	0x3e1dfcd7	0.15428482
110	0x3da8965d	0.082318045
111	0x3ca1ca36	0.019749742
112	0x3e371eff	0.17882918
113	0x3d9aacce	0.07552491
114	0x3e1bfd43	0.1523333
115	0x3dc3fd9c	0.095698565
116	0x3e2bf3f6	0.16792282
117	0x3d5d2ed7	0.053999748
118	0xbd71388e	-0.058891825
119	0x3d8bcf59	0.06826658
120	0xbbc104ac	-0.0058904495
121	0xbdbde6b4	-0.09272519
122	0xbd01ce61	-0.03169096
123	0xbdd2a50a	-0.10285385
124	0xbd83e19c	-0.06439516
125	0xbda646df	-0.08118986
126	0x3d912ada	0.070882514
127	0xbbe73b7b	-0.007056651
128	0x3ba67d02	0.00508082
129	0x3d8e44e7	0.06946736
130	0x3d7e885e	0.06214177
131	0xbd5f7ec2	-0.054564245
132	0x3d6ffed9	0.05859265
133	0x3d52a64f	0.051428135
134	0xbd98c0ec	-0.07458672
135	0x3d8ad013	0.06777968
136	0xbdaee090	-0.08538926
137	0xbd842c43	-0.06453755
138	0xbddfbb19	-0.10924358
139	0x3d90a8bb	0.07063433
140	0xbb918eaa	-0.0044420557
141	0x3d8147b7	0.06312507
142	0xbc9a8aa0	-0.01886493
143	0x3d00fad3	0.031489205
144	0xbd51f50f	-0.051259097
145	0xbdd108b2	-0.102067366
146	0xb9bebbed	-0.0003637964
147	0xbce48cdf	-0.027899204
148	0xbcf95ea5	-0.030440638
149	0xbd8dc02e	-0.06921421
150	0xbc94fc54	-0.018186726
151	0x3c3438f9	0.010999911
152	0x3c8797f9	0.016551958
153	0xbdbec051	-0.09314025
154	0x3d77e0a3	0.060516965
155	0x3ccaddc7	0.024763955
156	0x3db51612	0.088421
157	0x3dadeb0a	0.08492096
158	0xbdac1a08	-0.084034026
159	0x3de56019	0.1119997
160	0xbdebb10c	-0.115083784
161	0x3d72e2eb	0.059298437
162	0xba1efde7	-0.0006065056
163	0x3d16b55e	0.03679406
164	0xbd86b52a	-0.06577523
165	0x3d592e78	0.05302283
166	0xbd74d6c5	-0.059775133
167	0xbdc81d27	-0.09771185
168	0x3ce2c3c9	0.027681248
169	0x3d4275ee	0.047475748
170	0x3dbb6132	0.09149398
171	0xbd212bb3	-0.039348315
172	0x3d93e91f	0.07222199
173	0x3d0e9d34	0.03481789
174	0xbd9dcf80	-0.07705593
175	0xbdf12d95	-0.11776272
176	0x3cb89d09	0.022535818
177	0xbdbdc322	-0.09265734
178	0x3c34d31e	0.011036662
179	0xbdf61c0a	-0.12017067
180	0x3dc76019	0.09735126
181	0x3d59e68c	0.053198382
182	0x3c07044a	0.008240769
183	0x3d91ee83	0.071255706
184	0xbd5dc80d	-0.05414586
185	0xbb8af3c1	-0.0042404835
186	0x3cca7e28	0.02471836
187	0xbd1daabe	-0.03849291
188	0xbbee384b	-0.0072698942
189	0xbd063e25	-0.03277411
190	0x3df1bcc5	0.11803583
191	0x3dddb81a	0.1082613
192	0x3de2c583	0.110728286
193	0x3dd4e484	0.103951484
194	0xbdafa082	-0.08575536
195	0x3d860cca	0.06545408
196	0x3d6c6efa	0.057723023
197	0xbd887d2b	-0.06664499
198	0x3d64ed35	0.05589028
199	0xbd2de963	-0.042458903
200	0x3d04d45c	0.032429084
201	0x3d50af24	0.050948277
202	0x3dd939e4	0.10606745
203	0xbd28b44a	-0.041187562
204	0xbd897acb	-0.06712874
205	0x3de5c943	0.11220028
206	0x3d6f71a4	0.058457986
207	0x3d4fc7fd	0.050727833
208	0x3d1805a2	0.037114747
209	0xbd19604a	-0.037445344
210	0x3d824e2b	0.063625656
211	0xbdbda456	-0.0925986
212	0x3c640a4b	0.01391847
213	0x3d46b45a	0.04851184
214	0x3d93f405	0.072242774
215	0xbd56615f	-0.052338954
216	0xbd7b167c	-0.06130074
217	0x3d6120e7	0.05496302
218	0xbd84fd7f	-0.06493663
219	0xbd93ba3f	-0.07213258
220	0xbd9e1980	-0.077197075
221	0xbd214f06	-0.039382003
222	0x3b9cbc73	0.004783207
223	0xbd3b3adc	-0.04571043
224	0xbd146724	-0.036231175
225	0xbdc147ee	-0.094375476
226	0x3d83a60a	0.06428154
227	0xbccddf0c	-0.025130771
228	0xbd878a32	-0.066181555
229	0x3cd68b5f	0.026189504
230	0xbda1d0e7	-0.07901173
231	0x3d9ee5d4	0.0775868
232	0x3d827141	0.06369258
233	0xbdd34306	-0.10315518
234	0xbdabab64	-0.083822995
235	0xbd8f6edb	-0.07003566
236	0xbd689d84	-0.056790844
237	0x3c59f615	0.013303299
238	0xbdd5d276	-0.10440533
239	0xbd9c8488	-0.07642466
240	0x3d539ce6	0.051663302
241	0xbcf9643d	-0.030443305
242	0xbd201672	-0.039083906
243	0xbd9684d5	-0.073495544
244	0x3d863086	0.06552224
245	0x3cfb7434	0.030695058
246	0xbc9182d1	-0.017762573
247	0xbd342282	-0.04397822
248	0x3d1e10d2	0.03859026
249	0x3d7d1e44	0.06179644
250	0x3d910d3e	0.07082604
251	0x3d272cc4	0.040814176
252	0xbc84a187	-0.016190303
253	0xbda3f6f3	-0.08006086
254	0x3d935a53	0.07194962
255	0x3ae845ba	0.0017720975

conv2.bias f4 [20]
0	0x3d3388c9	0.04383162
1	0x3db9a621	0.0906489
2	0xbcfde960	-0.030995071
3	0x3e83f9c7	0.25776502
4	0x3da68d14	0.08132377
5	0x3ca60917	0.020268006
6	0x3e4e7c05	0.20164497
7	0xbe00c801	-0.12576295
8	0xbcbcbff4	-0.02304075
9	0xbbf14bba	-0.0073637636
10	0xbddb70c1	-0.107148655
11	0xbc18cfb8	-0.009326868
12	0xbdc3d877	-0.09562772
13	0xbd342451	-0.043979947
14	0x3e357b46	0.17722806
15	0x3d1a2e34	0.03764172
16	0xbce7a9d2	-0.028279219
17	0x3d092efd	0.033492077
18	0xbb6149ca	-0.0034376257
19	0x3d83fdde	0.06444906

conv3.weight f4 [40, 20, 3, 3]
0	0x3d556d48	0.05210617
1	0x3d735dd5	0.059415657
2	0xbd54a263	-0.051912677
3	0xbc007e1d	-0.007842568
4	0x3c8eb9c4	0.017422564
5	0xbcf4c618	-0.029879615
6	0x3d45b7ad	0.04827087
7	0xbc1747d5	-0.009233435
8	0x3beae3d5	0.007168273
9	0xbd4ec5d6	-0.05048164
10	0x3d9a38c4	0.075303584
11	0xbce2e465	-0.027696798
12	0x3c846c54	0.016164936
13	0xbd20499d	-0.039132703
14	0x3db37878	0.08763212
15	0x3cc8386a	0.024440963
16	0x3d83330e	0.06406222
17	0xbceffd9e	-0.029295739
18	0x3c23e657	0.010003648
19	0x3d0e32d3	0.03471644
20	0x3d6dafe7	0.05802908
21	0x3d6d0a85	0.05787136
22	0xbbd425a9	-0.006474216
23	0x3b76f8df	0.003768496
24	0x3ce3a03a	0.027786363
25	0xbc9732f4	-0.018456914
26	0xbcb53bb8	-0.022123203
27	0xbde812c9	-0.11331708
28	0xbdf28a9a	-0.118428424
29	0xbd6877fb	-0.056755047
30	0xbc83ed66	-0.016104411
31	0xbc8287c6	-0.015933882
32	0x3b82d325	0.0039924555
33	0xbb8105a5	-0.0039374405
34	0x3c9a1236	0.018807512
35	0xbd3a10cc	-0.045426175
36	0x3d720391	0.059085432
37	0xbd6c8786	-0.057746433
38	0xbb3b71f4	-0.0028601857
39	0x3cec4eee	0.02884623
40	0x3caaca11	0.020848306
41	0xbcee4085	-0.0290835
42	0xbd851417	-0.064979725
43	0x3d8a4b31	0.06752623
44	0x3c350485	0.011048441
45	0x3d40f606	0.047109626
46	0x3ca7e8f6	0.020496827
47	0x3d7ab508	0.0612078
48	0x3cb8a23f	0.022538302
49	0x3ca0c3b4	0.019624569
50	0x3c92af27	0.017905785
51	0x3d38903c	0.045059428
52	0x3e1bb4bb	0.15205662
53	0x3dc616f8	0.0967235
54	0x3d329141	0.043595556
55	0x3d42e2da	0.047579624
56	0x3d4d20cb	0.050080102
57	0xbd728c43	-0.059215795
58	0xbd50be04	-0.050962463
59	0xba5de5e2	-0.0008464736
60	0xbd31ec9d	-0.043438543
61	0xbc105214	-0.008808631
62	0xbd02f3ba	-0.031970717
63	0x3d8e5540	0.06949854
64	0x3c1dfd23	0.009642872
65	0x3ddae282	0.10687734
66	0xbd17f886	-0.037102245
67	0xbd083e2d	-0.03326242
68	0x3d7b87d4	0.061408833
69	0x3d6b69f2	0.057474084
70	0x3cefa719	0.029254483
71	0xba29a6f8	-0.00064717187
72	0x3c736f8b	0.014858137
73	0xbbc53089	-0.0060177487
74	0xbc7f3bc9	-0.015578219
75	0x3d074f6c	0.033034727
76	0xbd124528	-0.035710484
77	0x3d7850ec	0.060624048
78	0xbd5924ff	-0.053013798
79	0xbd0c2b98	-0.03422126
80	0x3cd40f59	0.025886225
81	0x3cec045e	0.028810676
82	0xbc5c5dce	-0.013450099
83	0xbd5780cb	-0.05261306
84	0xbc15de93	-0.009147304
85	0xbcb66ee9	-0.022269683
86	0xbc302812	-0.010751741
87	0xbc068994	-0.008211512
88	0x3d2fb813	0.042900156
89	0xbc0e00eb	-0.008667211
90	0xbd233132	-0.03984184
91	0xbca3b31e	-0.01998287
92	0xbcf655b8	-0.03007017
93	0xbd60b042	-0.054855593
94	0x3d86619c	0.06561586
95	0x3db74f67	0.08950692
96	0x3dbcfd0f	0.092279546
97	0x3d6d44b8	0.057926863
98	0x3bc8381f	0.006110206
99	0xbd326881	-0.043556694
100	0x3d2788e7	0.040902045
101	0xbd0a1ea0	-0.033720613
102	0x3d771743	0.06032492
103	0xbcfd9350	-0.030954033
104	0xbd4a4ffa	-0.049392678
105	0xbd27514e	-0.040849023
106	0x3da88524	0.082285196
107	0x3d98b8d4	0.07457128
108	0x3d0c0d45	0.034192342
109	0x3ce0aa2e	0.027424898
110	0x3de92b70	0.11385238
111	0x3d9fbe13	0.07799926
112	0x3dc32fc9	0.09530599
113	0x3c5964b1	0.013268636
114	0x3d917aa1	0.07103468
115	0x3e149168	0.14508593
116	0xbb2c97d0	-0.0026335604
117	0x3d95c5ae	0.07313095
118	0xbd493c28	-0.049129635
119	0xbcb0b132	-0.021568868
120	0xbba6759a	-0.005079937
121	0x3c83ef28	0.01610525
122	0x3cbed867	0.023296548
123	0xbd279fda	-0.04092393
124	0x3d16cd66	0.036816977
125	0x3cb266a6	0.021777462
126	0xbd2f8ba2	-0.042857774
127	0xbde0a499	-0.109688945
128	0x3d940a83	0.072285675
129	0xbd371df7	-0.04470631
130	0xbd31c096	-0.043396555
131	0x3dc69dd9	0.09698076
132	0xbd1c8bd6	-0.038219295
133	0x3dc86961	0.097857244
134	0x3d9b65e0	0.075877905
135	0xbd5390bf	-0.051651713
136	0xbd80bd46	-0.06286101
137	0xbd1c79f4	-0.03820224
138	0x3cbfb1f9	0.023400294
139	0x3d97150a	0.0737706
140	0xba0cc45a	-0.0005369835
141	0xbcc18661	-0.023623647
142	0xbc9a600d	-0.018844629
143	0xbd4b16e9	-0.049582396
144	0x3d99b9f8	0.07506174
145	0x39630465	0.00021650044
146	0xbd5bb513	-0.053639483
147	0xbd452337	-0.048129287
148	0x3d49e41e	0.049289815
149	0x3d35bca6	0.044369362
150	0x3d5c4622	0.05377782
151	0x3b2c8825	0.0026326266
152	0xbb59bcc8	-0.0033224095
153	0xbb3a3549	-0.0028413108
154	0xbccf9a28	-0.025342062
155	0xbcab244a	-0.020891327
156	0x3bd60073	0.0065308153
157	0xbd21e08e	-0.039520793
158	0xbcea05d4	-0.028567232
159	0xbc82784e	-0.015926506
160	0xbc1ef9ef	-0.0097031435
161	0x3d0d5e8d	0.034514
162	0x3c3c98e5	0.011511062
163	0x3d94eef5	0.0727214
164	0x3cd53786	0.026027452
165	0x3aaecb09	0.0013335656
166	0xbd48dbdc	-0.0490378
167	0xbcc7a2e8	-0.024369672
168	0xbbe43166	-0.0069638966
169	0xbd430027	-0.047607567
170	0x3c887559	0.016657518
171	0x3d40838f	0.047000464
172	0x3d252022	0.040313847
173	0xbd01daae	-0.03170269
174	0xbc941b9b	-0.01807957
175	0x3d968632	0.073498145
176	0xbb84e65e	-0.004055782
177	0xbd8909de	-0.06691335
178	0x3c8212fc	0.015878193
179	0x3ca5dd48	0.020247117
180	0xbcece88d	-0.028919483
181	0xbc133d86	-0.008986836
182	0xbd7c716e	-0.061631612
183	0x3cb79929	0.0224119
184	0xbd552464	-0.052036658
185	0x3ccd37e7	0.02505107
186	0x3d6546ff	0.05597591
187	0xbd455663	-0.048178088
188	0xbcf21f2a	-0.029555876
189	0x3bf964b3	0.0076108812
190	0x3a535d0f	0.0008062878
191	0x3d38261f	0.04495823
192	0xbb36e47a	-0.0027907179
193	0x3c60c0d8	0.0137178525
194	0xbc9337ca	-0.017970938
195	0x3cd31fca	0.025771994
196	0x3cbd32ab	0.02309545
197	0xbd70df51	-0.05880672
198	0x3d24af61	0.040206317
199	0xbc6025bd	-0.0136808725
200	0x3d8a7c71	0.067620166
201	0xbd95862b	-0.07300981
202	0xbbd462ac	-0.006481489
203	0x3d11aed4	0.03556712
204	0x3d530d99	0.05152664
205	0x3ace440d	0.0015736833
206	0xbd1e0f02	-0.03858853
207	0xbd812772	-0.06306352
208	0xbd7479d7	-0.059686508
209	0x3d838f28	0.06423789
210	0xbd7ee05d	-0.06222569
211	0xbd054d11	-0.0325442
212	0x3d2a98b4	0.041649535
213	0x3d26fbaf	0.040767368
214	0xbd921d8b	-0.07134541
215	0x3ca64fa5	0.02030165
216	0x3c06ecbb	0.008235152
217	0x3d8b8d31	0.068140395
218	0xbb571e80	-0.0032824576
219	0x3d01e11f	0.031708833
220	0xbbde8b94	-0.0067915414
221	0x3d87954d	0.06620274
222	0xbbfb578a	-0.0076703476
223	0xbd39461e	-0.045232885
224	0x3c587eef	0.013213857
225	0xbd2d51be	-0.042314284
226	0x3ca21589	0.01978566
227	0x3d6ff375	0.058581788
228	0xbd5f5cdb	-0.054531913
229	0xbd6b2594	-0.057408884
230	0x3c38cc6a	0.011279205
231	0xbc3c1c81	-0.011481405
232	0xbcd787b3	-0.026309824
233	0x3da1475f	0.07874941
234	0x3d04294d	0.03226595
235	0xbcce1d44	-0.02516044
236	0x3c51d92a	0.012808124
237	0xbc2f7765	-0.010709618
238	0xbd4e5d42	-0.050381906
239	0x3d08051e	0.033208005
240	0xbd576921	-0.052590493
241	0x3beab5e7	0.0071627977
242	0x3d6745ec	0.056463167
243	0xbd8de9df	-0.06929373
244	0x3ba06033	0.0048942803
245	0x3d967120	0.07345796
246	0x3d121993	0.03566892
247	0xbcf5a77a	-0.029987086
248	0x3ca52d49	0.020163195
249	0xbd953e61	-0.072872885
250	0x3c47e3f7	0.012200347
251	0x3d9ccf52	0.07656731
252	0x3d842da4	0.06454018
253	0xbae16a86	-0.0017197884
254	0x3ce0904c	0.027412556
255	0xbc40dd1c	-0.011771467

conv3.bias f4 [40]
0	0x3c41ba5a	0.011824215
1	0xbd2e84cb	-0.04260711
2	0x3d4138d4	0.047173336
3	0xbccd2d4f	-0.025046019
4	0xbd483102	-0.048874862
5	0x3c950f8a	0.018195886
6	0x3dd86fc5	0.10568193
7	0xbd587dd2	-0.052854367
8	0x3ad1aac6	0.0015996329
9	0x3c6ff36c	0.014645439
10	0x3d6f7b35	0.05846711
11	0x3d9e0320	0.0771544
12	0xbcbe07bb	-0.023197046
13	0x3d25f15c	0.04051338
14	0xbd661095	-0.056168158
15	0xbbf74015	-0.007545481
16	0xbd84f4d6	-0.06492011
17	0x3cf95516	0.03043608
18	0xbb9f8606	-0.0048682718
19	0xbd3ac344	-0.045596376
20	0xbb618a9d	-0.0034414895
21	0xbd3d5fed	-0.04623406
22	0xbbb45174	-0.005502874
23	0x3d1ab40f	0.037769374
24	0x3c7ad0f5	0.015308608
25	0xbc67a79a	-0.01413908
26	0x3d8bb413	0.06821456
27	0x3cd0b300	0.025475979
28	0x3c165551	0.009175614
29	0x3d6d6144	0.057954088
30	0x3d396d67	0.04527035
31	0x3d9c9c76	0.0764703
32	0x3dcb58ff	0.09929084
33	0x3cb56e60	0.022147357
34	0xbaca16f8	-0.0015418222
35	0x3c6bdd5d	0.014396039
36	0x3de71882	0.11283971
37	0x3d83ca30	0.064350486
38	0x3d422a13	0.047403406
39	0x3d59b6a2	0.053152688

conv4.weight f4 [80, 40, 3, 3]
0	0xbcf7566e	-0.03019258
1	0xbca347fa	-0.019931782
2	0xbd0de979	-0.034646485
3	0xbc122890	-0.008920804
4	0x3d32f4e8	0.043690592
5	0xbc832ea7	-0.016013457
6	0xbc349015	-0.01102068
7	0x3c08e6c3	0.008355799
8	0xbbe947fb	-0.0071191764
9	0x3cefde7b	0.029280892
10	0xbcadcfa6	-0.021217179
11	0xbd31c76d	-0.043403078
12	0x3c490873	0.012270081
13	0xbd0b6160	-0.03402841
14	0x3b4e7c1b	0.0031507078
15	0xbc2d7e14	-0.010589141
16	0x3d34109e	0.04396116
17	0x3c2c7f2f	0.01052837
18	0x3d6d88a0	0.057991624
19	0x3bd62605	0.006535294
20	0xbc1830fd	-0.0092890235
21	0xbd249fb4	-0.040191367
22	0x3c360847	0.011110372
23	0xbd0564e7	-0.03256693
24	0xbc689f64	-0.014198158
25	0xbb23f959	-0.002502045
26	0xbd28deb3	-0.041228008
27	0xba77d7d9	-0.0009454466
28	0xbd07466a	-0.033026136
29	0x3d0c225d	0.03421246
30	0xbd3c6d49	-0.04600266
31	0x3d7b1fee	0.061309747
32	0x3d1b6988	0.03794244
33	0xbcfd5013	-0.030921971
34	0x3ad076d1	0.0015904551
35	0x3c2dad00	0.010600328
36	0xbcc98a72	-0.024602149
37	0x3d307329	0.043078575
38	0x3d16bea7	0.036802914
39	0xbb91899d	-0.0044414536
40	0x3ce0589f	0.027386008
41	0x3d2e04c6	0.04248502
42	0xbb4a21d8	-0.0030842926
43	0x3cbaddf2	0.02281091
44	0x3d0511bf	0.032487627
45	0xbc8f7327	-0.017510964
46	0xbc965f9c	-0.018356137
47	0xbcc43c11	-0.023954423
48	0xbc2340ec	-0.009964209
49	0xbca65256	-0.020302933
50	0x3d08f0fd	0.03343295
51	0xbd370916	-0.0446864
52	0x3d1690e0	0.036759257
53	0xbd34735e	-0.044055335
54	0xbc868a6b	-0.016423425
55	0x3d248fab	0.040176075
56	0xbb6be0b1	-0.003599208
57	0x3d184421	0.037174348
58	0x3cdfe9b4	0.027333118
59	0x3d1589d0	0.03650838
60	0xbc85f6b4	-0.016352989
61	0x3d03973d	0.032126654
62	0xbd24df12	-0.0402518
63	0xbd415c6f	-0.047207292
64	0xbc6718d8	-0.014105044
65	0xbcb8069b	-0.022464087
66	0x3d23af98	0.03996238
67	0xbd12e614	-0.03586395
68	0xbd0756a1	-0.0330416
69	0x3b06b2f9	0.0020553453
70	0xbd5c7e46	-0.05383136
71	0xbd5254a1	-0.05135024
72	0x3d093cd3	0.033505272
73	0xbb525a8f	-0.0032097434
74	0xbd44871e	-0.04798042
75	0xbd50daf6	-0.050990067
76	0x3d4c5a71	0.04989094
77	0xbce3241d	-0.027727181
78	0x3cdecc17	0.027196927
79	0xbd01c5b6	-0.031682692
80	0xbd5da126	-0.05410876
81	0xbca702a9	-0.02038701
82	0x3ce7ff6d	0.028320039
83	0xbd04fab5	-0.032465655
84	0x3ce3ad59	0.02779262
85	0x3acb9b29	0.0015533912
86	0x3d2a8052	0.041626282
87	0x3c17b2f1	0.009258972
88	0x3bb15537	0.0054117697
89	0xbb09958a	-0.0020993673
90	0xbd054eda	-0.0325459
91	0xbd05567f	-0.032553192
92	0x3d5e6a30	0.054300487
93	0x3ccf3ead	0.02529844
94	0x3d3c0aa9	0.045908604
95	0x3d75eb25	0.060038704
96	0xbd255eca	-0.0403736
97	0x3cc8a163	0.024491018
98	0xbd00c1e5	-0.031434912
99	0x3ca1e07d	0.019760365
100	0x3cc35b71	0.023847314
101	0xbd1c03db	-0.038089614
102	0x3ca06f24	0.019584246
103	0xba1582ac	-0.00057033706
104	0x3d1543b0	0.036441505
105	0x3cd76354	0.02629248
106	0x3be859c9	0.0070907813
107	0x3d63aaf6	0.055582963
108	0xbcce3227	-0.025170399
109	0x3c608f49	0.013706037
110	0xbd4159af	-0.04720467
111	0xb9d51341	-0.0004064087
112	0x381a4f20	3.6790152e-05
113	0x3d17de09	0.037076984
114	0xbd47364b	-0.048635762
115	0xbccfa884	-0.02534891
116	0xbd30139e	-0.04298746
117	0xbc901b8e	-0.017591264
118	0x3d0f462f	0.03497904
119	0xbbbf288f	-0.0058336924
120	0xbd49c8eb	-0.049263876
121	0x3d1de44d	0.038547803
122	0x3d5c92dc	0.053850994
123	0x3c2038a8	0.009779133
124	0xbcdf973b	-0.027293792
125	0x3ba88614	0.0051429365
126	0x3c02d5c5	0.007985537
127	0xbca0206f	-0.019546716
128	0x3cdef7b8	0.02721773
129	0x3d003092	0.03129632
130	0x3c9a4a65	0.018834302
131	0xbce1667e	-0.027514692
132	0x3d06d937	0.032921996
133	0x3c71b769	0.014753201
134	0xbd294e05	-0.04133417
135	0xbca5c9ed	-0.020237887
136	0x3d2f3eca	0.04278449
137	0xbc8f55f8	-0.017497048
138	0x3cbc2544	0.022966988
139	0xbca5f54f	-0.020258574
140	0x3a8d694c	0.0010788827
141	0xbd48e9b0	-0.049050987
142	0xbd0965bb	-0.033544283
143	0xbb6bbb0d	-0.0035969645
144	0x3cd69aa9	0.026196795
145	0x3d0c450b	0.034245532
146	0x3c2302da	0.00994941
147	0xbc8a75f8	-0.016901955
148	0x3cdff8b2	0.027340267
149	0x3c96b1d4	0.018395342
150	0xbd6f3217	-0.05839738
151	0xbdab7d41	-0.083735
152	0xbc5a510b	-0.013324986
153	0x3c82b5b4	0.015955783
154	0x3b681d26	0.0035417764
155	0x3d2a60b3	0.041596126
156	0x3b3eb53e	0.0029099728
157	0xbc6e730d	-0.014553797
158	0x3d85479c	0.06507799
159	0xbd6a0083	-0.057129394
160	0xbd84d326	-0.06485586
161	0x3d3cd20e	0.04609876
162	0x3c205bbc	0.009787496
163	0xbd07397b	-0.033013802
164	0x3d3671d3	0.044542145
165	0xbcf898de	-0.03034633
166	0x3d016396	0.031589113
167	0xbbf9f725	-0.007628339
168	0xbdbe25cd	-0.09284554
169	0x3c130bd6	0.00897499
170	0x3bde7db0	0.0067898855
171	0xbd7d3d74	-0.061826184
172	0x3d40dbf6	0.04708477
173	0xbc0896e5	-0.008336757
174	0x39605d29	0.0002139701
175	0x3d336713	0.04379947
176	0xbb3ee3f6	-0.0029127575
177	0x3b841506	0.0040308265
178	0xbd53e4dd	-0.051731933
179	0xbc9add09	-0.018904226
180	0x3d7be9d2	0.061502285
181	0xbbe91d76	-0.0071141077
182	0x3da1fd4d	0.079096414
183	0xbc84295b	-0.016133001
184	0x3d127368	0.03575459
185	0x3d1b06a7	0.03784814
186	0xbd8b8dee	-0.0681418
187	0x3b04e3a0	0.0020277277
188	0xbd3e543f	-0.046467062
189	0x3d633695	0.055471975
190	0xbd0d95db	-0.03456674
191	0x3cee75f0	0.029108971
192	0x3c02e656	0.007989487
193	0x3d355ded	0.044279028
194	0x3d1bc968	0.038033873
195	0xbc9cc33f	-0.01913607
196	0xbcfc8659	-0.03082578
197	0x3c230e32	0.009952115
198	0x3d037787	0.032096412
199	0x3c6581d1	0.014008001
200	0x3d5a176a	0.053244986
201	0xbd012c53	-0.03153641
202	0x3ccb7c0c	0.024839424
203	0x3cfc2170	0.030777663
204	0x3cc00b31	0.023442836
205	0xbb8afca5	-0.0042415434
206	0xbaac77e1	-0.0013158285
207	0x3c2377d0	0.009977296
208	0x3cf9afbe	0.030479308
209	0x3d901c33	0.070366286
210	0xbccd5f48	-0.025069848
211	0x3d491f31	0.049102012
212	0x3d8f6b12	0.07002844
213	0xbd99f8e1	-0.07518173
214	0xbd848390	-0.06470406
215	0x3bc86cba	0.006116477
216	0xbcd661f8	-0.026169762
217	0x3bda5d8a	0.0066639828
218	0x3d092ec9	0.033491883
219	0xbbb6f9fb	-0.005583999
220	0xbd090504	-0.03345205
221	0xbd121c63	-0.035671603
222	0xbb6f95f2	-0.003655788
223	0x3cb6d1d6	0.022316854
224	0x3ccf0558	0.025271103
225	0x3cdf2dc8	0.02724351
226	0x3cd06066	0.025436591
227	0x3b11f30f	0.0022270118
228	0x3c220d11	0.009890811
229	0x3d3bcf27	0.045851853
230	0x3cd04ad7	0.025426311
231	0xbc59d3ea	-0.013295153
232	0xbd86e5b4	-0.06586781
233	0xbc13feef	-0.009032949
234	0xbcd378a1	-0.025814356
235	0x3d4c35fd	0.049856175
236	0x3d918abb	0.07106539
237	0xbcd8edd6	-0.026480597
238	0x3d2aea4b	0.041727345
239	0xbcc5ac03	-0.024129873
240	0xbdb5b0a6	-0.08871584
241	0xbd561564	-0.052266493
242	0x3c37c4a5	0.011216317
243	0x3cb558d8	0.02213709
244	0x3b35e5a3	0.0027755282
245	0x3cb8da8e	0.022565152
246	0xbbedfae5	-0.007262575
247	0xbb8fc2e0	-0.0043872446
248	0x3b9f98b1	0.004870497
249	0x3d220ee0	0.039564967
250	0xbd14ad11	-0.03629786
251	0xbd8afc35	-0.06786386
252	0x3cfd79c4	0.030941851
253	0x3d893402	0.06699373
254	0x3d623adb	0.05523191
255	0xbc47a6e8	-0.01218579

conv4.bias f4 [80]
0	0xbd040274	-0.032228902
1	0xbd49adf9	-0.04923818
2	0xbbd27748	-0.006422911
3	0x3bb2f130	0.0054608807
4	0x3d23443e	0.039860003
5	0xbd09b625	-0.033620972
6	0x3cf8c305	0.03036643
7	0xbcfa0a2d	-0.03052243
8	0xbc679b1e	-0.014136104
9	0x3c955657	0.018229647
10	0x3bb4f9ac	0.0055229273
11	0x3b81e1be	0.003963678
12	0x3cdc0d71	0.026861878
13	0x3d80b610	0.06284726
14	0x3d0a2c3f	0.033733603
15	0x3d7230a0	0.059128404
16	0x3d47ac10	0.048748076
17	0xbcb9376e	-0.022609439
18	0x3d976e2b	0.0739406
19	0xbd63c869	-0.055611048
20	0xbbc566a9	-0.006024201
21	0xbc63b1c9	-0.013897368
22	0x3d93320e	0.071872815
23	0xbd728140	-0.059205294
24	0x3c23e948	0.010004349
25	0x3d1317d5	0.0359114
26	0xbbb40267	-0.0054934504
27	0xbd2517a2	-0.04030574
28	0x3d2db36a	0.04240743
29	0x3c1ecb17	0.009691975
30	0xbbe6344a	-0.0070252763
31	0xbd1013e3	-0.035175215
32	0xbd3c6fed	-0.04600518
33	0x3c5ce91f	0.013483315
34	0x3c0524bd	0.008126435
35	0x3dc34b69	0.09535868
36	0x3cc3b09d	0.023887927
37	0x3d949474	0.07254878
38	0x3c15926e	0.00912915
39	0x3d8157a2	0.06315543
40	0xbc7451b7	-0.01491206
41	0xbc85d805	-0.016338358
42	0x3d0762c0	0.03305316
43	0x3de5bad7	0.112172775
44	0xbd11e030	-0.035614192
45	0x3de0c785	0.10975555
46	0xbaffe357	-0.0019522709
47	0x3cc16260	0.02360648
48	0xbd07f126	-0.03318896
49	0x3d92ab2e	0.07161556
50	0x3d89aad5	0.06722037
51	0x3d5dc3eb	0.05414192
52	0xbcaa23ea	-0.020769078
53	0x3cdceac5	0.026967416
54	0xbd081d25	-0.03323092
55	0xb9c12c22	-0.0003684471
56	0x3d27dc62	0.040981658
57	0xbcad42fd	-0.021150107
58	0x3d09b187	0.03361657
59	0xbbda886f	-0.006669096
60	0xbcd8a0a1	-0.026443781
61	0x3d0a4abb	0.033762675
62	0xbb615c05	-0.0034387123
63	0x3d9af0f0	0.075654864
64	0x3b69b34c	0.0035659848
65	0xbd88edf0	-0.06686008
66	0xbc5ebfff	-0.01359558
67	0xbc3a27fc	-0.011362072
68	0x3bfef256	0.0077803535
69	0xbcfc9ade	-0.030835565
70	0x3d6e9c90	0.05825478
71	0xbcc6e0c4	-0.024277098
72	0xbcced115	-0.025246182
73	0xbd18ff2f	-0.037352737
74	0x3d2153b7	0.039386477
75	0x3d1e0abe	0.038584463
76	0x3d80a6ae	0.062817916
77	0x3c2c7ed2	0.010528283
78	0x3d34b106	0.044114135
79	0xbc6a8209	-0.014313229

fc1.weight f4 [64, 1280]
0	0x3b88a4d3	0.004170039
1	0x3ab655b3	0.0013911038
2	0xbd305dac	-0.043058082
3	0x3c6a0fb8	0.014285974
4	0x3cca0023	0.024658268
5	0xbc08cfe5	-0.008350347
6	0x3c535ae5	0.012900089
7	0x3c90d762	0.017680828
8	0x3d48f29d	0.0490595
9	0x3c40f311	0.011776702
10	0xbc012d71	-0.007884369
11	0xbbb6e297	-0.005581211
12	0xbc0035d2	-0.007825332
13	0xbc2aba5d	-0.010420409
14	0x3d0ff65c	0.035147056
15	0xbcb26032	-0.021774385
16	0x3c07be15	0.008285065
17	0xbaa6dfa5	-0.0012731446
18	0xbc8f50ca	-0.017494578
19	0xbbd4a282	-0.006489099
20	0xbc41cbd8	-0.011828385
21	0x3be1e842	0.0068941424
22	0x3cd69c6c	0.026197635
23	0xbcd4e805	-0.025989542
24	0x3c27b98b	0.010237108
25	0x3ced20f5	0.02894638
26	0xbb65cac9	-0.0035063496
27	0xbd11f08a	-0.035629787
28	0x3cabeba6	0.02098639
29	0x3cb50316	0.022096198
30	0x3c8dad2c	0.017294489
31	0xbc4c03aa	-0.012452045
32	0xbcbbc35e	-0.022920307
33	0x3ccc2281	0.024918796
34	0x3accef5c	0.00156353
35	0x3c9c1785	0.019054184
36	0xbc73931c	-0.014866617
37	0x3bf51b80	0.007480085
38	0x3c25fef7	0.010131589
39	0x3b7f3e6e	0.0038947123
40	0xbc64553e	-0.013936339
41	0xbc3f0f7a	-0.011661405
42	0xbcb0311f	-0.021507798
43	0xbb825488	-0.003977362
44	0x3ccb620d	0.024827028
45	0xbc890302	-0.016725067
46	0x3c69a310	0.014260069
47	0x3cb716a1	0.022349657
48	0xbc8825de	-0.016619619
49	0x3d17169e	0.036886804
50	0xbc92c11c	-0.017914347
51	0x3a05fdb0	0.000511135
52	0xbbbb1875	-0.0057097026
53	0x3c297ba9	0.010344424
54	0xbc9f630b	-0.019456407
55	0xbcffdd2d	-0.031233395
56	0x3c244e66	0.010028457
57	0x3c53d041	0.01292807
58	0xbb84f834	-0.0040579084
59	0x3abb9633	0.0014311731
60	0xbbeed2be	-0.007288306
61	0x3d414b4f	0.04719096
62	0x3b019eaa	0.001977841
63	0xbc3f2dc9	-0.011668631
64	0xbbad98c3	-0.0052977516
65	0x3cac822c	0.021058165
66	0xbd3c64fe	-0.04599475
67	0xbc80f599	-0.01574211
68	0xbc97398f	-0.018460063
69	0xbc8eba17	-0.017422719
70	0x3cb9d937	0.022686584
71	0xbce576f5	-0.028010825
72	0xbc74e430	-0.014946982
73	0x3add3923	0.001687799
74	0x3c7f6a09	0.015589246
75	0x3c422ac9	0.011851021
76	0xbc8544f1	-0.016268225
77	0xbc83caa6	-0.016087841
78	0xbb973dcc	-0.004615521
79	0x3bed0c3b	0.007234124
80	0x3cebcfdf	0.028785644
81	0xbc789ffd	-0.015174863
82	0x3cdc683b	0.02690517
83	0xbc4288e5	-0.0118734585
84	0xbb684629	-0.003544221
85	0x3caac95a	0.020847965
86	0xb719c3f6	-9.165136e-06
87	0xbc32570d	-0.010885012
88	0xbc6e63f1	-0.014550195
89	0xbc10e606	-0.008843904
90	0x3cdaca4f	0.026707796
91	0xbbebe588	-0.007198993
92	0xba97d60b	-0.0011584176
93	0x3be6b613	0.007040748
94	0xbc306a29	-0.010767498
95	0xbd0bcf1a	-0.034133054
96	0x3c53a893	0.012918609
97	0xbb75bcf3	-0.0037496656
98	0x3c5c9c6e	0.01346503
99	0x3cbe5330	0.023233026
100	0xbb66052c	-0.0035098298
101	0xbc189d15	-0.009314795
102	0xbc851302	-0.016244415
103	0x3c2716aa	0.010198275
104	0x3bea2bc3	0.00714633
105	0xbc65b1e9	-0.014019468
106	0xbbf83666	-0.007574844
107	0x3ce1ec7c	0.027578585
108	0x3cbbaa81	0.022908451
109	0x3a85bdb7	0.0010203634
110	0x3c46e3f4	0.012139309
111	0xbcea96bf	-0.028636334
112	0xbd004b13	-0.031321596
113	0xbdb280a7	-0.08715945
114	0xbce554b1	-0.027994486
115	0xbc9886e9	-0.018619018
116	0x3d320e01	0.043470386
117	0x3c88637b	0.016648998
118	0x3d692039	0.056915496
119	0x3cc167ac	0.023609005
120	0x3d26cbc9	0.04072169
121	0x3c198bd3	0.009371716
122	0xbc965b0d	-0.018353963
123	0xbd492347	-0.04910591
124	0xbc7bf94a	-0.015379259
125	0xbcbf3ffd	-0.023345942
126	0x3c7961b0	0.015221044
127	0x3cec3cb2	0.028837536
128	0x3d972b4e	0.073813066
129	0x3cfbec34	0.030752279
130	0xbc8aeef3	-0.016959643
131	0xbc84b4f8	-0.016199574
132	0x3d6d1c5b	0.05788837
133	0xbbf81735	-0.007571126
134	0xbbff02df	-0.0077823247
135	0xbbbe65a1	-0.005810455
136	0x3a55b816	0.0008152736
137	0xbc8a8a8b	-0.016911766
138	0xbc8d8740	-0.017276406
139	0xbcc16772	-0.023608897
140	0x3c88114c	0.01660981
141	0xbd05d94f	-0.032677945
142	0xbcf7f328	-0.030267313
143	0x3be6974a	0.007037078
144	0xbd086315	-0.033297617
145	0xbca3ff81	-0.020019295
146	0x3c32740d	0.0108919265
147	0xbcb64f9b	-0.022254756
148	0xbc9c7a6a	-0.01910134
149	0x3cf621e0	0.03004545
150	0xbcac29bf	-0.021016
151	0xbcc18b4c	-0.023625992
152	0xbd24dd16	-0.040249906
153	0xba45de44	-0.0007548074
154	0x3ce774ee	0.028253999
155	0x3c92aba1	0.017904105
156	0x3c9903bd	0.01867854
157	0x3d4ca2f1	0.04996008
158	0x3ca4c4d1	0.02011338
159	0x3c349e94	0.011024136
160	0xbd4ad22a	-0.049516834
161	0x3c4b39d5	0.012403925
162	0xbce54d81	-0.027991058
163	0xbb0365f0	-0.0020049773
164	0xbc8f0c57	-0.017461939
165	0x3cb28759	0.021793054
166	0xbd823db7	-0.063594274
167	0xbd034933	-0.03205223
168	0xb8e8a6ee	-0.00011093715
169	0x3cb3b860	0.021938503
170	0x3ca22fcb	0.01979818
171	0x3cc7a1d6	0.024369162
172	0x3b4b61c9	0.0031033626
173	0x3c7e1afe	0.015509365
174	0x3b053aad	0.0020329163
175	0xbc5976d3	-0.013272959
176	0x3d50001f	0.050781365
177	0xbd51f84a	-0.051262178
178	0xbd4ab2d6	-0.049486957
179	0xbc4a7a0b	-0.012358199
180	0xbba03427	-0.0048890295
181	0x3b9f31cd	0.0048582316
182	0xbad00ab1	-0.0015872327
183	0x3cd8a7db	0.026447227
184	0xbc3c53a3	-0.01149455
185	0x3c80e170	0.015732497
186	0xbc4c9642	-0.012486996
187	0xbd165462	-0.036701567
188	0x3d0417d0	0.032249272
189	0x3c8e5a56	0.01737706
190	0x3c85cbd8	0.016332552
191	0x3c4b45c8	0.012406774
192	0x3c110820	0.008852035
193	0xbd02ec65	-0.031963725
194	0x3cbdbabf	0.023160337
195	0xbca8dc16	-0.020612758
196	0x3bf6638c	0.007519191
197	0x3c16c8b0	0.009203121
198	0x3bbba175	0.0057260343
199	0xbd1c1b1f	-0.038111802
200	0x3bf32176	0.0074197603
201	0x3c1c2944	0.009531323
202	0x3c891a52	0.016736183
203	0x3cb56688	0.022143617
204	0x3c6e0309	0.014527091
205	0x3ce42f2a	0.02785452
206	0x3d0abb0b	0.033869784
207	0xbd6eab5a	-0.058268882
208	0x3ce4188b	0.027843734
209	0xbd4c6b23	-0.04990686
210	0xbc8ce0e8	-0.017197087
211	0x3a67799a	0.0008830071
212	0x3d0bb62c	0.03410928
213	0xbc549ca3	-0.012976798
214	0x3d145883	0.036217224
215	0x3ceb3065	0.0287096
216	0x3ceb063e	0.0286895
217	0xbd2dd924	-0.04244341
218	0xbd1ec95e	-0.038766257
219	0xbc9a8f03	-0.018867021
220	0xbc26680e	-0.0101566445
221	0x3a60dd02	0.00085778546
222	0xbc92c001	-0.01791382
223	0xbca3f8c2	-0.020016078
224	0xba449cc3	-0.0007500166
225	0xbca952cd	-0.020669365
226	0x39a09225	0.00030626464
227	0xbceedf97	-0.02915935
228	0xbcede326	-0.029038977
229	0x3c4957f5	0.012289037
230	0xbcaa5990	-0.02079466
231	0xbd25a25f	-0.040438052
232	0x3c89ff92	0.016845498
233	0xbc3fadb4	-0.011699129
234	0x3cee0725	0.029056141
235	0xbc271b25	-0.010199343
236	0x3c7a89aa	0.015291611
237	0x3d4a1165	0.049332995
238	0xbc80ec4b	-0.015737673
239	0x3d1891c2	0.03724838
240	0xbc32c813	-0.010911959
241	0x3b843a5f	0.0040352787
242	0xbc5e0976	-0.01355206
243	0x3b992143	0.0046731546
244	0x3ceeda73	0.0291569
245	0xbca9340f	-0.020654706
246	0x3c4266dd	0.011865345
247	0xbd7d1b36	-0.06179353
248	0xbc0a7cb4	-0.008452583
249	0xbbadc543	-0.0053030564
250	0x3b22902a	0.0024805167
251	0xbd1027dd	-0.035194267
252	0x3bbdfaf5	0.0057977387
253	0x3aa920fd	0.0012903508
254	0xbbc48ded	-0.005998364
255	0xbd9d5538	-0.0768227

fc1.bias f4 [64]
0	0xbbac3e77	-0.00525647
1	0x3b656d6d	0.003500785
2	0x3d3e6ac7	0.04648855
3	0x3d8cbe8a	0.0687228
4	0x3aae41e7	0.0013294787
5	0xbc579eb5	-0.013160397
6	0xbc54c47c	-0.012986299
7	0xbc607a88	-0.013701089
8	0x3d83d5f0	0.0643729
9	0xbb9c61c0	-0.004772395
10	0x3bfcae3a	0.007711199
11	0x3a648902	0.00087179255
12	0xbcd3a5fd	-0.025835985
13	0xbc7862cf	-0.015160277
14	0x3c97c8e0	0.018528402
15	0xbcfd05ca	-0.03088655
16	0xbd22ad94	-0.03971632
17	0xbccd7fe0	-0.02508539
18	0xbba36b2c	-0.004987141
19	0xbbda69c2	-0.0066654393
20	0x3d400ae0	0.04688537
21	0x3d0b38a8	0.03398958
22	0x3bfccf3e	0.007715135
23	0xbcf17ac2	-0.02947748
24	0xb8c99400	-9.611994e-05
25	0xbd41f089	-0.047348533
26	0xbb1b7474	-0.0023720535
27	0x3bbe2868	0.0058031566
28	0x3c0eb4e8	0.008710124
29	0xbd0bf7eb	-0.03417198
30	0xbc8eb18b	-0.017418643
31	0xbc6e8238	-0.014557414
32	0x3d47e483	0.04880191
33	0x3ce1b185	0.027550468
34	0xbb90d0ef	-0.004419438
35	0xbd239a3a	-0.039942004
36	0x3d29c1c4	0.041444555
37	0x3d6a37aa	0.05718199
38	0x3c7ac7bd	0.01530641
39	0xbc9e1a0d	-0.019299531
40	0x3c910980	0.017704725
41	0xbc8ac24e	-0.016938355
42	0x3cca8159	0.02471988
43	0x3c641089	0.013919958
44	0x3c5a8d96	0.013339421
45	0x3da246f2	0.07923688
46	0xbcfd8abe	-0.030949946
47	0x3c9f5258	0.019448444
48	0x3cd0fe9f	0.025512038
49	0xbd4f6877	-0.050636735
50	0x3d344e11	0.044019762
51	0x3d17134f	0.03688365
52	0xbd2535f6	-0.040334664
53	0x3cb4a5ff	0.02205181
54	0x3b3e6df0	0.0029057227
55	0x3cedb149	0.0290152
56	0xbcb0b754	-0.021571793
57	0xbbdfd117	-0.0068303454
58	0x3d0d2910	0.03446299
59	0xbcbb942f	-0.022897808
60	0xbc5dc8c3	-0.013536635
61	0xbd3770f0	-0.04478544
62	0x3cefbda3	0.02926523
63	0x3b750481	0.0037386718

fc2.weight f4 [12, 64]
0	0x3ddaf65c	0.106915206
1	0x3e13a475	0.14418204
2	0xbdd80080	-0.1054697
3	0xbb8e196e	-0.0043365275
4	0xbde53207	-0.111911826
5	0xbe0681e1	-0.13135482
6	0xbe286e79	-0.16448392
7	0xbe1d2eb7	-0.15349852
8	0x3d79a066	0.060943983
9	0xbdf7268f	-0.12067901
10	0x3d5d636e	0.0540499
11	0xbd3dc5e4	-0.0463313
12	0xbe96654b	-0.29374155
13	0x3d5658e9	0.052330885
14	0xbe8d8ae1	-0.2764502
15	0x3e002819	0.12515296
16	0x3dd97290	0.10617554
17	0xbdec9507	-0.11551862
18	0x3e128855	0.14309819
19	0x3e295566	0.16536483
20	0x3e7cecbc	0.24699682
21	0xbe468c34	-0.19389421
22	0x3e8702b1	0.2636924
23	0xbdbdb89d	-0.09263728
24	0xbd74a76e	-0.059729986
25	0xbe172582	-0.14760402
26	0x3d88f174	0.066866785
27	0x3de00ea9	0.10940296
28	0xbe510180	-0.20410728
29	0xbe607320	-0.21918917
30	0xbe22e692	-0.15908268
31	0xbdc408de	-0.09572004
32	0x3ea0634d	0.3132576
33	0x3d88f9f6	0.06688301
34	0xbcfbb4fc	-0.030725949
35	0xbc5e22b1	-0.013558076
36	0x3ddb4f02	0.10708429
37	0xbe0b65de	-0.13613078
38	0xbe0717fe	-0.13192746
39	0xbe898ff7	-0.2686765
40	0x3e3181b3	0.17334633
41	0x3e1c79be	0.15280816
42	0x3e398f92	0.18121174
43	0x3d8e8f08	0.06960875
44	0x3e07fae6	0.13279304
45	0xbdb507ea	-0.088394
46	0xbd836302	-0.064153686
47	0xbdb2e892	-0.087357655
48	0x3db67299	0.089085765
49	0xbdac4c75	-0.084130205
50	0xbbadd0eb	-0.005304446
51	0x3df6ba65	0.12047271
52	0x3d462730	0.048377216
53	0x3e00ffee	0.1259763
54	0xbc1e4af6	-0.009661427
55	0x3e24409b	0.1604027
56	0x3e20a76b	0.15688865
57	0xbccb41cb	-0.024811646
58	0xbbab4a54	-0.0052273665
59	0xbe5e8a52	-0.21732453
60	0x3da68c32	0.08132209
61	0xbe62316c	-0.22089165
62	0xbca334f9	-0.01992272
63	0xbc86a86d	-0.016437734
64	0x3de48ab6	0.111592695
65	0xbdac26ea	-0.0840586
66	0x3dcec4ac	0.10096106
67	0xbe6e9c18	-0.23301733
68	0xbd2b3534	-0.041798785
69	0x3c53f1a4	0.01293603
70	0x3dadca2c	0.08485827
71	0x3d828221	0.06372476
72	0xbd5a1d71	-0.053250734
73	0xbd77880b	-0.060432475
74	0xbe14df83	-0.14538388
75	0x3c919650	0.01777187
76	0xbe59efd6	-0.21282896
77	0x3d7cce34	0.061720088
78	0xbe5ada39	-0.21372308
79	0x3de5e494	0.112252384
80	0x3e2da7f2	0.16958597
81	0x3e1984af	0.14992021
82	0x3d6345dc	0.055486545
83	0xbcf86db8	-0.030325755
84	0xbc84e75a	-0.016223598
85	0xbdb31385	-0.087439574
86	0xbe115344	-0.1419192
87	0xbd92dc4d	-0.07170925
88	0xbd70a5ee	-0.058751993
89	0xbe260942	-0.16214469
90	0x3c729420	0.014805824
91	0x3d4e1972	0.050317235
92	0xbe5c1e18	-0.21495855
93	0x3d7ac18c	0.061219737
94	0xbd81dfcc	-0.06341514
95	0xbdd52501	-0.104074486
96	0x3e556904	0.20840842
97	0xbdd09430	-0.101845145
98	0xbd55e33f	-0.052218672
99	0x3e088057	0.13330208
100	0xbdc135c6	-0.094340846
101	0x3dc21072	0.09475793
102	0xbd14e812	-0.036354132
103	0x3bfec13b	0.0077744997
104	0xbdae404c	-0.085083574
105	0xbdf27da3	-0.118403696
106	0xbdf56931	-0.11982954
107	0x3deb622c	0.11493334
108	0xbe3b50b9	-0.18292512
109	0xbe358078	-0.17724788
110	0xbd4f0835	-0.050544936
111	0x3dc24182	0.09485151
112	0x3e37ae04	0.17937475
113	0xbe16d426	-0.14729366
114	0x3dd35733	0.10319366
115	0xbd3132f9	-0.043261502
116	0x3c155094	0.00911345
117	0xbdc4901b	-0.095977984
118	0xbc633b3d	-0.013869104
119	0xbd95317a	-0.072848275
120	0x3dfa424b	0.12219676
121	0x3d88c0b9	0.06677384
122	0x3e610f53	0.21978502
123	0x3e6f10d6	0.23346266
124	0xbc588055	-0.0132141905
125	0xbe5ab193	-0.21356802
126	0x3e25fc1a	0.1620945
127	0xbddf1a31	-0.108936675
128	0x3db31850	0.087448716
129	0xbda90789	-0.0825339
130	0x3decadff	0.115566246
131	0xbe25c273	-0.16187458
132	0x3e0a4f32	0.13506773
133	0x3df9d25a	0.121983245
134	0x3c426e03	0.011867049
135	0x3e5a9549	0.2134601
136	0xbcd6f050	-0.026237637
137	0xbbfbd83c	-0.0076856893
138	0x3d16e060	0.036835074
139	0xbd288c1c	-0.041149244
140	0xbc7c3555	-0.015393575
141	0x3d33e13c	0.043915972
142	0x3e02c39b	0.1276993
143	0xbd59e2b4	-0.053194717
144	0x3d059858	0.03261599
145	0x3c1fb2d8	0.0097472295
146	0xbe190a39	-0.14945306
147	0xbe7592de	-0.23981807
148	0xbcf816b0	-0.030284256
149	0xbd81a516	-0.06330316
150	0xbe25e87d	-0.16201968
151	0x3dadd21f	0.08487343
152	0xbddd3ea9	-0.10802967
153	0xbe002fab	-0.12518184
154	0xbd70e94f	-0.05881625
155	0x3e478cbb	0.19487278
156	0x3e2380dc	0.15967125
157	0x3d8dd15d	0.069246985
158	0xbe253e6a	-0.1613709
159	0x3dffdec1	0.12493659
160	0xbd43743c	-0.04771827
161	0xbd1c4a50	-0.038156807
162	0xbd18f625	-0.037344117
163	0x3e6cd55a	0.23128262
164	0xbb0a0bf5	-0.0021064256
165	0x3e0aa81b	0.1354069
166	0x3decc870	0.11561668
167	0x3e6a54c5	0.228839
168	0x3e07fdc5	0.13280399
169	0xbd82f11e	-0.06393646
170	0xbe1c4c45	-0.1526347
171	0xbdfda236	-0.12384455
172	0x3dd43087	0.10360818
173	0xbdd6c254	-0.10486284
174	0x3cd08ea2	0.025458638
175	0x3e828119	0.2548912
176	0x3d82514d	0.06363163
177	0xbd3f5846	-0.046715043
178	0xbe539ce7	-0.20665322
179	0xbdfa0326	-0.12207632
180	0x3e1cd32d	0.15314932
181	0x3e46ecd1	0.19426276
182	0x3cceb6c3	0.025233632
183	0xbdc674fd	-0.096902825
184	0xbd5ddd2e	-0.05416601
185	0x3dac96eb	0.08427223
186	0x3d76cf77	0.060256448
187	0xbabea6d4	-0.0014545568
188	0xbe01ba86	-0.1266881
189	0xbe3f494c	-0.18680304
190	0xbe405dad	-0.18785734
191	0x3d9337f2	0.07188405
192	0xbde42c36	-0.11141245
193	0x3cbdac31	0.023153396
194	0x3d97d430	0.074135184
195	0xbe87e0a6	-0.2653858
196	0x3df374ed	0.11887536
197	0xbcaf86d8	-0.021426603
198	0x3db73054	0.08944765
199	0x3e3d855b	0.18507902
200	0xbdb3bad1	-0.08775867
201	0xbdc973b1	-0.098365195
202	0xbe3ef37d	-0.18647571
203	0xbdcce34f	-0.10004293
204	0xbdaa36a9	-0.08311207
205	0xbe06ee28	-0.13176787
206	0x3d2950d4	0.04133685
207	0x3e0eaa2f	0.13932107
208	0x3dad166e	0.08451544
209	0x3e2a6f7e	0.16644093
210	0xbdcca85a	-0.09993048
211	0x3e2182c4	0.1577254
212	0x3e4c7d52	0.19969681
213	0x3ddacca4	0.10683563
214	0x3d533cf4	0.0515718
215	0x3d4f1cc9	0.05056456
216	0x3d9af054	0.0756537
217	0x3dfccbcc	0.12343559
218	0x3d9c21c8	0.07623631
219	0x3eb01f41	0.34398845
220	0x3e235c49	0.15953173
221	0x3d8bb859	0.06822271
222	0x3dc0a336	0.0940613
223	0xbd9161a7	-0.07098704
224	0xbe294c28	-0.16532958
225	0x3daf61e5	0.08563594
226	0xbe491327	-0.19636212
227	0xbdccb16b	-0.09994777
228	0x3d80ed47	0.06295257
229	0x3e018cc2	0.12651351
230	0xbda97402	-0.0827408
231	0x3dbd9ec9	0.092588015
232	0x3c5cba9d	0.013472226
233	0x3df4fa50	0.11961806
234	0x3d821aa7	0.0635274
235	0x3d80909d	0.06277583
236	0x3e1f7fcd	0.15576096
237	0xbd87f546	-0.06638579
238	0xbe2f0abb	-0.17093937
239	0x3d920124	0.07129124
240	0xbe868692	-0.26274544
241	0xbd8cc9cf	-0.068744294
242	0xbeca540a	-0.39517242
243	0x3e2cc3b7	0.16871534
244	0x3e30034f	0.17188762
245	0x3e1facbf	0.15593241
246	0xbe331473	-0.1748827
247	0x3df44bb5	0.119285025
248	0x3cf43aad	0.029813135
249	0x3e05fad1	0.1308396
250	0x3e251591	0.16121508
251	0xbdd1e9eb	-0.102496944
252	0xbc826aff	-0.01592016
253	0x3d5c52f3	0.053790044
254	0xbe139527	-0.14412366
255	0x3d644a95	0.05573519

fc2.bias f4 [12]
0	0x3e00c89f	0.12576531
1	0xbde8beee	-0.11364542
2	0xbe2b8ba5	-0.16752489
3	0xbb1bfcdd	-0.0023801841
4	0xbdaa3ed4	-0.08312765
5	0xbc8371c9	-0.016045468
6	0xbe341923	-0.17587714
7	0x3e59f75f	0.21285771
8	0xbcb444e4	-0.022005506
9	0xbe0f0467	-0.13966523
10	0xbda2e350	-0.07953513
11	0x3e3e4e7c	0.18584627
