Baseline/Classification/model3.pt (torch, 489999 bytes, 12 tensors)

weight f4 [10, 3, 3, 3]
0.14938478 0.2758165 -0.016963936 0.2870368 0.16997877 0.33279186 0.21593376 0.21646468
0.2953424 -0.09610368 -0.038625695 -0.20255564 -0.14292632 -0.1066767 -0.030412013 -0.111940585
0.111489765 0.0078011747 -0.1737421 -0.22483203 -0.16078053 -0.22023961 -0.15402678 -0.044263266
-0.0055726944 0.04548699 -0.23611236 0.19150037 0.13241193 0.39186668 0.14888212 0.0029158413
0.06437692 -0.03609364 0.42775372 0.11359052 0.08546575 -0.075998776 0.34355286 -0.1344239
0.2654448 0.19792181 -0.11888337 0.30587092 -0.015641768 -0.040661167 -0.13829295 0.055154912
-0.34622696 -0.05066877 0.23140475 -0.16642463 0.33434865 0.16062576 0.14358525 -0.001935177
0.29151392 0.18319762 0.00047260794 0.32599795 0.24630216 0.33631364 0.05360934 -0.05423407
-0.055865463 0.028000707 -0.20416732 -0.19446002 0.12963432 -0.098734744 0.07852887 -0.008257762
0.023650814 -0.033035316 0.051878624 0.012998917 -0.2628655 0.10517921 -0.21391907 -0.18213473
-0.031793572 -0.04184566 0.10285834 -0.12794997 -0.19375008 0.12787654 -0.021271793 0.08665122
0.05392355 -0.1472514 0.033608858 0.040627822 -0.14076777 -0.11213524 0.05700198 0.047637906
-0.1024061 -0.06318351 0.17780268 -0.032777883 0.111613974 0.07863735 -0.13905996 -0.16388355
0.20925857 -0.0038376092 0.13616888 0.051272202 0.05738322 0.28654122 0.23816162 -0.06387466
0.20869939 0.23777397 0.17098652 0.15505849 -0.17652863 -0.113940276 0.07149893 0.113602616
0.29016635 0.11270884 0.23606813 -0.046309896 -0.110308304 -0.04842273 0.1589426 0.41676334
0.0018774283 0.17831998 0.46302027 0.30725542 0.21465868 0.25115627 0.14499559 0.048408803
-0.15364037 -0.20399398 -0.062948875 -0.02593712 -0.14517933 0.11421798 0.07453118 -0.07518171
0.08934012 0.05344924 0.085365675 0.17582019 -0.05125956 0.17487748 0.045674488 0.029141834
-0.19810003 -0.099908434 -0.11754037 -0.11481369 0.19995573 -0.03859864 -0.15243188 0.16518818
0.11396446 0.11414599 -0.057556216 0.0804452 -0.0667825 0.025333386 -0.1417298 -0.10124907
-0.010365458 0.09105594 0.028356934 0.09057361 0.2302156 0.18652192 0.20327345 0.01547358
-0.15152788 0.20166422 -0.04047859 -0.025447467 -0.15560845 -0.034374814 -0.16630435 0.22258079
-0.19365902 -0.21128227 0.01772365 -0.13070682 0.019283105 -0.17297895 -0.11533006 0.13415794
0.098862 0.07469065 0.28375846 0.22004342 0.4417283 -0.16510043 -0.042942412 -0.14835136
0.31443518 -0.10128796 0.36654568 0.23457144 0.101362295 0.2881854 0.01977175 -0.018815635
0.021384511 0.22295399 -0.20685938 0.4316684 0.4339648 0.2921952 0.48888358 -0.14602947
-0.035115726 0.25544316 -0.06481687 0.1989081 -0.13513686 -0.11070675 0.09137343 -0.1582695
-0.041924424 0.15879895 0.22611265 0.2527403 -0.03279321 -0.15137939 0.19870406 -0.06379487
-0.12025077 0.031740814 -0.15843071 0.16857992 0.16059224 -0.19061774 -0.20195329 -0.046761625
0.011093444 -0.09338818 -0.15426408 -0.031553064 -0.30426186 -0.21301244 -0.17627406 0.116265796
0.23967399 -0.16884507 0.06825529 0.148609 0.025482172 -0.18662779 0.07039007 0.10842893
00000000: 53f8 183e d237 8d3e f4f7 8abc 7df6 923e
00000010: ea0e 2e3e b263 aa3e bd1d 5d3e eba8 5d3e
00000020: 1e37 973e 02d2 c4bd fa35 1ebd bf6a 4fbe
00000030: 475b 12be 5079 dabd 9d22 f9bc 1b41 e5bd
00000040: bf54 e43d ffa0 ff3b 73e9 31be 5e3a 66be
00000050: a7a3 24be 7e86 61be 32b9 1dbe 664d 35bd
00000060: 269b b6bb 9150 3a3d 70c7 71be ac18 443e
00000070: fe96 073e c0a2 c83e 8e74 183e b317 3f3b
00000080: 0cd8 833d edd6 13bd 8902 db3e 26a2 e83d
00000090: ab08 af3d 3fa5 9bbd 29e6 af3e 6ba6 09be
000000a0: 61e8 873e 04ac 4a3e 2079 f3bd 1d9b 9c3e
000000b0: 2a23 80bc 538c 26bd ab9c 0dbe 1eea 613d
000000c0: a944 b1be 0e8a 4fbd 5ef5 6c3e 386b 2abe
000000d0: bf2f ab3e 147b 243e 0308 133e c4a5 fdba
000000e0: 5041 953e 2898 3b3e 5dc8 f739 34e9 a63e
000000f0: a236 7c3e 4d31 ac3e 7895 5b3d 8b24 5ebd
00000100: 2fd3 64bd bd61 e53c 3d11 51be 8720 47be
00000110: dcbe 043e 7135 cabd bfd3 a03d 904b 07bc
00000120: 5abf c13c 0a50 07bd ae7e 543d 69f9 543c
00000130: 4f96 86be 3368 d73d 9a0d 5bbe 8781 3abe
00000140: fa39 02bd 5b66 2bbd 65a7 d23d 5105 03be
00000150: 6c66 46be 11f2 023e 2f42 aebc 3276 b13d
00000160: f1de 5c3d 12c9 16be 71a9 093d 5c69 263d
00000170: 6d25 10be 29a7 e5bd e87a 693d f71f 433d
00000180: 4aba d1bd 5b66 81bd e811 363e 1a42 06bd
00000190: de95 e43d 9e0c a13d bc65 0ebe 17d1 27be
000001a0: e147 563e 6680 7bbb db6f 0b3e cd02 523d
000001b0: ab0a 6b3d 88b5 923e a4e0 733e b8d0 82bd
000001c0: 4bb5 553e 057b 733e 1717 2f3e a7c7 1e3e
000001d0: ecc3 34be 8559 e9bd 086e 923d 7da8 e83d
000001e0: af90 943e e4d3 e63d d8bb 713e 72af 3dbd
000001f0: 52e9 e1bd ea56 46bd d9c1 223e 0162 d53e
00000200: 0a14 f63a 8399 363e fe10 ed3e 9550 9d3e
00000210: 7ccf 5b3e 8e97 803e b979 143e 4f48 463d
00000220: e753 1dbe cce3 50be 57eb 80bd 157a d4bc
00000230: e4a9 14be 1eeb e93d cea3 983d def8 99bd
00000240: f4f7 b63d 97ed 5a3d 33d4 ae3d 350a 343e
00000250: 8bf5 51bd 1513 333e 2c15 3b3d dbba ee3c
00000260: bcda 4abe cb9c ccbd 01b9 f0bd 7123 ebbd
00000270: 32c1 4c3e 9c19 1ebd 1a17 1cbe 1727 293e
00000280: 3366 e93d 5fc5 e93d 11c0 6bbd 74c0 a43d
00000290: 43c5 88bd f687 cf3c 9e21 11be ac5b cfbd
000002a0: e2d3 29bc 897b ba3d cd4c e83c a87e b93d
000002b0: a3bd 6b3e 9aff 3e3e ea26 503e e684 7d3c
000002c0: 202a 1bbe 1181 4e3e e1cc 25bd 3577 d0bc
000002d0: d257 1fbe 9bcc 0cbd b04b 2abe 38ec 633e
000002e0: 8d4e 46be 615a 58be 3031 913c 02d8 05be
000002f0: 9af7 9d3c 6521 31be 2b32 ecbd b360 093e
00000300: 2978 ca3d 69f7 983d ca48 913e 1053 613e
00000310: 362a e23e 1610 29be 62e4 2fbd 6be9 17be
00000320: a6fd a03e 1070 cfbd e0ab bb3e 7f33 703e
00000330: 0997 cf3d 098d 933e 5df8 a13c 3f23 9abc
00000340: 922e af3c 0d4e 643e f2d2 53be a403 dd3e
00000350: a230 de3e 9c9a 953e f34e fa3e c088 15be
00000360: 82d5 0fbd 72c9 823e b5be 84bd 91ae 4b3e
00000370: 5161 0abe 38ba e2bd fe21 bb3d 6611 22be
00000380: f2b8 2bbd 319c 223e 138a 673e 2d67 813e
00000390: 2c52 06bd 3303 1bbe 1479 4b3e e3a6 82bd
000003a0: 0946 f6bd a802 023d a93b 22be 37a0 2c3e
000003b0: 4b72 243e 4c31 43be d8cc 4ebe 1e89 3fbd
000003c0: 47c1 353c 4d42 bfbd 67f7 1dbe c93d 01bd
000003d0: 36c8 9bbe ef1f 5abe 3081 34be c31c ee3d
000003e0: 196d 753e b9e5 2cbe 6ec9 8b3d f52c 183e
000003f0: fdbf d03c 5b1b 3fbe ab28 903d fd0f de3d

bias f4 [10]
0.25091997 0.3081418 -0.11225743 -0.038416795 0.013600681 0.12980492 0.033054523 0.38855734
0.02370503 0.4418571
00000000: 9578 803e c3c4 9d3e 39e7 e5bd ee5a 1dbd
00000010: 64d5 5e3c 95eb 043e 2e64 073d fdf0 c63e
00000020: 0d31 c23c 183b e23e

weight f4 [20, 10, 3, 3]
0.12629184 0.06522922 -0.00028940043 -0.016132072 -0.05746435 0.122659564 0.015781611 0.057566416
0.03761418 -0.06861255 0.06271387 0.06406082 0.0032989185 -0.060767297 -0.041607972 -0.0010141646
-0.063639045 -0.060056124 -0.0072239023 -0.019592445 0.036976583 -0.020840531 -0.004685876 -0.0296674
-0.09038496 0.0996719 0.029479042 0.09351329 -0.017378923 -0.02626209 -0.09992087 -0.04140688
0.06865976 -0.10455717 -0.03801804 0.06330393 0.05813366 0.04080165 -0.014239066 -0.008853204
-0.019920334 -0.035641436 0.043308202 -0.03669906 -0.059193086 0.025393918 -0.07511477 -0.019246092
0.05494288 0.04050608 0.09093706 -0.07080036 0.0032597668 -0.02973342 -0.05479891 -0.056027573
0.031650774 0.015316355 -0.04982547 -0.070983015 -0.0837603 0.107425936 -0.014969147 -0.027033491
-0.037997395 -0.047595724 -0.09903501 -0.06327809 0.0654968 0.020283923 -0.039888766 -0.04175822
0.070562266 0.08103428 0.106876716 0.032881476 0.05528832 -0.0031340776 -0.05920486 -0.10108535
0.06687162 -0.017711405 0.0428752 0.0066801566 -0.100341864 -0.054703332 0.029056706 -0.022685556
-0.10400572 0.03451925 0.12724307 0.093614325 0.16591318 0.14957309 0.087519504 0.21813528
0.17368144 0.13819297 0.10614808 -0.087622404 0.09205412 -0.016385224 -0.057815347 0.078871146
0.048829608 0.034559432 -0.017723812 -0.02194017 0.08124719 0.15180303 0.08140566 0.016919956
0.17635232 0.07315219 0.14917319 0.0930567 0.16590399 0.054017853 -0.05879166 0.068791114
-0.0061041936 -0.09253474 -0.03108835 -0.10233426 -0.06422247 -0.080779724 0.07403675 -0.005586189
0.0061173057 0.06940859 0.062795095 -0.052573387 0.0560059 0.051560983 -0.07284532 0.067687616
-0.08489479 -0.0642544 -0.10895344 0.07058151 -0.0031064171 0.06409584 -0.018949559 0.032532163
-0.05063716 -0.10062677 0.0003230361 -0.026929114 -0.030380394 -0.0675494 -0.017363457 0.011191692
0.018212404 -0.09201224 0.05699655 0.021476554 0.082345545 0.07860288 -0.08496467 0.10528841
-0.11655188 0.05726459 -0.0013831307 0.036466036 -0.0656157 0.053680383 -0.060194787 -0.09808117
0.026752554 0.047311623 0.09275626 -0.037674066 0.073781356 0.037239835 -0.07649966 -0.115547836
0.024858177 -0.09036474 0.013142249 -0.11777644 0.09762857 0.053669803 0.008540989 0.071585655
-0.05406051 -0.0039408347 0.024818167 -0.03847075 -0.0074290475 -0.033583056 0.11670883 0.10538537
0.11036878 0.10419382 -0.08707988 0.06480995 0.05764736 -0.066693634 0.05539879 -0.042860083
0.031110823 0.050486013 0.10594197 -0.042209446 -0.06751586 0.11204897 0.05778789 0.050969154
0.03747866 -0.03770764 0.06343715 -0.09248704 0.013924405 0.048668034 0.072248824 -0.052383147
-0.062291607 0.054947313 -0.066401355 -0.07157651 -0.07650315 -0.038986154 0.006107241 -0.045048516
-0.0351967 -0.09470396 0.064185195 -0.024960289 -0.06586859 0.02611517 -0.07907042 0.07767206
0.06406609 -0.10284962 -0.08431273 -0.070214614 -0.05664384 0.013222494 -0.104340225 -0.07702173
0.051548023 -0.030709388 -0.039336845 -0.07381912 0.06473974 0.028748883 -0.017321253 -0.04287799
0.03748858 0.061366927 0.0709236 0.042114146 -0.016519047 -0.08120481 0.070575036 0.0012307414
00000000: a652 013e e696 853d abba 97b9 6827 84bc
00000010: bd5f 6bbd f034 fb3d 7048 813c c3ca 6b3d
00000020: 5411 1a3d bd84 8cbd 2170 803d 5232 833d
00000030: ab32 583b 21e7 78bd 1f6d 2abd b8ed 84ba
00000040: 3055 82bd 69fd 75bd 7cb6 ecbb 5680 a0bc
00000050: c274 173d c3b9 aabc fa8b 99bb 0c09 f3bc
00000060: c01b b9bd c820 cc3d 087e f13c e583 bf3d
00000070: 3e5e 8ebc 9823 d7bc 50a3 ccbd 439a 29bd
00000080: 7d9d 8c3d 1222 d6bd ceb8 1bbd 7ea5 813d
00000090: 901d 6e3d a21f 273d f94a 69bc 070d 11bc
000000a0: f82f a3bc c1fc 11bd f163 313d c151 16bd
000000b0: 7374 72bd e806 d03c c6d5 99bd fba9 9dbc
000000c0: c90b 613d b4e9 253d 363d ba3d c7ff 90bd
000000d0: d0a1 553b 8093 f3bc d274 60bd 2b7d 65bd
000000e0: 3ea4 013d 73f1 7a3c cb15 4cbd 8b5f 91bd
000000f0: 858a abbd 2102 dc3d 2741 75bc 5775 ddbc
00000100: 28a3 1bbd bcf3 42bd ded2 cabd f197 81bd
00000110: 3023 863d 782a a63c 6762 23bd ab0a 2bbd
00000120: f382 903d 4df5 a53d 2ee2 da3d baae 063d
00000130: 0176 623d 1965 4dbb cc80 72bd d605 cfbd
00000140: fdf3 883d 8217 91bc e89d 2f3d 37e5 da3b
00000150: 0980 cdbd 9a10 60bd 5408 ee3c 0fd7 b9bc
00000160: f300 d5bd 0f64 0d3d 024c 023e deb8 bf3d
00000170: 25e5 293e b029 193e 6d3d b33d db5e 5f3e
00000180: 8cd9 313e 7582 0d3e 2a64 d93d 6073 b3bd
00000190: df86 bc3d 4e3a 86bc c9cf 6cbd 3287 a13d
000001a0: 8e01 483d 318e 0d3d 8731 91bc dfbb b3bc
000001b0: ed64 a63d 4172 1b3e 03b8 a63d b89b 8a3c
000001c0: b495 343e d1d0 953d dbc0 183e 8394 be3d
000001d0: bce2 293e d341 5d3d 86cf 70bd 5be2 8c3d
000001e0: b005 c8bb db82 bdbd ffac febc a094 d1bd
000001f0: 1287 83bd d76f a5bd 94a0 973d 5a0c b7bb
00000200: ae73 c83b 1726 8e3d b79a 803d 3157 57bd
00000210: 7166 653d 9c31 533d ed2f 95bd ce9f 8a3d
00000220: 52dd adbd d097 83bd fb22 dfbd 0a8d 903d
00000230: 0895 4bbb ae44 833d 1b3c 9bbc 7240 053d
00000240: e968 4fbd 6815 cebd 2c5d a939 729a dcbc
00000250: 4ee0 f8bc 5757 8abd cf3d 8ebc 5c5d 373c
00000260: 2e32 953c ea70 bcbd 3775 693d 99ef af3c
00000270: c8a4 a83d 8cfa a03d f501 aebd 73a1 d73d
00000280: c1b2 eebd 468e 6a3d 2a4a b5ba 695d 153d
00000290: 8661 86bd f6df 5b3d cf8e 76bd c8de c8bd
000002a0: 2c28 db3c d5c9 413d fef6 bd3d 1f50 1abd
000002b0: ae1a 973d cc88 183d dbab 9cbd 58a4 ecbd
000002c0: 60a3 cb3c 2611 b9bd 9652 573c c634 f1bd
000002d0: 7df1 c73d ded4 5b3d 81ef 0b3c 809b 923d
000002e0: 8e6e 5dbd 1e22 81bb 784f cb3c 8193 1dbd
000002f0: 5e6f f3bb 638e 09bd 0a05 ef3d 49d4 d73d
00000300: 0709 e23d 9263 d53d f056 b2bd 14bb 843d
00000310: a31f 6c3d ac96 88bd d7e9 623d 0e8e 2fbd
00000320: 20dc fe3c 6cca 4e3d 1bf8 d83d d0e3 2cbd
00000330: c145 8abd ee79 e53d ffb2 6c3d 08c5 503d
00000340: 3983 193d 5473 1abd 56eb 813d d869 bdbd
00000350: 3023 643c 2258 473d 31f7 933d b68f 56bd
00000360: 7c25 7fbd 6f10 613d 6ffd 87bd b596 92bd
00000370: afad 9cbd f2af 1fbd 401f c83b cb84 38bd
00000380: 6a2a 10bd 26f4 c1bd 8773 833d 8579 ccbc
00000390: 1ce6 86bd 7bef d53c acef a1bd 8712 9f3d
000003a0: 1535 833d d2a2 d2bd 27ac acbd aecc 8fbd
000003b0: 5f03 68bd 29a3 583c 54b0 d5bd 92bd 9dbd
000003c0: 0524 533d 4192 fbbc ac1f 21bd 7b2e 97bd
000003d0: 4596 843d c782 eb3c 4de5 8dbc d5a0 2fbd
000003e0: a08d 193d e35b 7b3d 6440 913d e27f 2c3d
000003f0: f452 87bc b54e a6bd a589 903d d450 a13a

bias f4 [20]
0.0449562 0.091870576 -0.02977693 0.26296896 0.07933669 0.021270186 0.20532891 -0.12283405
-0.023909248 -0.009912323 -0.10290896 -0.0062476303 -0.087949246 -0.0459859 0.18266027 0.03756574
-0.027531872 0.03225352 -0.0039491267 0.0675932
00000000: fe23 383d a426 bc3d c0ee f3bc dea3 863e
00000010: 467b a23d d03e ae3c be41 523e 6b90 fbbd
00000020: 54dd c3bc 4c67 22bc efc1 d2bd ecb8 ccbb
00000030: bc1e b4bd b65b 3cbd 4b0b 3b3e 89de 193d
00000040: 858a e1bc 441c 043d ad67 81bb 4e6e 8a3d

weight f4 [40, 20, 3, 3]
0.052887604 0.059893128 -0.051658776 -0.0076096663 0.01795481 -0.029339274 0.048637975 -0.00903021
0.0076275202 -0.049070705 0.07692159 -0.026848352 0.01790871 -0.03786841 0.08905622 0.026244279
0.06555407 -0.02728009 0.009417576 0.033797972 0.057312768 0.057438415 -0.0074159205 0.002834077
0.026921602 -0.01979073 -0.022823008 -0.11479377 -0.11952412 -0.0589563 -0.016246619 -0.015313795
0.011777649 0.00242283 0.019280948 -0.041076113 0.05930071 -0.057987712 -0.0025441153 0.028918292
0.021221649 -0.028502587 -0.0641931 0.06731315 0.012825394 0.044796403 0.017209094 0.061914578
0.023965763 0.021211134 0.0278544 0.049373817 0.15165775 0.09891647 0.042636342 0.046884313
0.050348997 -0.057634056 -0.048551507 0.004930462 -0.04105058 -0.0076800147 -0.029297836 0.06958647
0.008942123 0.10913247 -0.03547173 -0.03163712 0.06773185 0.05928386 0.030559737 0.0019318548
0.014690506 -0.006222703 -0.014996084 0.03375805 -0.034973178 0.063235685 -0.051497933 -0.03370777
0.026330123 0.028170748 -0.014215256 -0.052048083 -0.0077933827 -0.021048248 -0.0053358166 -0.005974283
0.04425011 -0.0059739286 -0.03934486 -0.02015765 -0.031328093 -0.054219108 0.06625428 0.09291602
0.09174263 0.05816512 0.008294363 -0.044211622 0.040549364 -0.03421109 0.0608671 -0.031242035
-0.048403703 -0.040853888 0.08173561 0.07598402 0.03442879 0.027205864 0.11457414 0.07834412
0.09645399 0.018633852 0.0702299 0.14498705 -0.0006666309 0.07238327 -0.049338933 -0.022362897
-0.0054260534 0.016315999 0.023233082 -0.04149873 0.036781482 0.023091327 -0.045246657 -0.112689085
0.06917457 -0.04511496 -0.04334053 0.10569 -0.033668723 0.09880981 0.080153316 -0.052172225
-0.062441032 -0.037248068 0.023968795 0.073655486 -2.2551783e-05 -0.023996377 -0.018911554 -0.050210945
0.073594816 -0.00058488955 -0.05517351 -0.049314823 0.047680657 0.04342544 0.052989148 0.0014787859
-0.0029143698 -0.003520983 -0.026822545 -0.022250498 0.0075163115 -0.03901335 -0.0213175 -0.010341662
-0.009146595 0.038816165 0.010963889 0.072508864 0.026437303 0.0009809162 -0.049344122 -0.023943376
-0.008454947 -0.048360415 0.015713608 0.044967193 0.03974087 -0.032646623 -0.018516306 0.07266793
-0.0043357085 -0.06668831 0.016087972 0.021681162 -0.029289708 -0.009328559 -0.06197969 0.021733662
-0.053059984 0.024129622 0.055149946 -0.048959143 -0.03034927 0.0051422035 -0.0011542139 0.04370701
-0.0056747687 0.012113898 -0.01882692 0.023508256 0.022342797 -0.060880516 0.040182885 -0.013709364
0.06823167 -0.0728595 -0.006199568 0.036040056 0.05180548 0.0019150921 -0.038699888 -0.061056875
-0.053532243 0.079945095 -0.062073946 -0.028180413 0.051634904 0.040906038 -0.06420377 0.021379126
0.008413394 0.068434164 -0.0022965379 0.031097567 -0.0067592235 0.067603104 -0.008242553 -0.044702586
0.013287866 -0.043668468 0.02503971 0.07820955 -0.053007174 -0.049925264 0.018271916 -0.00882846
-0.02525385 0.077943325 0.032892182 -0.021585615 0.02243462 -0.008773073 -0.046613712 0.037356596
-0.04996209 0.008195974 0.05610596 -0.071085066 0.0065096742 0.08256803 0.035976317 -0.026746316
0.022802176 -0.071560174 0.010871388 0.073844105 0.064261325 -0.00087932165 0.030686274 -0.011359807
00000000: aca0 583d 7f52 753d 2798 53bd 825a f9bb
00000010: f715 933c eb58 f0bc 9d38 473d 72f3 13bc
00000020: 47f0 f93b 5dfe 48bd 1189 9d3d 13f1 dbbc
00000030: 49b5 923c e81b 1bbd 1c63 b63d 3efe d63c
00000040: 3641 863d 7f7a dfbc 2d4c 1a3c be6f 0a3d
00000050: cbc0 6a3d 8b44 6b3d 4001 f3bb ecbb 393b
00000060: b18a dc3c 2b20 a2bc 51f7 babc ff18 ebbd
00000070: 10c9 f4bd 297c 71bd a117 85bc b6e6 7abc
00000080: 0af7 403c 58c8 1e3b 14f3 9d3c 6d3f 28bd
00000090: 4de5 723d 8684 6dbd 2cbb 26bb 0ee6 ec3c
000000a0: 06d9 ad3c 427e e9bc ac77 83bd 7adb 893d
000000b0: 9a21 523c 6f7c 373d 16fa 8c3c 249a 7d3d
000000c0: d953 c43c f9c2 ad3c e92e e43c 333c 4a3d
000000d0: 2b4c 1b3e b894 ca3d 72a3 2e3d c409 403d
000000e0: c03a 4e3d b011 6cbd f2dd 46bd b78f a13b
000000f0: a724 28bd a2a8 fbbb 0402 f0bc 5a83 8e3d
00000100: fb81 123c d880 df3d ce4a 11bd ed95 01bd
00000110: ffb6 8a3d a2d3 723d 6a58 fa3c 4a36 fd3a
00000120: 73b0 703c d1e7 cbbb 23b2 75bc e245 0a3d
00000130: 0940 0fbd b681 813d 7fef 52bd 2911 0abd
00000140: 45b2 d73c 57c6 e63c 1be7 68bc 5f30 55bd
00000150: a25f ffbb 606d acbc 13d8 aebb ebc3 c3bb
00000160: 9a3f 353d f2c0 c3bb 1328 21bd a821 a5bc
00000170: e351 00bd db14 5ebd 53b0 873d c14a be3d
00000180: 8fe3 bb3d 8d3e 6e3d 14e5 073c 3f17 35bd
00000190: 1717 263d ee20 0cbd c84f 793d 4cef ffbc
000001a0: f642 46bd 6856 27bd 0065 a73d 839d 9b3d
000001b0: 3405 0d3d d5de de3c d9a5 ea3d e272 a03d
000001c0: ab89 c53d 05a6 983c b2d4 8f3d 7c77 143e
000001d0: d8c0 2eba ae3d 943d 9f17 4abd 6532 b7bc
000001e0: 09cd b1bb 21a9 853c 4e53 be3c 93fa 29bd
000001f0: 2ea8 163d 062a bd3c 8f54 39bd 89c9 e6bd
00000200: 66ab 8d3d 77ca 38bd d785 31bd 0074 d83d
00000210: 37e8 09bd cc5c ca3d 6c27 a43d 8bb2 55bd
00000220: 2bc2 7fbd 6e91 18bd 355a c43c b0d8 963d
00000230: 962d bdb7 0d94 c4bc 67ec 9abc fea9 4dbd
00000240: e1b8 963d 4653 19ba 9efd 61bd 57fe 49bd
00000250: cb4c 433d e0de 313d 260b 593d d2d3 c13a
00000260: 03ff 3ebb 4bc0 66bb f4ba dbbc ad46 b6bc
00000270: 644b f63b 76cc 1fbd 0aa2 aebc 1370 29bc
00000280: 9adb 15bc b3fd 1e3d e2a1 333c 877f 943d
00000290: 0b93 d83c 1692 803a 101d 4abd e624 c4bc
000002a0: 9e86 0abc 9215 46bd d3b9 803c 852f 383d
000002b0: 53c7 223d 77b8 05bd 82af 97bc ecd2 943d
000002c0: 8f12 8ebb e193 88bd ecca 833c b19c b13c
000002d0: f8f0 efbc d0d6 18bc 6ade 7dbd cb0a b23c
000002e0: 6d55 59bd 7cab c53c e9e4 613d 6289 48bd
000002f0: 089f f8bc ee7f a83b fe48 97ba 1f06 333d
00000300: 69f3 b9bb 5f79 463c ea3a 9abc 6394 c03c
00000310: 3e08 b73c d95d 79bd cf96 243d 3e9d 60bc
00000320: 0cbd 8b3d 5d37 95bd bf25 cbbb bd9e 133d
00000330: fc31 543d d403 fb3a c683 1ebd c616 7abd
00000340: a044 5bbd 41ba a33d 4041 7ebd 9cda e6bc
00000350: 1f7f 533d 178d 273d 447d 83bd 4723 af3c
00000360: 55d8 093c 3627 8c3d 8381 16bb 53c0 fe3c
00000370: 7a7c ddbb 7f73 8a3d c60b 07bc 0f1a 37bd
00000380: 59b5 593c b5dd 32bd 1420 cd3c 542c a03d
00000390: 0d1e 59bd 6f7e 4cbd fcae 953c 3fa5 10bc
000003a0: 29e1 cebc c0a0 9f3d f4b9 063d 51d4 b0bc
000003b0: cfc8 b73c efbc 0fbc 05ee 3ebd 3b03 193d
000003c0: 0ca5 4cbd 6848 063c 5dcf 653d 0c95 91bd
000003d0: 1b4f d53b 6d19 a93d e75b 133d 171b dbbc
000003e0: a1cb ba3c 248e 92bd e81d 323c 943b 973d
000003f0: 719b 833d 4782 66ba c861 fb3c 7c1e 3abc

bias f4 [40]
0.015099307 -0.045017425 0.04656689 -0.024714103 -0.048835024 0.017932452 0.101918794 -0.052495513
0.0031980982 0.014607111 0.056540668 0.07828492 -0.023204071 0.038622875 -0.051437825 -0.008761407
-0.063819975 0.027523758 -0.0063587697 -0.04493291 -0.0032791256 -0.04419508 -0.005538947 0.03544352
0.016704012 -0.013028343 0.06893339 0.025666611 0.011214227 0.058838464 0.046239275 0.074228145
0.099180795 0.021969369 0.000814385 0.016598163 0.11593276 0.058891702 0.048075434 0.05604767
00000000: 1563 773c 3164 38bd ecbc 3e3d 3b75 cabc
00000010: 3c07 48bd 14e7 923c cdba d03d 8905 57bd
00000020: 2f97 513b aa52 6f3c 3097 673d d853 a03d
00000030: 7716 bebc 0533 1e3d 78b0 52bd 018c 0fbc
00000040: 0cb4 82bd 8179 e13c 3a5d d0bb 920b 38bd
00000050: 99e6 56bb e605 35bd 0e80 b5bb 392d 113d
00000060: dad6 883c d574 55bc f32c 8d3d c942 d23c
00000070: e1bb 373c 9a00 713d 6565 3d3d ed04 983d
00000080: 4d1f cb3d 1bf9 b33c 747c 553a dff8 873c
00000090: 286e ed3d 6d38 713d bfea 443d 3e92 653d

weight f4 [80, 40, 3, 3]
-0.02614214 -0.016186267 -0.03466776 -0.007134908 0.04295557 -0.010698586 -0.01453381 0.0070117614
-0.009589803 0.025826855 -0.021623088 -0.042808194 0.011014536 -0.035042427 0.0028544527 -0.010951954
0.04188938 0.012113855 0.054553054 0.0058048232 -0.008870231 -0.040403742 0.015717715 -0.031935122
-0.012058037 -0.0027291893 -0.040713035 -0.0049477923 -0.028303564 0.036950946 -0.037915986 0.06389913
0.039827112 -0.0312885 -0.00044808583 0.013628573 -0.0246023 0.043078564 0.0368029 -0.004441451
0.027385963 0.042485084 -0.0030842961 0.022810878 0.032488737 -0.018072555 -0.012342542 -0.022654774
-0.0011903944 -0.02352163 0.038484693 -0.049557187 0.037002187 -0.04076438 -0.016546225 0.039743807
-0.003405222 0.03701374 0.027191471 0.036417358 -0.016250199 0.032138348 -0.040084984 -0.04742294
-0.013036685 -0.021048253 0.038815368 -0.03497199 -0.029591143 0.0014804688 -0.054468118 -0.0499707
0.034167174 0.00011570241 -0.045347646 -0.047649443 0.0494624 -0.025693443 0.025600461 -0.03262793
-0.053297 -0.020465262 0.02831141 -0.032472212 0.027789745 0.001552099 0.041622996 0.009261279
0.0054102396 -0.0021089888 -0.04163078 -0.029839823 0.059334286 0.03198126 0.04602591 0.06026139
-0.04198531 0.022815267 -0.02889673 0.021150652 0.023353355 -0.035996497 0.020900488 -0.00049214636
0.039235756 0.027547726 0.006170393 0.05723953 -0.0281108 0.014182125 -0.046397794 0.0015323975
0.0037567606 0.036959156 -0.0476741 -0.025537431 -0.04251004 -0.020336231 0.038604166 -0.00022426194
-0.04535188 0.044925023 0.054051466 0.011421467 -0.02989639 0.005793151 0.004031289 -0.015204397
0.032269977 0.03510922 0.023008943 -0.02572024 0.03489127 0.01508568 -0.037061293 -0.018790057
0.04549838 -0.017014977 0.02617997 -0.020883465 0.0015605565 -0.050315645 -0.03244101 -0.0029014365
0.0104461685 0.04681469 0.0218369 -0.0002054805 0.024644507 0.021182219 -0.06494372 -0.089526236
-0.011344637 -0.0052897898 0.009604188 0.046716027 -0.0007927117 0.0019263963 0.05656931 -0.04540345
-0.069056146 0.050862025 -0.0057794475 -0.02475503 0.053731557 -0.02002551 0.03223139 -0.0073230467
-0.09729586 0.0040967404 0.0056541977 -0.055798728 0.047709763 -0.0063439766 -0.00043685795 0.04493614
-0.00031832553 0.0035869686 -0.05168196 -0.019402437 0.053961106 -0.0018728994 0.089853495 -0.009860192
0.038069878 0.03656391 -0.064282395 -0.0015608231 -0.047759958 0.051653184 -0.034510247 0.031448223
0.010164308 0.0436275 0.03719775 -0.017195685 -0.03404368 0.00942726 0.038333423 0.023170829
0.051129747 -0.028405612 0.017865567 0.03676855 0.013774819 -0.0047200643 -0.0020719431 0.0022853008
0.035406146 0.07680407 -0.021358259 0.056251407 0.067791186 -0.06995585 -0.06761706 0.011170934
-0.025997248 0.01644603 0.031588297 -0.002271378 -0.03409912 -0.035495296 -0.0025235182 0.024133626
0.02841002 0.02184355 0.032564774 0.006431958 0.019427374 0.04421517 0.028764043 -0.017109208
-0.06604642 -0.006305693 -0.04021116 0.054926146 0.078916974 -0.026623927 0.046018872 -0.028523073
-0.08510216 -0.05491169 0.010393821 0.03166873 0.009096348 0.017636398 -0.0021668011 -0.005640233
0.010537143 0.0340672 -0.039031044 -0.07154767 0.032606207 0.069691285 0.058236156 -0.01051198
00000000: 0b28 d6bc 1099 84bc c8ff 0dbd f2cb e9bb
00000010: 2ef2 2f3d 1f49 2fbc 381f 6ebc ebc2 e53b
00000020: 8d1e 1dbc d792 d33c e722 b1bc a557 2fbd
00000030: 5076 343c a688 0fbd c511 3b3b d36f 33bc
00000040: 3394 2b3d 3179 463c 0673 5f3d 6336 be3b
00000050: 7254 11bc 657e 25bd 70c2 803c 67ce 02bd
00000060: 138f 45bc 33dc 32bb b6c2 26bd 1721 a2bb
00000070: e0dc e7bc e059 173d cb4d 1bbd 8cdd 823d
00000080: c121 233d 5f28 00bd 10ed eab9 614a 5f3c
00000090: c38a c9bc 2673 303d a3be 163d 9789 91bb
000000a0: 8758 e03c d704 2e3d e721 4abb e1dd ba3c
000000b0: e912 053d e50c 94bc 6038 4abc 8196 b9bc
000000c0: 0207 9cba 6fb0 c0bc 20a2 1d3d 7afc 4abd
000000d0: 9b8f 173d 8df8 26bd f38b 87bc 67ca 223d
000000e0: 252a 5fbb b89b 173d a6c0 de3c 5e2a 153d
000000f0: 231f 85bc 80a3 033d 2730 24bd 8f3e 42bd
00000100: d297 55bc 636d acbc ddfc 1e3d ca3e 0fbd
00000110: 2069 f2bc 4a0c c23a f619 5fbd 14ae 4cbd
00000120: e1f2 0b3d 42a5 f238 74be 39bd 102c 43bd
00000130: 1699 4a3d 0e7b d2bc 0fb8 d13c dda4 05bd
00000140: f44d 5abd c4a6 a7bc 55ed e73c 9501 05bd
00000150: 52a7 e33c cd6f cb3a e07c 2a3d 9fbc 173c
00000160: 6148 b13b f636 0abb 0985 2abd a572 f4bc
00000170: 8208 733d c8fe 023d aa85 3c3d a6d4 763d
00000180: caf8 2bbd 15e7 ba3c d6b8 ecbc 2244 ad3c
00000190: 894f bf3c 1071 13bd 8037 ab3c 6203 01ba
000001a0: acb5 203d c5ab e13c 0231 ca3b ff73 6a3d
000001b0: 9f48 e6bc 255c 683c 9d0b 3ebd bada c83a
000001c0: fc33 763b 7c62 173d eb45 43bd e033 d1bc
000001d0: 021f 2ebd 2b98 a6bc 671f 1e3d db27 6bb9
000001e0: e5c2 39bd 4d03 383d 1265 5d3d 1b21 3b3c
000001f0: 46e9 f4bc 79d4 bd3b e718 843b dd1b 79bc
00000200: 862d 043d afce 0f3d 407d bc3c 41b3 d2bc
00000210: 26ea 0e3d ee29 773c 95cd 17bd 9bed 99bc
00000220: 825c 3a3d fe62 8bbc 6077 d63c cd13 abbc
00000230: 968b cc3a c717 4ebd dde0 04bd 0726 3ebb
00000240: 6826 2b3c c3c0 3f3d 4ce3 b23c 4076 57b9
00000250: 47e3 c93c 5586 ad3c 3701 85bd 8859 b7bd
00000260: dbde 39bc f955 adbb e25a 1d3c 4e59 3f3d
00000270: fbcd 4fba 227f fc3a 39b5 673d f8f8 39bd
00000280: 4f6d 8dbd b354 503d 8561 bdbb 10cb cabc
00000290: 9f15 5c3d 8a0c a4bc 1005 043d 2bf6 efbb
000002a0: 0d43 c7bd f33d 863b d946 b93b 358d 64bd
000002b0: 506b 433d 22e1 cfbb 150a e5b9 f50e 383d
000002c0: eee4 a6b9 5913 6b3b 76b0 53bd dcf1 9ebc
000002d0: 5206 5d3d 137c f5ba 1c05 b83d a58c 21bc
000002e0: 29ef 1b3d 0ac4 153d 7da6 83bd 8894 ccba
000002f0: f29f 43bd 4a92 533d 9e5a 0dbd dacf 003d
00000300: 3388 263c c0b2 323d ab5c 183d f7dd 8cbc
00000310: 6371 0bbd cb74 1a3c 8203 1d3d c0d0 bd3c
00000320: 6d6d 513d e3b2 e8bc cf5a 923c 9e9a 163d
00000330: c7af 613c c5aa 9abb 70c9 07bb fcc4 153b
00000340: 0906 113d 744b 9d3d 84f7 aebc e067 663d
00000350: 1bd6 8a3d 0345 8fbd d07a 8abd 4b06 373c
00000360: 2ef8 d4bc d3b9 863c bb62 013d 66db 14bb
00000370: 85ab 0bbd 8463 11bd 9c61 25bb e2b3 c53c
00000380: 21bc e83c 3ff1 b23c a462 053d 2dc3 d23b
00000390: 2826 9f3c f71a 353d 92a2 eb3c 9c28 8cbc
000003a0: 5843 87bd fd9f cebb 75b4 24bd 3dfa 603d
000003b0: 399f a13d 6c1a dabc 497e 3c3d 38a9 e9bc
000003c0: 0b4a aebd 15eb 60bd d84a 2a3c 12b7 013d
000003d0: d908 153c 357a 903c e400 0ebb b4d1 b8bb
000003e0: fba3 2c3c 0c8a 0b3d 04df 1fbd 9687 92bd
000003f0: 168e 053d 4eba 8e3d 0989 6e3d 713a 2cbc

bias f4 [80]
-0.035146587 -0.04904348 -0.005245101 0.007600596 0.04045719 -0.033913914 0.030613203 -0.033743624
-0.010670208 0.017917298 0.0053413482 0.004608363 0.03053071 0.064367376 0.032507993 0.056078408
0.045775022 -0.022357242 0.07282493 -0.055402342 -0.0054726475 -0.014026333 0.0713309 -0.061068427
0.009331896 0.036007833 -0.0053563616 -0.03839395 0.037956078 0.009812356 -0.010973562 -0.03767541
-0.046157043 0.012521 0.00832065 0.09562694 0.026618654 0.07206879 0.010795424 0.06260225
-0.01627147 -0.016763112 0.031670254 0.111593865 -0.039119594 0.10645958 -0.0018088723 0.026313698
-0.033380702 0.06947664 0.066613175 0.053749226 -0.02242057 0.027100414 -0.033525027 -0.0011679227
0.041585363 -0.021589283 0.034145053 -0.007621198 -0.02593926 0.029519295 -0.0026985516 0.07402335
0.0030234398 -0.06687736 -0.013538782 -0.0091475155 0.011275158 -0.029481681 0.056039024 -0.023813568
-0.026092187 -0.036710255 0.039766837 0.037859034 0.059585594 0.011103149 0.051287662 -0.0143372435
00000000: def5 0fbd d1e1 48bd 19df abbb 6c0e f93b
00000010: 70b6 253d 51e9 0abd 8ac8 fa3c c136 0abd
00000020: 19d2 2ebc 4cc7 923c 7a06 af3b c001 973b
00000030: 8a1b fa3c 0bd3 833d 1a27 053d 79b2 653d
00000040: 977e 3b3d 8926 b7bc 3d25 953d 91ed 62bd
00000050: e553 b3bb b4ce 65bc ef15 923d e322 7abd
00000060: cfe4 183c f37c 133d 6b84 afbb f942 1dbd
00000070: d577 1b3d 01c4 203c 74ca 33bc 8851 1abd
00000080: 2b0f 3dbd e124 4d3c 5653 083c 0fd8 c33d
00000090: 5d0f da3c cd98 933d 4adf 303c 9c35 803d
000000a0: bf4b 85bc cb52 89bc abb8 013d 538b e43d
000000b0: de3b 20bd 7b07 da3d af17 edba d38f d73c
000000c0: 34ba 08bd c549 8e3d 7d6c 883d 2628 5c3d
000000d0: 58ab b7bc b001 de3c 8a51 09bd fc14 99ba
000000e0: 6a55 2a3d 02dc b0bc afdb 0b3d 3ebb f9bb
000000f0: 927e d4bc 73d2 f13c 2fda 30bb 8e99 973d
00000100: e724 463b fff6 88bd c4d1 5dbc 76df 15bc
00000110: 71bb 383c 9183 f1bc 2d89 653d ac14 c3bc
00000120: 48bf d5bc 7e5d 16bd 8de2 223d 1312 1b3d
00000130: 0610 743d fbe9 353c 0313 523d c2e6 6abc

weight f4 [64, 1280]
0.026678093 -0.0074997 -0.027264237 0.018170014 0.03127396 -0.009028461 0.01794629 0.010524502
0.04878897 0.018673573 -0.007874442 -0.008792933 -0.0016291495 -0.0077369604 0.026876852 -0.019710032
0.00061143946 -0.0021063085 -0.015005745 -0.017865855 -0.012864061 0.0034009956 0.02780642 -0.025217012
0.0006354818 0.024942886 -0.009603493 -0.04278047 0.025909755 0.014184074 0.017298184 -0.020708594
-0.020451022 0.030216621 0.0021899333 0.019877937 -0.013948294 0.007021585 0.011137135 0.008457793
-0.012786737 -0.012185311 -0.02232167 -0.0040280735 0.025120383 -0.016626516 0.013802006 0.024260886
-0.02764919 0.03107912 -0.022480719 0.0019127179 -0.00017828372 0.0066652712 -0.024723882 -0.030615658
-0.0034321572 0.014491267 -0.008642927 0.007113011 0.0059810476 0.049068484 0.0056800633 -0.0038887544
0.010441582 0.02983138 -0.043255437 -0.008109942 -0.013777482 -0.024621528 0.017649774 -0.036957186
-0.016240261 0.0047503184 0.014512638 0.00574466 -0.015803045 -0.012632472 -0.0049468726 0.012345335
0.011300293 -0.01535742 0.027148308 -0.0073527726 -0.0106108375 0.02332534 -0.005255921 -0.00512767
-0.018099606 -0.006827156 0.02422773 -0.005629027 0.00059129606 0.013212447 -0.0034592955 -0.017795442
0.011997486 -0.0026140218 0.013234685 0.023453854 -0.0038995938 -0.010047277 -0.016516238 0.009824414
0.0071701366 -0.014184111 -0.008045198 0.027078368 0.021856537 0.00076985237 0.012007674 -0.028911792
-0.02302434 -0.07435692 -0.010379499 -0.0042308774 0.044161003 0.011307218 0.049491238 0.015988192
0.047185693 0.019288179 -0.020353664 -0.06307504 -0.01167817 -0.02015791 0.009128646 0.045750353
0.071508974 0.029176671 -0.01354075 -0.022357766 0.04815573 -0.015381587 -0.010800256 -0.006615105
-0.002036192 -0.028152328 -0.026427655 -0.02442276 0.022557925 -0.037395544 -0.030232903 0.0072477674
-0.034558572 -0.024774604 0.0022118227 -0.018784441 -0.009112412 0.028033106 -0.028387617 -0.0279956
-0.04593945 0.004580292 0.02436774 0.027779136 0.03960349 0.04963604 0.030373456 0.01286273
-0.053920384 0.01165023 -0.03139296 -0.0049336 -0.023133416 0.01413411 -0.067176566 -0.033346195
-0.010335423 0.020271467 0.013648169 0.03006736 0.015202269 0.018388178 0.009680319 -0.018205024
0.0478331 -0.034967482 -0.026476523 0.0014849432 0.012822039 0.0041650217 -0.0023818274 0.033052403
-0.010118118 0.015291769 -0.012854259 -0.03735505 0.03261458 0.018334184 0.0153338285 0.011851628
0.0042713713 -0.033261187 0.029265206 -0.014497653 0.0070740227 0.0036220036 0.005285688 -0.02471656
0.009255623 0.014016646 0.022137752 0.025872098 0.010075504 0.032987446 0.03248145 -0.06120039
0.034486152 -0.053872168 -0.0056236074 0.017090894 0.03549999 -0.021514628 0.036023457 0.03506506
0.031971637 -0.03538941 -0.0359869 -0.016236749 -0.0056567956 0.0010021736 -0.026857218 -0.009700157
-0.017158987 -0.029154014 -0.0038396951 -0.025122108 -0.024307244 0.020323839 -0.022839285 -0.04316657
0.010396386 -0.011265908 0.031906426 -0.014052248 0.016868817 0.05870467 -0.014774058 0.037850384
-0.013183874 0.0077577312 -0.0136133265 0.0002534566 0.032864727 -0.008829702 0.016502025 -0.07101873
-0.015640562 -0.00087983883 0.0031606194 -0.03194378 0.0069885864 0.008641153 -0.0048673605 -0.08069178
00000000: 048c da3c 0bc0 f5bb 4059 dfbc 48d9 943c
00000010: 2019 003d 1cec 13bc 1904 933c f66e 2c3c
00000020: f1d6 473d 52f9 983c ce03 01bc 3c10 10bc
00000030: 3089 d5ba 5486 fdbb d82c dc3c ef76 a1bc
00000040: 0249 203a fe09 0abb a8da 75bc 6a5b 92bc
00000050: c8c3 52bc 3de3 5e3b 4aca e33c e893 cebc
00000060: 7696 263a 0655 cc3c f857 1dbc 933a 2fbd
00000070: b240 d43c 5164 683c ecb4 8d3c 12a5 a9bc
00000080: e788 a7bc d988 f73c fc84 0f3b 0ed7 a23c
00000090: 6387 64bc 5315 e63b 8878 363c 8e92 0a3c
000000a0: 767f 51bc e6a4 47bc efdb b6bc eefd 83bb
000000b0: 43c9 cd3c 5534 88bc cf21 623c c4be c63c
000000c0: 8e80 e2bc a399 fe3c 7c29 b8bc 2ab4 fa3a
000000d0: acf1 3ab9 5968 da3b bd89 cabc b0cd fabc
000000e0: 0bee 60bb c76c 6d3c 109b 0dbc 4314 e93b
000000f0: aafc c33b 09fc 483d d31f ba3b 79da 7ebb
00000100: 2b13 2b3c f060 f43c 9d2c 31bd 90df 04bc
00000110: f3ba 61bc 16b3 c9bc 4296 903c 6b60 17bd
00000120: 4c0a 85bc 8fa8 9b3b 6ac6 6d3c b33d bc3b
00000130: 6375 81bc 6ef8 4ebc 6019 a2bb 1744 4a3c
00000140: dd24 393c b09d 7bbc 2166 de3c 87ef f0bb
00000150: 14d9 2dbc c914 bf3c dc39 acbb 0306 a8bb
00000160: a045 94bc 56b6 dfbb 3c79 c63c b373 b8bb
00000170: 3501 1b3a 0579 583c 59b5 62bb bfc7 91bc
00000180: 1b91 443c 0250 2bbb 4bd6 583c 4c22 c03c
00000190: 5490 7fbb 569d 24bc 104d 87bc 94f6 203c
000001a0: 77f3 ea3b 7964 68bc 02d0 03bc 74d3 dd3c
000001b0: 7b0c b33c ebcf 493a d6bb 443c 6cd8 ecbc
000001c0: 8a9d bcbc 7148 98bd c60e 2abc 2ca3 8abb
000001d0: 2be2 343d e941 393c 53b7 4a3d abf9 823c
000001e0: c945 413d 3e02 9e3c babc a6bc 7d2d 81bd
000001f0: cc55 3fbc 3422 a5bc 5190 153c b964 3b3d
00000200: 4c73 923d ea03 ef3c 06da 5dbc a227 b7bc
00000210: f13e 453d 0d03 7cbc 8ff3 30bc 86c3 d8bb
00000220: a271 05bb b69f e6bc cf7e d8bc 3d12 c8bc
00000230: 66cb b83c 122c 19bd feaa f7bc ae7e ed3b
00000240: 4a8d 0dbd 1cf4 cabc 3af4 103b d4e1 99bc
00000250: 3a4c 15bc afa5 e53c 268d e8bc 0757 e5bc
00000260: 012b 3cbd 4616 963b db9e c73c 1291 e33c
00000270: 4537 223d 294f 4b3d c1d1 f83c 33be 523c
00000280: 9fdb 5cbd 9be0 3e3c e895 00bd 09aa a1bb
00000290: 4a82 bdbc c192 673c de93 89bd 0596 08bd
000002a0: e855 29bc 5910 a63c 929c 5f3c d34f f63c
000002b0: f012 793c cea2 963c 339a 1e3c b422 95bc
000002c0: a4ec 433d 103a 0fbd 4be5 d8bc 6da2 c23a
000002d0: 8813 523c bc7a 883b 6f18 1cbb f561 073d
000002e0: 76c6 25bc 548a 7a3c ac9a 52bc 9c01 19bd
000002f0: de96 053d 9231 963c bd3a 7b3c 552d 423c
00000300: dcf6 8b3b e23c 08bd 96bd ef3c 9087 6dbc
00000310: 34cd e73b 235f 6d3b 9133 ad3b 627a cabc
00000320: e6a4 173c 13a6 653c 3b5a b53c b9f1 d33c
00000330: ba13 253c d81d 073d 450b 053d 43ad 7abd
00000340: 5a41 0d3d 10a9 5cbd 3d46 b8bb 3402 8c3c
00000350: 7068 113d 723f b0bc 558d 133d 61a0 0f3d
00000360: b1f4 023d 7cf4 10bd 0067 13bd ee02 85bc
00000370: a45c b9bb 5e5b 833a ab03 dcbc 68ed 1ebc
00000380: 0191 8cbc 66d4 eebc 65a3 7bbb e1cc cdbc
00000390: fc1f c7bc 2e7e a63c 7419 bbbc 6ecf 30bd
000003a0: 9a55 2a3c a594 38bc 50b0 023d 663b 66bc
000003b0: 7930 8a3c 4f74 703d e40e 72bc 0109 1b3d
000003c0: 2d01 58bc 9134 fe3b 6e0a 5fbc 5ee2 8439
000003d0: 2a9d 063d 74aa 10bc 412f 873c 4572 91bd
000003e0: a320 80bc fca4 66ba 6522 4f3b 7bd7 02bd
000003f0: 8300 e53b 9f93 0d3c 617e 9fbb bb41 a5bd

bias f4 [64]
-0.0055812974 0.00315215 0.047705654 0.06753241 -0.00033095924 -0.013836636 -0.016937193 -0.012136065
0.063113764 -0.005668028 0.0077798804 0.002795352 -0.026742343 -0.01669514 0.018161874 -0.03022817
-0.03834109 -0.024528245 -0.0034806433 -0.005936357 0.04913674 0.02888133 0.007786503 -0.029464176
-0.0007187532 -0.04721464 -0.002634237 0.005486034 0.0052404916 -0.033841766 -0.020383006 -0.010737992
0.050377853 0.027317433 -0.0038119194 -0.043488633 0.045671403 0.058860395 0.018631116 -0.020120746
0.01354125 -0.016413376 0.02299765 0.013209528 0.012902615 0.07893043 -0.02605197 0.019178918
0.029120035 -0.04934291 0.04511545 0.03590443 -0.040903535 0.019254008 0.0033470262 0.02728691
-0.023042196 -0.0065441066 0.034992527 -0.027680067 -0.007030723 -0.04434341 0.03248314 0.0016952831
00000000: 51e3 b6bb 4d94 4e3b 0167 433d 6f4e 8a3d
00000010: 9984 adb9 0fb3 62bc debf 8abc 59d6 46bc
00000020: ca41 813d ddba b9bb 5eee fe3b 3932 373b
00000030: c212 dbbc 3fc4 88bc 36c8 943c 11a1 f7bc
00000040: 8c0b 1dbd 75ef c8bc 811b 64bb c685 c2bb
00000050: 9b43 493d 8a98 ec3c ec25 ff3b db5e f1bc
00000060: b66a 3cba 2364 41bd 2aa3 2cbb 30c4 b33b
00000070: 6eb8 ab3b aa9d 0abd 43fa a6bc 67ee 2fbc
00000080: 0259 4e3d cfc8 df3c 65d1 79bb 2321 32bd
00000090: f011 3b3d 9917 713d 48a0 983c 43d4 a4bc
000000a0: 1edc 5d3c 5875 86bc 9165 bc3c c76c 583c
000000b0: 7d65 533c 47a6 a13d f16a d5bc 1b1d 9d3c
000000c0: 248d ee3c cb1b 4abd faca 383d 8610 133d
000000d0: 778a 27bd 95ba 9d3c c859 5b3b cc88 df3c
000000e0: fdc2 bcbc f26f d6bb 5354 0f3d 4fc1 e2bc
000000f0: fb61 e6bb 6fa1 35bd 0a0d 053d 4334 de3a

weight f4 [12, 64]
0.11441601 0.16730657 -0.0962712 -0.0023595195 -0.09658425 -0.13627684 -0.16384481 -0.15230969
0.073021635 -0.11511586 0.046685494 -0.03152865 -0.29636082 0.08050854 -0.28303117 0.13897428
0.10779046 -0.15825352 0.13230217 0.13410714 0.2504037 -0.19774303 0.25396875 -0.094295174
-0.03835632 -0.15967292 0.06701054 0.11379315 -0.19727181 -0.22132136 -0.12882566 -0.105515406
0.32503882 0.06517736 -0.023767387 0.020287484 0.12749763 -0.11488753 -0.14124103 -0.26035818
0.13205665 0.1395213 0.18175697 0.053841207 0.12714626 -0.08458369 -0.03940584 -0.09611096
0.10329446 -0.073049 0.0075276955 0.14402188 0.04426304 0.14010388 -0.0007979181 0.19522925
0.16961882 -0.022920549 -0.05963174 -0.21201235 0.08502625 -0.24301197 -0.057658203 -0.008851636
0.10845518 -0.086022265 0.088197924 -0.22959724 -0.048126988 -0.0021854464 0.07362929 0.09354704
-0.043562997 -0.055924553 -0.12932722 -0.0046031172 -0.20425874 0.050546873 -0.21239549 0.11621571
0.15472229 0.15663263 0.06556077 -0.022760728 -0.026050473 -0.08137928 -0.13989721 -0.069793
-0.062162455 -0.16966799 0.014644851 0.061686616 -0.2002296 0.073234476 -0.044421513 -0.11236619
0.21275476 -0.100600354 -0.054638036 0.14901035 -0.07436807 0.09970412 -0.028621303 0.022912227
-0.07489464 -0.11253754 -0.09233914 0.12978724 -0.1732528 -0.19230828 -0.042037055 0.096961744
0.18571055 -0.15104333 0.0865361 -0.040253688 0.019975185 -0.0849111 -0.028629092 -0.08909387
0.09155806 0.065829866 0.2397105 0.24541536 -0.018350702 -0.24209829 0.1658869 -0.10500254
0.0915558 -0.10129279 0.09861323 -0.1719851 0.14203525 0.113169156 0.028291162 0.16813675
0.0039910474 0.016735109 0.047767293 -0.04665145 -0.02665228 0.06087564 0.12079734 -0.04504924
0.05553632 0.026090212 -0.18924625 -0.23407926 -0.035221785 -0.078772545 -0.17087191 0.061974473
-0.12718216 -0.14065927 -0.059182726 0.19802874 0.16166106 0.06402226 -0.13531241 0.14576115
-0.016957736 -0.052230205 -0.040377595 0.1935623 0.002371536 0.14708209 0.11673107 0.22078079
0.12758386 -0.010252701 -0.1344197 -0.14408475 0.096780434 -0.10917224 0.05006967 0.26040867
0.020566767 -0.025392894 -0.22718182 -0.11537435 0.1541735 0.23372768 0.051845066 -0.0849166
-0.027567891 0.082240924 0.083336875 -0.00076979084 -0.12965758 -0.19867235 -0.25236475 0.07716951
-0.11063366 0.015300584 0.118323386 -0.25019196 0.11837912 -0.01660099 0.08294029 0.1952578
-0.1218916 -0.12044547 -0.19063495 -0.107692815 -0.059417527 -0.13875405 0.03543197 0.12685047
0.076155014 0.14034271 -0.050486058 0.14372815 0.19648665 0.10377193 0.036562003 0.08392343
0.091278754 0.13536501 0.07561002 0.33128542 0.14395554 0.09819072 0.07573021 -0.11744305
-0.1941927 0.09296 -0.1960063 -0.018059192 0.044675928 0.14464821 -0.098935604 0.096705586
0.0363069 0.083203115 0.05095049 0.07932624 0.16454442 -0.047233656 -0.18209955 0.05642382
-0.24549462 -0.058336988 -0.40187865 0.18182673 0.18266715 0.16141666 -0.18609516 0.099671386
0.023578392 0.13207836 0.18609518 -0.10730511 -0.031233098 0.067602426 -0.040931232 0.050495043
00000000: f152 ea3d 6a52 2b3e d629 c5bd 2ba2 1abb
00000010: f7cd c5bd 288c 0bbe efc6 27be 12f7 1bbe
00000020: 5e8c 953d ddc1 ebbd 4a39 3f3d 3024 01bd
00000030: 9bbc 97be a9e1 a43d 76e9 90be 464f 0e3e
00000040: 3fc1 dc3d 360d 22be 387a 073e 6253 093e
00000050: ea34 803e 267d 4abe 3108 823e d41d c1bd
00000060: 841b 1dbd 4c81 23be d23c 893d 620c e93d
00000070: 9f01 4abe 11a2 62be e0ea 03be 7618 d8bd
00000080: 7d6b a63e b57b 853d d3b3 c2bc f031 a63c
00000090: bd8e 023e 274a ebbd 7da1 10be ab4d 85be
000000a0: dc39 073e acde 0e3e 801e 3a3e 9988 5c3d
000000b0: a132 023e 373a adbd 0568 21bd d3d5 c4bd
000000c0: 0c8c d33d b79a 95bd e3aa f63b 797a 133e
000000d0: 294d 353d 6477 0f3e 612b 51ba 2dea 473e
000000e0: 8eb0 2d3e e0c3 bbbc 6940 74bd c419 59be
000000f0: 3e22 ae3d 21d8 78be 022b 6cbd 7406 11bc
00000100: c01d de3d 712c b0bd 1da1 b43d 8a1b 6bbe
00000110: ce20 45bd b539 0fbb f4ca 963d 9795 bf3d
00000120: 1d6f 32bd 2511 65bd 5b6e 04be bfd5 96bb
00000130: 3429 51be 3d0a 4f3d 347e 59be 8102 ee3d
00000140: 856f 1e3e 4e64 203e ba44 863d b574 babc
00000150: cd67 d5bc 2eaa a6bd 3741 0fbe a2ef 8ebd
00000160: 0f9e 7ebd 72bd 2dbe f5f0 6f3c 1bab 7c3d
00000170: fd08 4dbe f5fb 953d 55f3 35bd 3f20 e6bd
00000180: 62dc 593e 8f07 cebd 22cc 5fbd 2b96 183e
00000190: 494e 98bd ac31 cc3d 3977 eabc 6cb2 bb3c
000001a0: 5c62 99bd 157a e6bd 4e1c bdbd f2e6 043e
000001b0: 2f69 31be 76ec 44be 0c2f 2cbd e193 c63d
000001c0: e82a 3e3e 1aab 1abe d739 b13d 0de1 24bd
000001d0: 00a3 a33c dfe5 adbd 8f87 eabc d976 b6bd
000001e0: cb82 bb3d cfd1 863d ab76 753e 2a4e 7b3e
000001f0: 3654 96bc 9de8 77be 41de 293e 920b d7bd
00000200: 9b81 bb3d 9872 cfbd bcf5 c93d dd1c 30be
00000210: b071 113e 3bc5 e73d dec2 e73c 0a2c 2c3e
00000220: 55c7 823b 1118 893c a3a7 433d 9715 3fbd
00000230: e255 dabc bc58 793d 9964 f73d 8d85 38bd
00000240: 0d7a 633d 24bb d53c c5c9 41be 79b2 6fbe
00000250: b844 10bd 8053 a1bd 0cf9 2ebe f2d8 7d3d
00000260: 0a3c 02be fc08 10be 9669 72bd 0cc8 4a3e
00000270: 7a8a 253e 1a1e 833d 568f 0abe 6942 153e
00000280: f3ea 8abc 57ef 55bd fa62 25bd 3235 463e
00000290: c66b 1b3b b09c 163e b310 ef3d 5c14 623e
000002a0: 58a5 023e f2fa 27bc 51a5 09be f48a 13be
000002b0: d234 c63d b295 dfbd db15 4d3d 4954 853e
000002c0: a37b a83c c204 d0bc 5aa2 68be 6349 ecbd
000002d0: a8df 1d3e 4f56 6f3e 7e5b 543d c1e8 adbd
000002e0: 0fd6 e1bc ee6d a83d 86ac aa3d cacb 49ba
000002f0: f5c4 04be c470 4bbe f435 81be 0c0b 9e3d
00000300: e693 e2bd 4daf 7a3c 8853 f23d 2919 80be
00000310: c170 f23d cdfe 87bc 99dc a93d a9f1 473e
00000320: 4ea2 f9bd 1dac f6bd cf35 43be 0d8e dcbd
00000330: cb5f 73bd 8b15 0ebe 1d21 113d 17e5 013e
00000340: 29f7 9b3d 00b6 0f3e 78ca 4ebd 792d 133e
00000350: cc33 493e 6186 d43d 0ac2 153d 0ce0 ab3d
00000360: 5bf0 ba3d 209d 0a3e 6dd9 9a3d 3e9e a93e
00000370: 1569 133e 3718 c93d 7118 9b3d fb85 f0bd
00000380: 73da 46be d061 be3d e0b5 48be dff0 93bc
00000390: 1bfe 363d a91e 143e c09e cabd 940d c63d
000003a0: 8bb6 143d 6566 aa3d 76b1 503d cc75 a23d
000003b0: 557e 283e 1478 41bd 4e78 3abe aa1c 673d
000003c0: f162 7bbe c4f2 6ebd 0ac3 cdbe c930 3a3e
000003d0: 190d 3b3e 694a 253e bb8f 3ebe 8320 cc3d
000003e0: 7927 c13c 8d3f 073e bc8f 3e3e c8c2 dbbd
000003f0: 8edc ffbc 2473 8a3d 82a7 27bd e4d3 4e3d

bias f4 [12]
0.13249591 -0.11286507 -0.16385928 -0.0047209337 -0.08631698 -0.01742887 -0.17875934 0.20985457
-0.012560881 -0.13929422 -0.083122 0.18123716
00000000: 02ad 073e cd25 e7bd baca 27be 10b2 9abb
00000010: f5c6 b0bd fdc6 8ebc b00c 37be 1ee4 563e
00000020: 27cc 4dbc 25a3 0ebe de3b aabd 3c96 393e
