Baseline/Classification/model.pt (torch, 489935 bytes, 12 tensors)

weight f4 [10, 3, 3, 3]
00000000: 4d7e fc3d 1e38 7b3e 1d30 14bd 6ac6 863e
00000010: aae2 083e 6a35 983e 578c 423e c72e 373e
00000020: c8a4 853e a5d7 a0bd 29fd d0bc 0515 37be
00000030: f3f3 f8bd ad63 c9bd 6a6f b5bc 6fce bebd
00000040: 96ac f13d aa29 8e3c 2c25 2cbe f321 64be
00000050: 86e9 15be a0e0 54be 71cd 1ebe 4009 3cbd
00000060: b950 963b c3a6 323d e71d 71be 54b6 313e
00000070: 7fc0 de3d 2fd6 b83e 59cf 163e 8098 f4bc
00000080: 7db7 8f3c 590a 45bd ddf5 c53e ff51 a23d
00000090: 8b5a aa3d 2939 aebd 2871 a73e 6796 f2bd
000000a0: fde5 7c3e 6374 283e 564d e6bd 034a 8f3e
000000b0: fb7c 0dbd be34 a3bc 9f6e 00be 9399 743d
000000c0: 2edd 9bbe 4ac9 44bd ab1b 5e3e f0eb 09be
000000d0: f32f a83e c0dd 263e 084d 003e 20c2 a6bc
000000e0: d41a 853e 7f1b 2f3e abb0 5bbc 4490 943e
000000f0: 9bca 6a3e a326 a33e 5afb 033d e287 7cbd
00000100: edcc 81bd a481 d33b 2676 51be 4338 49be
00000110: 0d4e d53d 83f2 d4bd 18d8 943d 10eb 90bc
00000120: 0995 163d 4efb 99bc d04b 533d 27bc 0e3d
00000130: 6df4 76be 6ac9 cf3d 7be9 49be 8b59 28be
00000140: aa51 87bc 029e 2abd 9fa6 d63d 4960 ffbd
00000150: 7a31 42be b55a 023e e9ec d0bc b9aa b33d
00000160: ec8c 563d 6a0c 18be 1afb ff3c 50e1 233d
00000170: b067 0fbe e3d4 e0bd e66f 5d3d d063 263d
00000180: 6bf7 d2bd 8e96 88bd 5a87 323e 12bb 18bd
00000190: f308 df3d a955 9f3d 62a0 0dbe 794d 2dbe
000001a0: f5ff 4b3e a01a d6bb ba40 053e 4147 393d
000001b0: ce60 3a3d 7091 833e 7068 683e 1d51 adbd
000001c0: e03a 263e 0a54 593e 6428 273e 0c86 173e
000001d0: b202 39be 2e64 f7bd a044 363d 5850 db3d
000001e0: 6a3c 8c3e 3083 8a3d c362 5b3e f0a9 3dbd
000001f0: 7170 e3bd 1ea1 3dbd 6b4e 173e 134a c33e
00000200: fa18 2abc a0af 1e3e feea cf3e d849 8d3e
00000210: 0890 573e 2c4e 7a3e cfdc 103e a60d 623d
00000220: e225 0fbe 8f5a 37be bfcf 80bd 50b0 b5bc
00000230: 15bb 07be 5242 d53d e15c 883d 30fa 80bd
00000240: c446 b73d 36de 7c3d 98b5 d83d 173b 2c3e
00000250: 3b8d 5fbd 0794 393e 3c80 db3c 7692 503c
00000260: e230 45be 44d2 d8bd 8192 eabd 90e0 c9bd
00000270: 69f0 3b3e 8b2a 4ebd 12e2 1cbe 02f5 093e
00000280: 1663 b03d f8f6 e43d 7442 9fbd 93fe 7d3d
00000290: eefc 98bd 90af 8b3a d17b 1ebe 43f6 d3bd
000002a0: 87a3 fabc b77d 9f3d df2e c63c cb8f 9e3d
000002b0: ec8c 603e 5a78 3f3e e643 3e3e a366 263c
000002c0: c1cc 14be 9fbd 403e d770 3ebd 7627 b2bc
000002d0: c5e4 19be 03fb dcbc 2084 15be 88cf 633e
000002e0: e56a 38be 3de5 3cbe a30e b23c 4fd2 f2bd
000002f0: e94d 2e3d 49ed 1ebe 7701 c5bd 6299 113e
00000300: ebc7 e93d 8e5c 353d 03e0 813e 41ac 4a3e
00000310: 50a8 cd3e 38fa 28be 2471 92bc 2811 fabd
00000320: eeae a83e 80ea 9fbd bad1 ad3e 6bba 553e
00000330: 0f08 b33d 67c7 813e 705c e83c 8e61 9d38
00000340: 52b5 253d f137 6b3e 8836 44be d7af c63e
00000350: 6325 c83e 4633 883e 05c3 df3e b049 17be
00000360: 5f39 2ebd f27c 713e 6b20 b2bd dc3d 4c3e
00000370: 0b18 0bbe 6642 e5bd 0c22 d23d bcaa 15be
00000380: 6bd7 17bd f423 1c3e afbe 533e 9be6 6b3e
00000390: a1e4 f7bc bebf 19be adce 4b3e 700d 4bbd
000003a0: 6f81 d7bd 0fae 1d3d cb0c 1bbe 1cbf 233e
000003b0: d3ec 173e 0963 31be b84c 3fbe 9fa0 06bd
000003c0: d1f4 293d 1a1e 81bd ad00 09be 7954 51bc
000003d0: 7db7 8bbe 7195 37be 0b26 25be f267 013e
000003e0: 1ad0 763e ac9c 1dbe d571 653d fd1d 093e
000003f0: bf4d d33c acb2 30be da29 b43d 2e36 d53d
0.123287775 0.24533126 -0.036178697 0.26323253 0.13367715 0.29728252 0.18998848 0.17888938
0.2610228 -0.07853631 -0.025511341 -0.17879112 -0.121559046 -0.09833465 -0.022147853 -0.09316718
0.11800496 0.017353851 -0.16811055 -0.22278576 -0.14639863 -0.20788813 -0.15508057 -0.04590726
0.0045872596 0.043616068 -0.23546563 0.17354709 0.108765595 0.3610091 0.14727534 -0.029857874
0.017543549 -0.04810557 0.3866414 0.07925796 0.08318051 -0.08506996 0.3270352 -0.11845093
0.24697109 0.16450648 -0.112452194 0.27986154 -0.03454302 -0.01992261 -0.12542199 0.059716772
-0.30442184 -0.048043527 0.21690242 -0.1346891 0.32849082 0.16295528 0.12529385 -0.020356238
0.2599703 0.17100333 -0.01340882 0.29016316 0.2292885 0.31865415 0.03222213 -0.061653025
-0.063379146 0.0064546634 -0.20455226 -0.19650368 0.10415278 -0.10397818 0.07267779 -0.017690212
0.036763225 -0.01879659 0.051585972 0.034847405 -0.24116679 0.101458386 -0.19717972 -0.16440408
-0.016518433 -0.041654594 0.10480999 -0.12469537 -0.18964186 0.12729914 -0.025503593 0.08772797
0.052380487 -0.14848486 0.031247664 0.040009797 -0.14004397 -0.10978105 0.054061793 0.040622532
-0.103010975 -0.06669341 0.17434445 -0.03728778 0.10890379 0.0778001 -0.13830712 -0.16924085
0.19921859 -0.0065339357 0.13012972 0.04523397 0.045502476 0.25696898 0.2269609 -0.08462737
0.16233397 0.21223465 0.16324002 0.14797229 -0.18067434 -0.12079655 0.04449904 0.10708684
0.27389842 0.06763303 0.21424393 -0.046304643 -0.11105431 -0.04629623 0.14776008 0.38142452
-0.010381931 0.15496683 0.40608972 0.275954 0.21051037 0.24443883 0.14146732 0.055188797
-0.13979295 -0.17905639 -0.062896244 -0.022178799 -0.1325496 0.1041304 0.0665834 -0.062977195
0.08949044 0.061735354 0.10581511 0.16819416 -0.054578047 0.18122874 0.026794545 0.0127302315
-0.19256929 -0.1058698 -0.11453725 -0.09857285 0.18353428 -0.05033354 -0.15320614 0.1347237
0.08612649 0.11179918 -0.07776347 0.06201036 -0.074701175 0.001065718 -0.1547692 -0.10349705
-0.030595554 0.0778765 0.024192272 0.0774227 0.21928757 0.18698254 0.18580589 0.010156306
-0.14531232 0.18822335 -0.04649433 -0.021747332 -0.15028675 -0.02697516 -0.14601183 0.22247136
-0.18009527 -0.18446822 0.021735495 -0.118565194 0.04255477 -0.15520205 -0.0961942 0.14218667
0.114150845 0.04427772 0.2536622 0.19792272 0.40167475 -0.16501701 -0.017876215 -0.122103035
0.3294596 -0.07808399 0.3394907 0.20871894 0.087417714 0.25347444 0.02836439 7.504514e-05
0.040456124 0.22970559 -0.19161427 0.3880603 0.39091024 0.2660162 0.43703476 -0.14774203
-0.042535182 0.23582819 -0.086975895 0.19945472 -0.1358339 -0.11194305 0.102604 -0.14615911
-0.037070673 0.1524809 0.20678209 0.23037188 -0.030260386 -0.1501455 0.1990306 -0.049573362
-0.105227344 0.038496073 -0.15141599 0.15990871 0.14836435 -0.17322935 -0.1868161 -0.032868024
0.04149324 -0.063045695 -0.13379164 -0.0127764875 -0.27288428 -0.17928101 -0.16127793 0.12637308
0.24102822 -0.15391797 0.05601676 0.13390346 0.025793908 -0.17255658 0.08797045 0.104107246

bias f4 [10]
00000000: c061 173e e8d0 923e c39d dfbd 3c97 6cbd
00000010: c617 833c 7db1 de3d 6035 88bc 2fc8 ba3e
00000020: 72ee 1abc 8817 c63e
0.14783382 0.28675008 -0.109187625 -0.057761416 0.016002547 0.10873697 -0.016627014 0.36480853
-0.009456264 0.38689828

weight f4 [20, 10, 3, 3]
00000000: 26a3 fc3d 6a56 803d e858 42bb 475e 9bbc
00000010: c953 77bd 2480 f53d 614d 4a3c de8e 5c3d
00000020: 4ed5 0c3d 3cea 89bd 2529 813d 09b9 843d
00000030: 8018 a53b 6567 73bd 9718 27bd c007 8a3a
00000040: 84ff 7abd 26ce 6fbd ecc3 c3bb 24db 9abc
00000050: 4750 1a3d 6206 9cbc 0b1a 67bb 32fc eabc
00000060: 805a b5bd 4ed0 cf3d 86fa fb3c 01f3 be3d
00000070: 0d72 91bc 9f79 dbbc 77c5 ccbd 308b 28bd
00000080: d852 8c3d 0de9 d5bd d47c 1bbd af8e 813d
00000090: 8b22 723d 1dec 253d fff3 76bc 28a6 00bc
000000a0: 1863 a1bc 6878 13bd 7312 363d 0833 14bd
000000b0: f7f1 72bd f83e ca3c df66 9abd 34d1 adbc
000000c0: c162 5f3d 1c03 243d 3974 b93d 31ed 91bd
000000d0: 5270 1e3b 9b74 f7bc 00b1 5ebd 401c 63bd
000000e0: 5410 003d e7d6 803c 6eed 49bd 56d2 8fbd
000000f0: 7683 aabd 1fc5 dc3d 4e51 65bc 5eea dabc
00000100: d35a 1dbd cc3b 43bd b4e2 c8bd 24dd 80bd
00000110: 247b 863d fc82 af3c 160d 20bd 582d 29bd
00000120: a93e 913d de04 a43d 7b80 da3d c81e 083d
00000130: 3f1f 633d 9cce 58bb 1f6b 70bd 12f3 cdbd
00000140: 712c 8b3d fd30 96bc da37 2b3d b630 bf3b
00000150: da69 cdbd fed8 5dbd 0e3f ec3c 4aa8 bbbc
00000160: 28d7 d4bd 0a1d 0e3d 8ae7 d63d cf9b 8e3d
00000170: 76cc 123e 91c8 033e da91 853d e4c9 483e
00000180: a438 1d3e 2730 ef3d 660a ae3d 360b bcbd
00000190: 2297 ae3d 0b02 b8bc 45eb 7fbd fa91 953d
000001a0: 6908 2b3d 3165 073d 3052 a6bc 1a2d dabc
000001b0: 591b 9a3d f80f 153e 2ddf 9a3d 4802 393c
000001c0: e371 2d3e bcdb 883d 6714 143e 4a5a b43d
000001d0: 920e 233e 3dfd 583d f87a 76bd ea19 8c3d
000001e0: 07a6 d3bb d599 bdbd a534 fdbc 3ceb d1bd
000001f0: 0cec 82bd 7493 a6bd 39b0 983d 6969 3abc
00000200: 4e03 c039 5cb5 8a3d a89f 6c3d 2072 6dbd
00000210: b8ca 653d e5a0 533d 6e19 9abd 5631 8f3d
00000220: bbb6 adbd ae34 84bd 185a dabd 3242 953d
00000230: 0f3f 13bb d92a 863d 5abf 84bc 811f 0e3d
00000240: 22d5 39bd c90f c7bd bb8c 883b 6c86 b3bc
00000250: 17fc cdbc 7f4c 83bd 4afb 48bc 5369 8d3c
00000260: cb5a bc3c f33c c2bd 3fc1 4d3d f354 753c
00000270: 6c4c a43d 6355 9a3d 63bf b5bd 9399 d43d
00000280: 9c63 efbd 15cc 643d 41e0 7439 eb27 203d
00000290: 81ea 80bd b205 623d a6a5 6cbd 968b c7bd
000002a0: 173f f23c 6a21 4e3d 0ebb c23d ccbe 17bd
000002b0: cc21 973d 3938 213d 79a5 97bd c59b e2bd
000002c0: a60b ed3c 208a aebd 6459 973c b1db ebbd
000002d0: e8ba bf3d f55f 483d 7e34 823b f814 883d
000002e0: 3cee 6fbd dbd7 03bc 1ce4 9f3c 96ed 31bd
000002f0: 0122 39bc 05eb 10bd ffe3 ea3d 3328 d73d
00000300: 3bfe d83d 4288 d03d ab65 b4bd 6006 743d
00000310: 6b83 5f3d 035d 8bbd 8a5e 5d3d 431b 37bd
00000320: 907b f33c 07f1 443d 92c8 d43d 5497 33bd
00000330: 944a 8fbd 82d1 e03d fde4 653d d73e 513d
00000340: 23ac 1a3d 5919 19bd d5d2 813d 1914 bdbd
00000350: b155 6c3c 6e6f 463d d348 943d 70cc 55bd
00000360: d35a 7ebd 4420 583d 2182 88bd b81c 99bd
00000370: e4d9 a1bd f10d 1dbd 30a9 f73a c0b0 3fbd
00000380: 835b 11bd a39b c1bd 15a0 823d 8dcc cebc
00000390: 1094 88bd fa13 d43c 2aea a2bd 0b36 9b3d
000003a0: b74e 7e3d f53b d4bd 34b3 abbd 0a03 90bd
000003b0: e37a 69bd af3b 563c 2dd9 d6bd e898 9ebd
000003c0: 7d14 4d3d 370a 03bd eb36 25bd 9554 9bbd
000003d0: bffd 783d fe34 dd3c cc63 bebc 8c11 3dbd
000003e0: b462 1c3d c1a2 683d 6fee 8a3d 3416 263d
000003f0: ecfb 82bc 9c0a a5bd 6255 903d 2717 8e3a
0.123358056 0.06266482 -0.0029655043 -0.018965853 -0.060382638 0.119873315 0.01234755 0.053847186
0.03438311 -0.0673413 0.06306676 0.06480605 0.005038321 -0.059424777 -0.040794935 0.0010530874
-0.061278835 -0.058546208 -0.0059742834 -0.018903323 0.037674215 -0.019046012 -0.0035263326 -0.02868471
-0.08855152 0.10147153 0.030759107 0.09323693 -0.017754579 -0.026791392 -0.09998601 -0.041148365
0.06851739 -0.104448415 -0.037960842 0.06326043 0.059114974 0.04050838 -0.015072822 -0.007852115
-0.019700572 -0.0360035 0.04445119 -0.03618148 -0.059312787 0.024688229 -0.07539152 -0.02121792
0.05453754 0.040042028 0.09055371 -0.07125319 0.0024175835 -0.030206969 -0.05436802 -0.055446863
0.03126557 0.015727473 -0.049298696 -0.0702254 -0.083258554 0.10779785 -0.013996435 -0.026723083
-0.038416695 -0.04766445 -0.09808865 -0.06292179 0.06566456 0.021424763 -0.03907498 -0.04130301
0.070920296 0.08008741 0.10669037 0.03323248 0.05544972 -0.0033082133 -0.05869591 -0.100561276
0.06795586 -0.018333906 0.04180131 0.005834664 -0.10029955 -0.054162018 0.02883866 -0.022907395
-0.103926 0.034695663 0.10493381 0.06963312 0.14335808 0.12869479 0.065219596 0.19608265
0.15353638 0.11679106 0.08498077 -0.09181826 0.0852492 -0.022461912 -0.06248023 0.073032334
0.041756067 0.033055488 -0.020302862 -0.026632834 0.075247474 0.14556873 0.07562099 0.011292048
0.16937976 0.06682536 0.14460908 0.08806284 0.15923527 0.05297588 -0.060175866 0.0684088
-0.006459001 -0.09257857 -0.030908892 -0.102499455 -0.063926786 -0.08133593 0.07455487 -0.011377671
0.00036623556 0.06772873 0.057769448 -0.057970166 0.05610153 0.051667113 -0.075243816 0.06991832
-0.08482119 -0.0645536 -0.10661715 0.072880164 -0.0022468006 0.06551141 -0.016204525 0.034698013
-0.045369275 -0.09719808 0.004167167 -0.021914683 -0.02514462 -0.06411075 -0.012266943 0.017262137
0.022992512 -0.094842814 0.050233122 0.014973867 0.08022389 0.075358175 -0.08874395 0.103808545
-0.11688921 0.05585869 0.00023353194 0.03910057 -0.06294728 0.055181213 -0.057775162 -0.09743421
0.0295711 0.050324835 0.09508334 -0.037047192 0.07379493 0.03936026 -0.07404608 -0.11064867
0.028936218 -0.08522439 0.018475242 -0.11516512 0.093618214 0.048919637 0.0039735427 0.066446245
-0.058576807 -0.008047069 0.01951795 -0.04343947 -0.011299611 -0.035380382 0.11469268 0.10505714
0.105953656 0.10182239 -0.08808454 0.059576392 0.05456869 -0.0680485 0.054045238 -0.044703733
0.029722005 0.048081424 0.10389818 -0.04384549 -0.069966465 0.109774604 0.056126583 0.05108532
0.03776182 -0.03737769 0.06339041 -0.09232349 0.014424727 0.04844611 0.072404526 -0.05219692
-0.062098335 0.052765146 -0.06665445 -0.07476181 -0.079028875 -0.038343374 0.0018895026 -0.04679942
-0.035487663 -0.094535135 0.063781895 -0.025244022 -0.06668866 0.025888432 -0.079548195 0.07578667
0.062086787 -0.103629984 -0.0838379 -0.0703183 -0.05700196 0.013075753 -0.10490642 -0.07744008
0.050068367 -0.031992164 -0.040335577 -0.07584492 0.060788866 0.027002808 -0.023240946 -0.046159312
0.038180068 0.05679584 0.06783759 0.04054852 -0.015989266 -0.08058664 0.070475355 0.001084064

bias f4 [20]
00000000: 57b0 1a3d 2c81 893d 3394 0cbd afda 813e
00000010: aeef a43d b648 393d 4839 4a3e e963 e7bd
00000020: 3e17 d2bc ea94 a4bb 78c5 c3bd 04be bd3a
00000030: f0f9 9dbd 77c8 3dbd b792 4f3e 63a1 223d
00000040: a495 d5bc 4d38 2a3d 8503 5bbb 3d1c 9c3d
0.037765827 0.06714091 -0.03432102 0.25362155 0.08053528 0.04523536 0.19748414 -0.11298353
-0.025645848 -0.0050226348 -0.095591486 0.0014476185 -0.077136874 -0.046333756 0.20270811 0.03970469
-0.02607233 0.0415576 -0.0033418846 0.076225735

weight f4 [40, 20, 3, 3]
00000000: 6ef0 593d b34e 763d 48c8 4fbd 1ab8 e0bb
00000010: df01 943c bb0f eebc 6bc6 4b3d 3428 08bc
00000020: 5c53 023c 2d32 4dbd e333 953d 93ff eebc
00000030: e96a 803c 6346 26bd 5622 af3d 459c ba3c
00000040: bcf6 7c3d 8334 04bd 31dd 113c f512 093d
00000050: eea7 683d 72bf 6a3d 89b5 08bc 4b15 363a
00000060: db46 db3c 1fdd a6bc 149a c8bc e26b cdbd
00000070: a515 e3bd cfb6 5dbd 3e92 dcbb f10a 9bbb
00000080: ecd7 243c ca7c 853b 0cc3 a33c 05e7 42bd
00000090: a79f 7c3d 5913 6abd 303f fbba c94f f33c
000000a0: d2cc b03c 2bbf e5bc 1612 84bd 3204 893d
000000b0: fe44 303c 16c2 5e3d cd87 c53c b2c2 703d
000000c0: 09c8 d43c 3043 aa3c 0bb0 293c 0a62 2c3d
000000d0: 018a 143e 465b b63d aba7 463d 0a58 533d
000000e0: 19a4 573d eaf9 59bd aa1d 38bd dd4a 6a3a
000000f0: 7002 24bd fff5 ecbb 14f7 f3bc 3ffe 8f3d
00000100: 6b08 0a3c 1950 d33d 3124 1abd 04a3 13bd
00000110: 34bc 5c3d 075e 553d 1a0b b83c c324 ccbb
00000120: 0f81 8a3c c3c7 5fbb 91ac 5abc 7253 0f3d
00000130: ee87 06bd 665f 7b3d 9843 52bd 3b0e 09bd
00000140: 17a6 d73c 04da 053d bff7 3cbc 617a 5fbd
00000150: 5e3e bfbb 002c a0bc 2633 47bc c7bb f6bb
00000160: 8baf 293d 8fcc 29bc adb4 22bd bed7 b1bc
00000170: 36d0 0cbd 0835 61bd 3a93 833d e4e7 a83d
00000180: a9ef b33d ca69 553d b932 643a d5f8 31bd
00000190: 3cc6 223d a210 13bd 7515 7b3d 0f2e 00bd
000001a0: bf3f 55bd 2e3a 2ebd b22b a43d e5d9 923d
000001b0: 5869 093d 160f c53c e194 da3d 85b0 9a3d
000001c0: 84d4 b83d 3487 033b 88be 7f3d 2791 093e
000001d0: f2a5 36bc 06d6 953d 245a 4cbd c38c b4bc
000001e0: 8972 91bb 083f 883c 6f13 c33c 649a 26bd
000001f0: 4800 183d c201 b03c dc10 0bbd d400 d7bd
00000200: 4184 923d 098e 1fbd 1284 16bd 2ec0 c43d
00000210: 13cd 12bd d294 c33d 758f 923d 6132 4abd
00000220: 1050 79bd be01 1bbd 79ad c63c 264b 963d
00000230: 648b acba 7353 bfbc 3a4e 98bc 0fee 4bbd
00000240: 1ff8 9a3d a981 09ba d809 64bd 7901 43bd
00000250: f3be 463d 2dac 2e3d 79b4 573d fec1 443a
00000260: bc71 b7bb b8c7 943b 9d76 b3bc 87e6 acbc
00000270: 2ba0 403c d010 0cbd a9a1 e0bc e3ca 5abc
00000280: 4054 34bc 288f 003d 3cf0 483c 3bd4 953d
00000290: a6f6 cc3c 99f8 8f3a f0a3 4cbd 0a1b dabc
000002a0: 9fd9 09bc 209e 47bd c0f4 813c 526b 493d
000002b0: b14f 243d bfd7 00bd bc0b 8ebc 2d5d 983d
000002c0: 9472 6bbb 8b27 88bd 0109 6e3c de5b 953c
000002d0: fbdd eabc 19b3 10bc 16ad 7bbd 4f30 b83c
000002e0: c619 55bd 952a cd3c 013b 653d c55f 45bd
000002f0: 2d5a f2bc fba9 ed3b 4b27 d539 95cc 353d
00000300: 98f4 61bb 0bdc 5b3c 7340 9dbc 5403 d13c
00000310: 53ea bc3c 9413 74bd c096 233d dd59 6abc
00000320: 0fb7 893d 4d1d 96bd fe84 dfbb c5e6 0e3d
00000330: 4a8e 523d dd90 aa3a a5ea 20bd 46aa 79bd
00000340: fed1 6cbd 5b7b 833d de24 7ebd 834c febc
00000350: b191 293d cd7f 2c3d 481c 8fbd 6d2a 993c
00000360: 13a3 0c3c 6c2f 8c3d 33b4 44bb a179 023d
00000370: 95da d5bb 851f 883d e83c f5bb 63b6 37bd
00000380: 3a64 593c 53ac 26bd 1b45 a63c 9754 6c3d
00000390: 53ea 5cbd 4b31 65bd 4743 053c b6e5 04bc
000003a0: 5a86 d3bc 715a 973d 328f 063d c81e cbbc
000003b0: 6ac4 593c b4d5 28bc c04f 4abd ec2c 053d
000003c0: d9c9 51bd 06dc ec3b 985e 613d 27f3 8cbd
000003d0: 9bba 9f3b cf61 943d d5aa 123d 5b49 f3bc
000003e0: ca70 903c 6681 92bd 7661 433c 20c9 953d
000003f0: 7f82 843d 515d c4ba e688 e23c 73b4 3fbc
0.053207807 0.060133647 -0.050728112 -0.006857884 0.018067298 -0.029060235 0.049749773 -0.008310366
0.007954445 -0.05009668 0.07285287 -0.029174602 0.015675979 -0.04059447 0.08551471 0.022779593
0.06175874 -0.03227664 0.008902834 0.033465344 0.056800775 0.057311483 -0.008344063 0.0006945922
0.026767185 -0.02036911 -0.024487533 -0.10030343 -0.11088113 -0.054129418 -0.0067313006 -0.004731529
0.010061245 0.004073714 0.019990467 -0.0475836 0.061675694 -0.057147358 -0.0019168612 0.02970113
0.021582041 -0.028045258 -0.06448762 0.06690253 0.0107586365 0.054384314 0.024112606 0.058779426
0.02597429 0.02078399 0.010356913 0.042085685 0.1450577 0.08904128 0.048499744 0.051597632
0.05264673 -0.053216852 -0.044950165 0.0008937547 -0.040041387 -0.0072314735 -0.029780902 0.070309155
0.008424859 0.10318012 -0.03763217 -0.036044136 0.053890422 0.052091625 0.022466231 -0.0062299683
0.016907243 -0.0034146167 -0.013346807 0.03499169 -0.032844476 0.061370276 -0.051333994 -0.033460837
0.026324315 0.03267862 -0.011533677 -0.05456007 -0.005836292 -0.01955223 -0.012158191 -0.007529709
0.041427176 -0.010363712 -0.039723087 -0.02170932 -0.034378253 -0.054982215 0.064245656 0.082473546
0.08785946 0.05210284 0.0008705068 -0.043450195 0.039739832 -0.035904534 0.06129976 -0.031293925
-0.052062746 -0.042535953 0.08016147 0.07170466 0.03354773 0.024055045 0.10672928 0.075532
0.09024909 0.00200696 0.062437564 0.13434277 -0.011147963 0.07316212 -0.049890652 -0.022039777
-0.0044387025 0.016631618 0.023812978 -0.040674582 0.037109643 0.021485213 -0.033951625 -0.10498205
0.07154132 -0.038953815 -0.036747046 0.09606968 -0.035840105 0.095498696 0.071562685 -0.04936445
-0.06086737 -0.03784346 0.02425264 0.07338552 -0.00131641 -0.023355221 -0.018591989 -0.049787577
0.075668566 -0.0005245456 -0.05567345 -0.047608826 0.048521947 0.04264467 0.052662347 0.0007505714
-0.005598275 0.00454041 -0.021907145 -0.021106018 0.011756937 -0.03419572 -0.027420836 -0.013354036
-0.011006415 0.031386524 0.012264308 0.073158704 0.025019955 0.0010984122 -0.04996103 -0.026624221
-0.008413701 -0.048734784 0.015863776 0.049174614 0.040115062 -0.03145575 -0.01733958 0.07439647
-0.0035926448 -0.06648167 0.014528514 0.018232282 -0.028670302 -0.008831763 -0.061444364 0.022483973
-0.052026533 0.025044719 0.055964474 -0.048187036 -0.029584015 0.0072529293 0.000406558 0.044384558
-0.0034478065 0.013419162 -0.01919577 0.025514282 0.023060953 -0.059588984 0.03993869 -0.014303652
0.06724369 -0.073298074 -0.006821274 0.034888048 0.05140523 0.0013013143 -0.039286274 -0.0609534
-0.05781745 0.064200126 -0.062046878 -0.031042343 0.041398708 0.042114068 -0.06987816 0.018696988
0.008583802 0.068449825 -0.0030014634 0.031854276 -0.006526301 0.06646637 -0.007484067 -0.044851672
0.013268525 -0.040691685 0.020296624 0.05769786 -0.053934406 -0.055955213 0.008133716 -0.008111408
-0.0258209 0.07390297 0.032851405 -0.024794951 0.013291458 -0.010304857 -0.04939246 0.032513544
-0.051217888 0.0072283773 0.055021852 -0.06882315 0.00487454 0.07245218 0.03580745 -0.029698065
0.017631907 -0.07153587 0.011925092 0.07313752 0.06470203 -0.0014981424 0.027653169 -0.011700737

bias f4 [40]
00000000: 7c80 a13c 5b2f 2cbd 9864 2c3d 187a b5bc
00000010: c220 48bd 0f0b b93c af9b ba3d ab7b 58bd
00000020: b9e4 593b 9162 6e3c 1fa9 593d c002 903d
00000030: 2950 bbbc adff 2a3d f2d8 50bd 8c6b febb
00000040: 41c3 46bd 77f9 d73c 304d 713b 13e7 30bd
00000050: 33ba 803b dfe2 41bd 6729 67bb e86e 0d3d
00000060: ea17 8e3c 865e 2bbc 10f8 863d b33c e83c
00000070: 928f 083c de5e 6e3d aadd 333d e04c 913d
00000080: 77b3 bc3d 968e 933c e3fe 2a3b 83c8 1c3c
00000090: 104d dd3d 5964 4d3d 65cd 393d fdb3 6b3d
0.019714586 -0.04203735 0.04208812 -0.022152945 -0.048859365 0.022588281 0.091117255 -0.052852314
0.0033247902 0.014549867 0.053139802 0.070317745 -0.022865372 0.041747738 -0.050988145 -0.0077642854
-0.048526052 0.026364071 0.003681969 -0.04318912 0.0039284467 -0.0473355 -0.003527248 0.034529597
0.017345387 -0.010459548 0.06590283 0.028349256 0.008335011 0.05819594 0.043912567 0.07094741
0.09213918 0.018012326 0.0026091866 0.00956929 0.10805714 0.050144527 0.045361895 0.057544697

weight f4 [80, 40, 3, 3]
00000000: 3423 cebc e79b b6bc afbe 0dbd 1fbb e9ba
00000010: b76c 343d 8b1a 66bc c028 41bc 0356 253c
00000020: 6270 03bb 25ef f73c 2154 acbc 7b76 32bd
00000030: 87ab 3d3c 3d44 09bd 5e83 823b 4295 3dbc
00000040: ce02 353d d21d 313c 642d 623d 9d68 1c3c
00000050: cd06 ffbb e5aa 1abd fe66 5d3c d171 05bd
00000060: 5f77 2fbc 4db9 14ba 6356 2cbd a4c2 513a
00000070: e664 c4bc cf56 273d 5915 3ebd f26c 6a3d
00000080: 4f88 1d3d 8216 debc 6848 843a f9da 113c
00000090: 698e c9bc 2973 303d a8be 163d 9d89 91bb
000000a0: 9f58 e03c c604 2e3d d821 4abb f2dd ba3c
000000b0: 4215 053d 52af 3dbc 7d24 81bc 4a16 aebc
000000c0: efe8 eabb cded e4bc 6a24 1c3d 6355 26bd
000000d0: 3a7c 133d 61ec 33bd 5e92 95bc 7e82 1d3d
000000e0: 8d9a a1bb 3d25 123d b7ee d33c 8f07 0f3d
000000f0: 1914 94bc b2c7 fd3c 39f0 29bd 6cb0 2fbd
00000100: e0b5 50bc d965 a7bc bd79 203d fceb 0fbd
00000110: ee2a eabc b211 003b 706f 5bbd dbb4 50bd
00000120: c5f1 063d 56f9 f7ba a6ca 40bd f08a 48bd
00000130: 1ee5 493d 20dd d4bc 85e4 ea3c 89ad f8bc
00000140: 7b42 51bd ecd8 a6bc cfe7 e73c 73fd 04bd
00000150: beab e33c d59c cb3a fb80 2a3d a5c9 173c
00000160: 392e b13b 21e4 09bb 74bb 0abd 89ce f2bc
00000170: 967b 643d 5922 d63c 8ea8 213d 6f08 673d
00000180: 0533 12bd 1c0c a93c 03ee 11bd 79bd c33c
00000190: f3cb c53c 52f7 1abd 55e0 973c fe0c 42b8
000001a0: 9116 213d f4c7 cc3c 7105 db3b 15a4 603d
000001b0: 8bdb c2bc d611 873c a852 35bd 08e4 3b3a
000001c0: 45b1 883a 02bb 173d 01ee 3bbd 1f77 bebc
000001d0: 1828 31bd 515f b7bc 9116 1a3d 6632 55bb
000001e0: 7651 43bd 441d 1d3d 39c0 5c3d f56a 703c
000001f0: ce26 cbbc eccf e03b 1a87 103c ed52 3bbc
00000200: b903 f83c 0baf 073d a673 a63c e8bf cdbc
00000210: a344 253d fba5 833c 6a19 24bd 480e 91bc
00000220: ff35 393d 9d23 8fbc b98d d03c 0a5c aebc
00000230: 5cff bc3a 9244 44bd a881 0bbd 3461 83bb
00000240: 451d b23c 3c9b 1e3d f4b2 033c 7017 31bc
00000250: d2a1 913c a6dc 413c 8fa9 44bd 1fd9 aebd
00000260: 7af7 3fbc 84cc 593b 9d65 b53c 34ad 173d
00000270: dac3 443c 3643 33bc 1445 583d 392f ebbc
00000280: 239c 85bd b6b6 093d 9d52 8a3a f595 06bd
00000290: c240 273d f89d c6bc 4317 e53c 4b62 3fbc
000002a0: 9fc9 afbd 038d 0f3c 09f5 2e3c 93ce 69bd
000002b0: a3dd 3c3d db2c dcbb 28c7 af3b 0f12 3c3d
000002c0: 2763 c7ba 96bd 9c3b 3539 4abd b2fc 71bc
000002d0: f143 603d dac9 99bb 1cd0 a23d 60e7 45bc
000002e0: 6000 023d 42f7 fa3c b388 76bd 377b 493b
000002f0: 6444 40bd 91ad 523d 676e 04bd 0f4c fe3c
00000300: c09f 093c cda8 343d c2f1 0b3d fd2c 82bc
00000310: 7838 04bd c84b 033c 1a73 293d 32bf 293c
00000320: ba3d 423d 7bf3 bdbc 91a2 8c3c fc55 023d
00000330: e940 cb3c 449b a2bb 6a4b ff3a 1c58 e73b
00000340: f1d7 323d a33a 9a3d e188 bdbc 3250 403d
00000350: 1c64 853d 4b46 81bd e12b 89bd a6e8 fd3a
00000360: db40 cdbc 0366 1b3c 0cc6 fb3c 63e7 e63a
00000370: 9653 f9bc 439e 0cbd 6b1c 5d3b bcf8 b73c
00000380: 9fd7 cf3c c451 e73c 7bb9 ed3c 3ee0 e93a
00000390: 0556 743c 7f54 2f3d 5377 da3c c8b1 d1bb
000003a0: f8f3 85bd 8ab1 0bbc d832 1dbd 99fe 5e3d
000003b0: 0e39 823d 8a98 99bc 3a80 2d3d 94fe e7bc
000003c0: 5683 96bd 3e30 54bd 4864 283c c52b e33c
000003d0: 5540 40bb e9cd 883c 12f5 183b fe49 1bbb
000003e0: 4420 873b 34a9 1a3d 74ee 15bd e9cf 7cbd
000003f0: c933 063d 3542 843d 767c 683d 7194 25bc
-0.02516327 -0.022291137 -0.03460568 -0.0017832256 0.04404899 -0.014044414 -0.011789501 0.010091308
-0.0020056 0.0302654 -0.02103621 -0.043570023 0.01157654 -0.033512343 0.0039829453 -0.01157123
0.044192128 0.010810332 0.05521907 0.009546426 -0.007782793 -0.037760634 0.013513325 -0.032579247
-0.010709613 -0.0005673364 -0.042074572 0.0008001721 -0.023973893 0.04085427 -0.046407077 0.057232805
0.038460072 -0.027110342 0.001009238 0.008902305 -0.02460404 0.043078575 0.036802918 -0.0044414536
0.027386008 0.04248502 -0.0030842926 0.02281091 0.032490976 -0.011577444 -0.01576447 -0.021250863
-0.007168881 -0.027945423 0.038120665 -0.040608775 0.036007144 -0.0439266 -0.01825827 0.038454525
-0.004931754 0.035680044 0.025870664 0.034919318 -0.01807599 0.030979011 -0.04148886 -0.04289286
-0.012738675 -0.020434307 0.0391786 -0.03513716 -0.028584924 0.0019541797 -0.053573072 -0.050953727
0.032945413 -0.0018918912 -0.04706826 -0.048960626 0.04929077 -0.025984347 0.02867342 -0.030356186
-0.05108879 -0.020367108 0.028308777 -0.03246827 0.027791854 0.001553441 0.04162691 0.009264384
0.0054071215 -0.0021040516 -0.033870175 -0.0296395 0.055781923 0.026139425 0.039467387 0.056404527
-0.035693187 0.020635657 -0.035627376 0.023894059 0.024145102 -0.03783352 0.018539587 -4.6265304e-05
0.03932816 0.024997689 0.0066839983 0.05484398 -0.023786327 0.016487997 -0.04426828 0.0007167463
0.0010428807 0.03704358 -0.045881275 -0.02325016 -0.043251127 -0.022384318 0.037619177 -0.003253126
-0.04768511 0.038357988 0.053894255 0.014673938 -0.024798777 0.0068607237 0.008821273 -0.011433345
0.030275213 0.03312592 0.020318817 -0.025115922 0.04034866 0.016070357 -0.0400633 -0.017707005
0.04521751 -0.017473036 0.025458204 -0.021284122 0.0014419365 -0.047916956 -0.034059197 -0.0040093902
0.021742472 0.03872226 0.008038271 -0.010808811 0.017777357 0.011832392 -0.048013266 -0.08537506
-0.011716718 0.0033233473 0.02214318 0.037030414 0.012009585 -0.010941317 0.052800253 -0.028709041
-0.06523921 0.033621512 0.0010553185 -0.032857854 0.040833242 -0.024245247 0.027965194 -0.01168115
-0.08583378 0.008761647 0.010678538 -0.05708177 0.046109807 -0.0067192144 0.0053643174 0.04591566
-0.0015212045 0.0047833426 -0.049370963 -0.01476972 0.054752294 -0.004693252 0.0794985 -0.01207909
0.03173864 0.03063548 -0.06018896 0.0030743608 -0.046940222 0.051435057 -0.03233185 0.031042127
0.008399904 0.044106293 0.034166105 -0.015890593 -0.032280415 0.008013673 0.041369535 0.010360526
0.04742215 -0.02318739 0.017167361 0.031820282 0.024811225 -0.0049623568 0.0019477431 0.007060064
0.04366297 0.07530715 -0.023136558 0.04695148 0.06513235 -0.063122354 -0.06697822 0.0019371703
-0.02505534 0.009484771 0.030734085 0.0017616566 -0.030435365 -0.034330618 0.0033738862 0.022457473
0.02537137 0.028237231 0.029019108 0.0017843319 0.014913087 0.04280519 0.026668226 -0.006399367
-0.06540674 -0.008526215 -0.038378567 0.054442022 0.063585386 -0.018749494 0.042358615 -0.028319634
-0.07349269 -0.05180382 0.010277815 0.027730832 -0.002933522 0.016699748 0.0023339433 -0.0023695226
0.0041237194 0.03775902 -0.03660436 -0.061721716 0.03276423 0.064579405 0.05675932 -0.010106192

bias f4 [80]
00000000: 2ce3 0cbd cec6 4cbd 0513 d5bb aa5c 993b
00000010: 3dd1 213d 28fd 0ebd e9e5 da3c 8c0a fcbc
00000020: 1aa6 0dbc 8bb4 8e3c be35 013c 430e 2dba
00000030: 23f1 d63c 06d3 803d 0d10 023d 20c6 623d
00000040: defe 2b3d a718 f0bc ac60 8f3d ee83 63bd
00000050: 6194 0cbc 336e 96bc 805f 8e3d 6940 6ebd
00000060: 0aa3 1a3c f672 063d 6f3b b8bb 0de2 23bd
00000070: 2c53 233d 4098 1e3c c257 acbb 5744 1ebd
00000080: 153d 42bd f6ba 9d3b 1297 e73b 032c b63d
00000090: c2c2 d13c a323 8f3d 4f12 123c 31ce 763d
000000a0: ec43 9cbc a6c3 82bc b7d5 de3c 5d8d d43d
000000b0: 9288 17bd d46f d13d 89b8 01ba c428 ae3c
000000c0: 434b 0cbd e088 853d 5bb8 853d fc9f 563d
000000d0: 5b06 cfbc 1cc4 bd3c ed9b 10bd cfae 1f38
000000e0: a56e 1d3d 3ecd aebc df9f 113d 103c f6bb
000000f0: f6e4 d7bc 5236 003d 77da c3bb 4e76 8d3d
00000100: 3069 473b 9ab8 85bd b2c2 3dbc 9d96 50bc
00000110: 2306 403c aef7 f3bc 62e8 643d d3bc f7bc
00000120: fc56 dabc ea26 1bbd 0cb4 103d 7478 173d
00000130: 57fe 723d c730 563c 9dfd 383d 7116 77bc
-0.034396335 -0.049994282 -0.0065025114 0.004680236 0.039506186 -0.034909397 0.026720958 -0.030766748
-0.008645559 0.017420074 0.007886348 -0.00066015514 0.02623803 0.062902495 0.03175359 0.055364728
0.041991107 -0.02930863 0.070008606 -0.05554574 -0.008580298 -0.018363094 0.06951809 -0.058166895
0.009438286 0.03282448 -0.0056223194 -0.0400105 0.03987424 0.009679854 -0.005259485 -0.038639393
-0.047421534 0.0048135472 0.0070675695 0.08895113 0.025605563 0.06989219 0.008915498 0.060255233
-0.019075356 -0.015962433 0.027201517 0.103785254 -0.036995478 0.10226408 -0.00049484574 0.021259673
-0.034251463 0.065202475 0.06529304 0.052398667 -0.025271585 0.023164801 -0.035304952 3.8071357e-05
0.038435597 -0.021338101 0.035552856 -0.007514484 -0.026354294 0.031301804 -0.005976971 0.069073305
0.0030427687 -0.065293506 -0.0115820635 -0.0127312215 0.011720213 -0.029781189 0.05588568 -0.030241406
-0.026652806 -0.03787891 0.035327956 0.036980107 0.05932459 0.013073153 0.04516374 -0.015081034

weight f4 [64, 1280]
00000000: 2110 1c3c 0316 55bb 4a9f 16bd 97b4 b93c
00000010: 1501 893c 3879 37bc f3c8 523b 9634 7a3b
00000020: 595d 323d d972 783c e634 1bbc 6100 47bb
00000030: 1c63 78bb f0f5 a6bb 9353 d13c dbdf e5bc
00000040: 9720 213c d79c 4f3b a844 76bc 6d4e 9bbb
00000050: e2d6 47bb 998d e23b ce3b ca3c 29a3 aebc
00000060: 0930 8e3b 2509 e43c e272 91bb fc68 12bd
00000070: 3487 d63c 8227 923c 0322 a53c 264b 94bc
00000080: d29b ccbc ca04 d13c d0ab ac3b 6c76 a23c
00000090: 6310 6dbc 276f fc3b ea44 1d3c 1ff8 d5b9
000000a0: 3dbc 65bc 92de 46bc c228 b0bc c7ca 2cbb
000000b0: 3cb5 c93c abc9 91bc d140 593c 0987 b43c
000000c0: 1f71 1bbc d91f 163d e59e 84bc d1d8 fc3a
000000d0: cae0 4dbb 4c56 6b3b de25 a5bc 7256 debc
000000e0: 69c6 df3b a3a7 183c 205e 0ebc 4d1f 1cba
000000f0: 266b b13b 3300 083d f7e1 0b3c 8d2d 48bc
00000100: 64ae d1bb 5094 a23c 7627 24bd 8fd7 bebb
00000110: 0c9c c5bc a22a 90bc 7e2e 963c ab73 e4bc
00000120: 4d73 77bc 4d1a 60bb 499e 123c 6a11 813c
00000130: 1429 82bc 75bb 96bc 3215 57bc 6034 063c
00000140: ee41 ea3c b419 4dbc 86fb d63c 1032 30bc
00000150: ce2c b8ba 75d2 8e3c db34 88ba 0bfb 54bb
00000160: 0975 96bc 4453 06bc 6a9b b63c 8a55 75bc
00000170: 3330 103c afcf 06bc e87f 153b 34ab d0bc
00000180: 5836 2e3c 0033 6fbb 2d8e 4b3c a894 b83c
00000190: ba0b f3bb ea98 2abc c129 8fbc b7e8 153c
000001a0: 60f7 c03b f0d9 7bbc fad4 0bbc 62bc d73c
000001b0: e727 a93c 1145 c0b9 28ba 373c 66c5 f0bc
000001c0: f899 1abd 4d74 86bd 2885 6fbc b41a 323c
000001d0: f62e 113d 33d7 023c 6290 f63c ece9 893b
000001e0: d6d7 103d faac 963c 7d45 9cbc e7d7 09bd
000001f0: 30c1 5fbc 06f9 84bc 2e5a 363c d2da 103d
00000200: 3ff3 923d 114c 013d 3a99 92bc 2e61 30bc
00000210: 19a9 593d 7880 71bb 95fe 0d3a 9f16 88bb
00000220: b05a d7bb 7443 20bc e183 d8bb 8d91 74bc
00000230: 020f 5d3c 8ec7 74bc 657e cabc b8d1 0f3c
00000240: 9c0a d6bc e185 85bc 7221 a23c 01ef 87bc
00000250: 6b09 95bc 04fd d73c 8a93 29bc f2c2 43bc
00000260: 823c 67bd 2b2b d0ba 3163 a53c 232c 2e3c
00000270: f0a8 c83c 72d9 de3c d966 c63c 9083 733c
00000280: 220a 32bd f03e 893c c07a 9fbc 3d91 82bb
00000290: bd57 48bc 8982 d03c d2a8 41bd 41cb ccbc
000002a0: f31e 5bbb ca7f 9e3c 8d01 8a3c 6ac8 443c
000002b0: a4d3 803b 845a 413c 61c6 a43b 0f8a c9bc
000002c0: 47fd 033d 395a 16bd 4509 05bd 61e3 f9bb
000002d0: 39d0 f53a 8af2 873b 4c80 63bb a017 9c3c
000002e0: 7b7f 8fbc 0f65 8a3c feaf 39bc 02b0 0abd
000002f0: 2152 da3c 2a06 7f3c 581d 8a3c ab3c 233c
00000300: f331 a53c 461a cabc d849 be3c e10e abbc
00000310: 37ce cf3b b4c6 fc3b f650 0f3c c1a9 e3bc
00000320: 1ec5 7bbb 7174 273c 3cf1 693c 7ca9 a73c
00000330: 64f3 403c 6cc4 b63c c97f 0c3d b0a4 4abd
00000340: 6cf2 b83c 625f 41bd e79f 3dbc 52fb 073c
00000350: d134 ca3c 84a2 7ebc c402 a73c e601 723c
00000360: 469f 9b3c 46b0 08bd 0e7c f3bc caee 22bc
00000370: dc8d 1dbc 7d5a df3b 5801 abbc ceef b0bc
00000380: 0a06 813b f9e6 bbbc cc72 9c3a 62d1 d7bc
00000390: 00c5 a7bc 2f56 fa3b 2416 a1bc dcc7 07bd
000003a0: db47 823c a5de 96bc 57d6 033d 4b50 fdbb
000003b0: a084 253c 158b 063d 3851 22bc 9bdb 003d
000003c0: fd27 27bc 7525 d0b9 5be9 a1bc 9566 a839
000003d0: 7b6f c03c a123 96bc 90b0 b73b 3ce7 3fbd
000003e0: b8dd 18bc 9431 09bc 672c 35bc d81b 54bc
000003f0: a5e4 513b 93f9 503b edd2 60bc 456e 92bd
0.00952533 -0.003251434 -0.036773004 0.02266912 0.016724149 -0.011198334 0.0032163232 0.0038178316
0.043546055 0.015164101 -0.009473061 -0.0030365216 -0.003790087 -0.005095236 0.025552547 -0.028060844
0.00983443 0.0031679177 -0.015031017 -0.0047395737 -0.003049307 0.0069138524 0.02468672 -0.021318035
0.0043392223 0.027836392 -0.004438744 -0.035744652 0.026187517 0.017841104 0.02015782 -0.01810224
-0.024976645 0.025514979 0.005269505 0.019831859 -0.014469239 0.00770368 0.00959895 -0.0004081139
-0.01402193 -0.012138026 -0.02150381 -0.0026365982 0.024622552 -0.017796358 0.013260082 0.022037046
-0.009487419 0.036651466 -0.016189048 0.001929069 -0.0031414502 0.0035909591 -0.020159658 -0.02714083
0.0068290723 0.009317311 -0.008689433 -0.0005955592 0.0054143844 0.033203315 0.008537761 -0.012217891
-0.006398963 0.019846112 -0.040076695 -0.0058240364 -0.02412226 -0.017598454 0.018332716 -0.027887186
-0.015103173 -0.0034195364 0.008948871 0.015755374 -0.015888728 -0.018399933 -0.013127612 0.008191198
0.02859589 -0.012518335 0.026242983 -0.010754123 -0.0014051439 0.017434338 -0.0010391729 -0.0032498266
-0.018366354 -0.008198563 0.022290904 -0.014974007 0.008800554 -0.008228227 0.0022811834 -0.025472261
0.010633074 -0.0036498904 0.012424034 0.022531822 -0.0074171694 -0.010412434 -0.017475965 0.009149722
0.0058888644 -0.015371785 -0.008534664 0.026334945 0.02064891 -0.00036672552 0.011213817 -0.029391002
-0.037744492 -0.06565151 -0.014619149 0.010870624 0.035445176 0.007985878 0.030098144 0.004208794
0.035362087 0.018393029 -0.019076103 -0.033653166 -0.013656899 -0.016232025 0.011129899 0.035364933
0.07175302 0.031566683 -0.01789533 -0.010765357 0.05313978 -0.0036850255 0.0005416659 -0.0041530873
-0.00657209 -0.009781707 -0.006607518 -0.01492728 0.013492348 -0.014940156 -0.024718473 0.008778028
-0.026128106 -0.01629919 0.019791339 -0.016593458 -0.018192967 0.026365764 -0.010350117 -0.011948334
-0.05645419 -0.0015882006 0.0201889 0.01063064 0.024494618 0.027203295 0.024218963 0.01486291
-0.043466695 0.016753644 -0.019467711 -0.003984599 -0.01222795 0.025452869 -0.04728014 -0.024999263
-0.0033435195 0.019348044 0.016846443 0.012010673 0.0039314795 0.011801366 0.0050285314 -0.024601964
0.032223966 -0.036707137 -0.032479543 -0.0076259826 0.0018754072 0.004148786 -0.0034713922 0.019054234
-0.017516842 0.016893892 -0.011333464 -0.03385926 0.02665049 0.0155654345 0.016859695 0.009963195
0.02016542 -0.024670731 0.02322857 -0.020881118 0.0063417214 0.007714117 0.00874733 -0.027790906
-0.0038417052 0.010220633 0.014278706 0.020466559 0.011776779 0.022310458 0.034301553 -0.049473464
0.022576533 -0.047210105 -0.011573768 0.0082996655 0.024683388 -0.015541676 0.020387061 0.01477096
0.018996846 -0.033371232 -0.02972224 -0.009944627 -0.009616341 0.006816207 -0.020874664 -0.021598723
0.0039374875 -0.022937285 0.0011936068 -0.026344959 -0.02047968 0.0076396684 -0.019663878 -0.033149585
0.015903404 -0.018416712 0.032186832 -0.007730519 0.010102421 0.032847483 -0.009907059 0.031459432
-0.010202405 -0.0003970076 -0.019764593 0.00032119887 0.023490658 -0.018327536 0.0056057647 -0.04685138
-0.009330206 -0.008373637 -0.01105795 -0.012946092 0.0032027152 0.003188704 -0.013722164 -0.071499385

bias f4 [64]
00000000: de4d abbb f147 343b c7c6 183d 6d02 783d
00000010: 2792 1abb 214a 88bc 13a8 40bc 3604 60bc
00000020: 5291 7a3d c2fb 73bb ad53 043c 4bf9 1b3b
00000030: 44af debc 23b3 34bc ffc1 2c3c 84be f3bc
00000040: 7b02 28bd 02b3 a6bc 8f0d 18bb 7c40 1abc
00000050: bf81 3e3d 8e2f ee3c ab94 263c 89f1 efbc
00000060: b74d d8bb d92e 39bd 0cf6 22bb fb05 083c
00000070: 0c46 17bb 8f75 05bd 0c9a 91bc e81b 58bc
00000080: 0bcd 3b3d dcc7 d33c 06ae c0bb 22d9 23bd
00000090: 5cf8 383d af71 533d 20e8 673c db8f 99bc
000000a0: 75d0 a43c fa7c bcbc 9cce d53c 4454 d03b
000000b0: 216e 593c 4185 973d 6c19 f4bc ed2b d43c
000000c0: 8c73 e13c e61f 41bd ee69 2c3d b7b0 f83c
000000d0: 0eb8 0fbd 44c2 903c 58b2 d13b 1d93 df3c
000000e0: 7564 e6bc ace9 e3bb d681 173d 5642 a2bc
000000f0: cf8b 35bc 69c6 45bd 892c e13c a7ab 9bb9
-0.0052277884 0.00275087 0.037298944 0.06054919 -0.0023585649 -0.01663691 -0.011758822 -0.013672879
0.061173744 -0.0037228917 0.0080765905 0.0023799713 -0.027183183 -0.011029038 0.010544299 -0.02975393
-0.04101799 -0.02034903 -0.002320144 -0.009414788 0.046510454 0.02907541 0.010167281 -0.029289978
-0.006601061 -0.045210693 -0.0024865894 0.008302207 -0.0023082523 -0.032582816 -0.01777365 -0.013190247
0.04584984 0.025852136 -0.00588012 -0.040001996 0.04515873 0.05162209 0.014154464 -0.018745353
0.020118931 -0.023008812 0.026099496 0.0063577015 0.013270886 0.07398463 -0.029797278 0.025899852
0.027520917 -0.04714956 0.04209321 0.030357702 -0.035087638 0.017670758 0.006399434 0.027291829
-0.028124074 -0.006955346 0.036989056 -0.019807022 -0.011080696 -0.04828492 0.027487056 -0.00029691795

weight f4 [12, 64]
00000000: d04d c93d fafa fe3d b6c0 8cbd eb72 793c
00000010: 4d79 6dbd f9d8 bcbd 800b 1bbe 3c7c ffbd
00000020: ad22 8a3d 6012 d4bd c4ad 6a3d f84f 4cbd
00000030: 70e7 7cbe 89db ec3c befe 81be 3fea 003e
00000040: 229c af3d 3ffd e3bd c3a6 f93d 6f9d 0a3e
00000050: 27be 613e a266 3fbe fe42 673e 4327 b5bd
00000060: 20f0 0ebd ba80 21be b70d 893d 584e e03d
00000070: 26d2 47be fb11 4bbe c94d 20be 9919 bcbd
00000080: 2497 973e 4c8f 9e3d 19ae 5ebc a90b 0ebd
00000090: 69bf d23d 8a05 c0bd 150a fdbd 8dc2 58be
000000a0: 92b3 373e bd41 063e ca37 1f3e f143 813d
000000b0: 0af2 0a3e 8200 76bd 80a1 73bd d96b a4bd
000000c0: fc8e b93d 85f9 88bd e170 d93b 8aa3 f63d
000000d0: b3bd 3c3d 0749 e63d 1fe8 023c 94cf 263e
000000e0: 140b 023e 8d09 debc 75b5 053c 9f1f 3bbe
000000f0: 29e1 963d ab3b 47be a85b 98bc ebfd 603b
00000100: 5dee dd3d cf0c a0bd 7ea0 d93d 435b 68be
00000110: 695e 1fbd 48f3 1c3c 08fb be3d 7944 933d
00000120: 7bf4 6cbd 6f23 74bd b33c 07be bca9 8d3c
00000130: 9f59 4bbe 8b18 7c3d a929 56be dd88 e93d
00000140: fca5 113e 75a4 003e a1db 2f3d be15 89bc
00000150: 06a9 dabb 8dca afbd 05c5 04be a7f7 96bd
00000160: 683c 79bd 6702 27be fd1f 733c b5d6 6a3d
00000170: 67c6 5abe afa2 2e3d b59d 72bd e458 c9bd
00000180: 7b5c 4f3e 1df3 c4bd 0952 52bd 7efe 0d3e
00000190: 7e11 ccbd c80a e03d 2c6a 0dbd efb5 353c
000001a0: 2db6 a9bd 69e5 f6bd 0119 efbd 7b0b ef3d
000001b0: c364 33be e757 3abe 3c3b 21bd aa16 be3d
000001c0: 2fb5 2d3e cbac 0abe 2da6 d53d 35a5 23bd
000001d0: 6252 463a 7070 c2bd 758f 5cbc cb49 a2bd
000001e0: 723c f63d 8e04 893d 5f78 5c3e d7c9 633e
000001f0: 660a 86bc 20d5 6dbe 7202 233e 7818 debd
00000200: 4000 c13d 9937 91bd c000 ed3d 7550 47be
00000210: bbc5 153e c487 e83d a7ee a53c 575a 323e
00000220: 3b4e 26bc 9dc3 f0bb 23b2 063d a494 43bd
00000230: 56f8 2dbd f737 6b3d c96c e33d 11fe 2abd
00000240: aa70 583d e07e e93c 4668 1abe 8deb 3cbe
00000250: a3a0 47bd fb5f f2bc af8e 22be af84 a23d
00000260: 302f bfbd aa44 bcbd 97f6 6cbd df01 3b3e
00000270: c0e4 133e 7233 8e3d ebef 01be 24ee 013e
00000280: 405d 18bd 43bc 30bd 4ced febc cd99 543e
00000290: 26e4 3d3c 1c21 133e 41a5 bf3d 608c 4f3e
000002a0: 4d34 eb3d 073c cebb a03b 15be b003 b6bd
000002b0: 7b40 ae3d 6d4a 02be bf89 443d 9105 5b3e
000002c0: 22f1 8c3c c7d6 70bc e824 6cbe 755e a0bd
000002d0: 3d87 1f3e c546 2b3e a839 c33c 8302 96bd
000002e0: bd9b 31bd 2be1 b13d 344e a63d e669 adb9
000002f0: c14a ecbd a809 29be 4e04 37be dd1e a83d
00000300: 4ef2 ebbd 11a1 283c 2e66 a83d ebfc 64be
00000310: 8e5e eb3d 541c 95bb 200f 903d 31e7 2c3e
00000320: c024 c5bd a3c5 c8bd f635 07be 5889 c6bd
00000330: 229f 29bd 4e96 07be 1f1c 783d 107d dd3d
00000340: bf79 a63d e2d4 1a3e d22e 86bd 38b6 ea3d
00000350: 9150 4e3e 8cf8 8f3d 3e96 de3c e402 483d
00000360: 5907 893d 8c88 0d3e e39c 983d 29bd a43e
00000370: cb50 2d3e 8996 a23d b564 893d e1bd a0bd
00000380: 3a19 11be b620 993d d3e6 35be f173 8dbd
00000390: 580c 2a3d 4290 023e 5f6a adbd 5691 c03d
000003a0: da24 f03c 750b bd3d 801c 823d ffcc 593d
000003b0: 7f5a 183e 96cc 3fbd 0be9 14be 80b7 743d
000003c0: acf4 56be b2b5 91bd 7b1e aebe 8afa 0e3e
000003d0: 9b7e 2e3e 81a3 1f3e 21b9 2fbe 6792 a93d
000003e0: f356 0f3d 4c3f fd3d 8554 053e 5c23 d1bd
000003f0: 5a84 fabc c92c 8a3d 48dc 0abe d6d2 933d
0.09829295 0.12450214 -0.06872694 0.0152251525 -0.05797701 -0.09221072 -0.15141106 -0.12474868
0.06744895 -0.10355067 0.057294622 -0.04988095 -0.24697661 0.028913276 -0.25389665 0.12589358
0.08574702 -0.11132287 0.121900104 0.13536619 0.22045194 -0.18691495 0.22584149 -0.08845379
-0.03489697 -0.15771762 0.06692069 0.10952443 -0.19513759 -0.19831078 -0.15654673 -0.0918457
0.296075 0.077421755 -0.013591313 -0.03467909 0.10290415 -0.093760565 -0.123554386 -0.21167965
0.17939594 0.13111015 0.15548626 0.06311787 0.13568893 -0.060059078 -0.05948019 -0.08028383
0.09060475 -0.06688217 0.0066357707 0.12042911 0.04607935 0.112443976 0.007989912 0.16290122
0.12699538 -0.027104164 0.0081609385 -0.18273781 0.07367165 -0.19456355 -0.018598393 0.0034331034
0.1083648 -0.07814943 0.106263146 -0.22691064 -0.038908396 0.009579487 0.09325224 0.071907945
-0.057850342 -0.059604105 -0.13206749 0.01729285 -0.19858406 0.061546843 -0.2091433 0.11403058
0.14223474 0.12562735 0.042934064 -0.016734 -0.006672981 -0.08583555 -0.12965782 -0.07371455
-0.060848624 -0.1630951 0.01483917 0.057333667 -0.21364747 0.042635616 -0.059232432 -0.09831408
0.20250122 -0.09616683 -0.051347766 0.13866612 -0.09964274 0.10939556 -0.03452508 0.01109074
-0.082867004 -0.12055475 -0.11674691 0.116721116 -0.17518906 -0.18197595 -0.03936313 0.092816666
0.16963647 -0.13542478 0.10432086 -0.039952476 0.00075653766 -0.09494102 -0.013461937 -0.07924231
0.12023248 0.06690322 0.21530293 0.22244965 -0.01636238 -0.23225832 0.15918902 -0.10844511
0.09423876 -0.070906825 0.11572409 -0.19464286 0.1462621 0.1135402 0.0202554 0.17417274
-0.010150488 -0.0073475377 0.03288473 -0.047749177 -0.04247316 0.05742642 0.111047335 -0.041746203
0.05284182 0.028502882 -0.1507884 -0.1844923 -0.04873718 -0.029586783 -0.15874742 0.07935464
-0.09335172 -0.09192784 -0.057852354 0.18262433 0.1444273 0.06943406 -0.12689178 0.126885
-0.037198305 -0.04314829 -0.031119011 0.20761795 0.011590039 0.14368099 0.093576916 0.20268393
0.11484585 -0.006293777 -0.14573526 -0.08887422 0.085083924 -0.12723704 0.047982927 0.21388842
0.017204825 -0.014699644 -0.23060954 -0.07830516 0.15578933 0.16726215 0.023831204 -0.07324698
-0.043361414 0.086855255 0.08120385 -0.00033076032 -0.11537696 -0.1650759 -0.17872736 0.08209012
-0.11520825 0.0102923075 0.08222614 -0.22362106 0.11492644 -0.004550496 0.07034135 0.16885068
-0.0962615 -0.09803321 -0.13204178 -0.09694165 -0.041411527 -0.1324093 0.060573693 0.108148694
0.0812869 0.15120271 -0.06551899 0.11460537 0.20147921 0.070298284 0.02717125 0.04883088
0.066908546 0.1382162 0.07451799 0.32175568 0.16925351 0.079388686 0.067086615 -0.078487165
-0.1416978 0.07476942 -0.17763834 -0.0690688 0.04151568 0.12750342 -0.08467554 0.09402721
0.029314447 0.09230701 0.06353092 0.053174015 0.14878272 -0.046825968 -0.14542024 0.05974531
-0.20991772 -0.07114734 -0.3400763 0.1396276 0.17040484 0.15589716 -0.17160465 0.08279877
0.03499503 0.123655885 0.13020523 -0.102118224 -0.030580688 0.06746823 -0.13560593 0.07217948

bias f4 [12]
00000000: cc2a 073e fdc5 d9bd 4341 1cbe f126 83bb
00000010: 9886 a8bd 1187 b7bc a624 2bbe 0e33 213e
00000020: 475b 99bc e4d0 00be 5c6e 7dbd ed9d 343e
0.1319992 -0.106334664 -0.1525927 -0.004002445 -0.08228797 -0.022403272 -0.16713199 0.15742132
-0.018720282 -0.12579685 -0.061872825 0.17638369
