Baseline/Classification/model_state_dict3.pt (torch, 486415 bytes, 12 tensors)

conv1.weight f4 [10, 3, 3, 3]
000000 8c fa 2c 3d b6 37 e5 3d 67 3a c6 bc e0 4d 70 3e
       0.042231128 0.11192267 -0.02419777 0.23467207
000010 32 f9 25 3e a3 cc be 3e 48 46 80 3e df 4b af 3e
       0.16208342 0.372655 0.2505362 0.34237573
000020 b1 7f e2 3e a1 05 aa be fe 02 af be ee 2c b0 be
       0.44238046 -0.3320742 -0.3418197 -0.3440928
000030 2b e5 a5 be 6d 48 7e be da f5 03 be e1 21 54 be
       -0.32401404 -0.24832316 -0.12886754 -0.20716049
000040 c7 28 d8 3d 75 c2 ac 3c 96 5b b9 bd 4c 23 75 be
       0.10554653 0.021088818 -0.09050672 -0.23939246
000050 0c e0 a3 bc 46 1f cd bd 4f 28 ca bc ef 48 dc 3d
       -0.020004295 -0.100157306 -0.024677424 0.107560985
000060 68 fc 36 3e 7f 64 99 3e 85 64 d6 3c 7d 43 1a 3e
       0.17869723 0.29959485 0.026170978 0.15064807
000070 9f 11 b2 3d 2b ae 47 3e 49 21 1d 3e dc 54 87 be
       0.08694767 0.19500034 0.15344729 -0.2643193
000080 68 cb 5a be 96 af f3 bd aa 85 54 3e f9 c1 7d bd
       -0.21366656 -0.11898725 0.20754114 -0.061952565
000090 1d 01 4a be dc 5f ba be 45 d1 f2 bd 09 3f bd be
       -0.19726987 -0.3640126 -0.11856321 -0.36962155
0000a0 f4 37 87 be 9b 22 b2 be 61 54 e8 be 57 27 31 be
       -0.26409876 -0.34792027 -0.45376876 -0.17300163
0000b0 82 40 e7 be 52 bd c5 3e b5 b3 98 3e a5 63 8f 3e
       -0.45166403 0.38621002 0.29824606 0.2800571
0000c0 7c 84 02 3e a9 25 d1 3d 24 5d ba 3e c6 f8 2c 3e
       0.12745851 0.10212261 0.36399186 0.16891775
0000d0 e1 d7 06 3f b5 7a cf 3e b2 bd 29 3e 51 96 86 3d
       0.52673155 0.40523306 0.1657627 0.06571639
0000e0 b6 7e b5 3e 0e f8 26 3e b5 98 e2 3d 8b 54 0b 3f
       0.35448235 0.16305563 0.11064283 0.5442588
0000f0 2a 32 78 3e 18 39 fa 3e 33 8b 60 3e 70 7d b2 be
       0.24237886 0.48871684 0.219281 -0.34861326
000100 4a 13 a0 be a2 dc 77 be 9e aa 0c bf d9 5a d3 be
       -0.31264716 -0.24205258 -0.5494784 -0.4128025
000110 d0 b1 ba 3c 11 f5 db be 31 9e c0 bd 35 48 2f be
       0.022789866 -0.42960408 -0.094051726 -0.17117389
000120 c3 28 17 3e 07 f0 e0 3d 7d 20 18 3e c6 83 6a 3d
       0.14761643 0.109832816 0.14856143 0.057254575
000130 60 67 dd bd 2e 9f b7 3e 48 0f 3c be 04 4a 76 b7
       -0.10810733 0.35863632 -0.18365204 -1.4679976e-05
000140 74 37 17 3e c2 cc a2 bd 14 3d 18 3e 1b 4b f0 bd
       0.14767247 -0.07949211 0.1486705 -0.11733075
000150 0a 96 41 be b2 c0 12 3e dd 9f 26 3d 50 2d 05 3e
       -0.18904892 0.1433132 0.0406798 0.13005567
000160 db 38 28 3e 1c 75 30 bd 10 46 35 bd 7e 16 5e 3d
       0.16427939 -0.043080434 -0.04425627 0.05422067
000170 73 f7 2a be 9f 4c 17 be 62 e8 08 3d 9d 0b 99 3d
       -0.16695957 -0.14775322 0.033424743 0.07472918
000180 4b 42 ce bd 3b 13 61 3c 8b 78 7d 3e 84 dc d1 bd
       -0.10071238 0.013737495 0.24753015 -0.10247138
000190 f2 11 1b 3e c7 7e 8a 3d 5f 29 31 be b6 26 3b be
       0.15143564 0.06762462 -0.17300938 -0.18276486
0001a0 a1 c2 7b 3e d5 db 52 bc 47 ba 5b 3e 72 91 00 3e
       0.24585964 -0.012869795 0.21457778 0.12555483
0001b0 1a 90 ed 3d b7 a9 a1 3e 36 96 96 3e 7c 2a 1a bc
       0.11599751 0.31574795 0.29411477 -0.009409543
0001c0 c5 47 6a 3e 35 f5 ae 3e c0 81 51 3e d3 f6 47 3e
       0.2287894 0.34171453 0.20459652 0.1952775
0001d0 98 40 cd bd 9b 0c 18 be 00 eb 08 3b 64 26 90 3d
       -0.10022086 -0.14848559 0.0020892024 0.070385724
0001e0 b9 3b 81 3e 5a b8 0f 3d 9e 2d 7c 3e 17 fe d0 bd
       0.25240877 0.03508792 0.24626777 -0.10204714
0001f0 1f 98 24 be f6 3d 88 bd 70 a4 02 3e 98 52 aa 3e
       -0.16073655 -0.06652443 0.1275804 0.3326614
000200 5a c8 74 bd 2c c2 00 3e 15 af b9 3e 6a 0c 9c 3e
       -0.059761383 0.1257407 0.3626639 0.3047822
000210 59 48 08 3e 02 76 36 3e 35 e2 ed 3d 27 5d b4 bd
       0.13308848 0.17818454 0.11615411 -0.0880683
000220 26 b0 8d be 2a 8e 82 be e7 aa 4b be a4 d7 14 be
       -0.27673453 -0.25499088 -0.19889413 -0.14535385
000230 a5 6b 5c be 80 9c 03 bd 47 e3 6e bd 1f cd 0b be
       -0.21525438 -0.032131672 -0.058322217 -0.13652466
000240 96 69 18 3e 2e be 05 3e 59 52 77 3e 7b 91 6e 3e
       0.14884028 0.13060829 0.24152507 0.23297684
000250 0a ed d8 3c 04 67 9d 3e 25 03 bc 3d fb e6 bb 3d
       0.026480217 0.30742657 0.09180287 0.091749154
000260 c9 52 63 bd ef 17 5b be 3f bf 56 be 18 f3 ea bd
       -0.055498872 -0.21395849 -0.20971392 -0.11472148
000270 da a6 9b 3d 6e a5 05 be 90 23 34 be 18 7d db 3c
       0.07600184 -0.13051388 -0.17591691 0.026793048
000280 4b 3f 2d 3a 42 39 d2 3d fe f6 0a bd 1a 70 56 3d
       0.00066088577 0.10264827 -0.033926956 0.052353002
000290 84 bb 9b bc ee 14 00 ba ac 5b f9 bd bb b5 3a bc
       -0.019010313 -0.0004885931 -0.12175688 -0.011395867
0002a0 87 59 70 bd 82 95 eb 3d 1c a4 f3 3d b9 cb 97 3e
       -0.05867913 0.11503126 0.11896536 0.29647616
0002b0 f3 ac c3 3e 25 19 d8 3e 39 e5 b6 3e aa ea 60 3e
       0.38217887 0.42206684 0.35721758 0.21964517
0002c0 8c dc 03 3e b8 57 ab 3e 1f dc 2e 3e 55 58 83 3e
       0.128771 0.33465362 0.17076157 0.2565333
0002d0 6c aa cb be b9 fe aa be 4b 26 bd be 6e 13 91 bd
       -0.3977846 -0.33397463 -0.36943278 -0.07083784
0002e0 cd de da be b7 28 b5 be 9e b8 96 be 15 94 b3 be
       -0.42748109 -0.35382625 -0.29437727 -0.35073915
0002f0 5b fa f3 bd 2b 6a 8a be af 5c 68 be 02 0a 00 3c
       -0.11912986 -0.27034125 -0.22691606 0.007814886
000300 fd 60 ff 3c 86 8d 12 be 3e a0 37 3e 27 b3 0d 3e
       0.031174177 -0.143118 0.17932221 0.13837872
000310 e3 fb ae 3e d2 49 80 be 26 80 2c bd bb 1f 28 be
       0.3417655 -0.2505632 -0.0421144 -0.16418354
000320 85 d8 88 3e 7b 40 7f bd 41 93 77 3e ab 90 5d 3e
       0.2672769 -0.062317353 0.24177267 0.21637218
000330 0c 88 03 3e 45 d8 98 3e 19 80 07 3d db 9f 31 bd
       0.12844867 0.298525 0.033081148 -0.04336534
000340 81 47 de bc f9 af d5 3d 8d f0 37 be 2d 7c 93 3e
       -0.027133705 0.10433955 -0.17962857 0.28805676
000350 6a 0e c2 3e b9 77 96 3e a4 cf fc 3e 27 4e 1f be
       0.37901622 0.29388216 0.49377167 -0.15557157
000360 43 a1 45 bc a3 47 b6 3e 3b ad 4d 3b a7 79 2b 3e
       -0.012062374 0.3560153 0.003138377 0.16745625
000370 7f c9 10 be 8d 1e c0 bd 7a ed 68 3d 7d 1f 1c be
       -0.14139365 -0.09380827 0.0568671 -0.15246387
000380 26 32 5e bd 5c 8a 56 3e e4 84 bc 3e 3b c9 b6 3e
       -0.054247044 0.20951217 0.36820138 0.35700402
000390 bb c8 2b bd f4 22 03 be 4f 5e 7e 3e 74 52 a2 bd
       -0.04193948 -0.12806302 0.24840663 -0.07925883
0003a0 28 e3 b2 bd 5a 8d 3f 3d cf e9 9b bd 27 43 c2 3e
       -0.08734733 0.046765663 -0.07612955 0.37941858
0003b0 3d 61 ac 3e 42 b0 39 be 1b bd 02 be 4f 3d 93 3d
       0.33667937 -0.18133643 -0.1276745 0.07189428
0003c0 ef 95 0d 3c d9 41 88 bc c6 3a a0 bd d4 1c 7f be
       0.008641704 -0.016632961 -0.0782371 -0.24913341
0003d0 4e 41 c2 be 06 a7 cf be 8d 5b 97 be 75 9a a4 bd
       -0.3794045 -0.40557116 -0.29562035 -0.08037273
0003e0 54 42 0e be 90 3d cc be d9 79 61 be c3 de 80 be
       -0.1389249 -0.39890718 -0.22019137 -0.25169954
0003f0 08 6d 0c bd fc cd b7 bd dc 4c c2 3c ec 0a 21 3e
       -0.034283668 -0.08974835 0.02371829 0.15726823

conv1.bias f4 [10]
000000 11 85 df bd 34 06 e1 3e 09 e8 c1 3d ee 0d 7b bd
       -0.10914052 0.43950045 0.09468085 -0.06129258
000010 79 3e c8 be 8f 28 2a 3c 5e a8 97 3d 1e e8 cb 3e
       -0.39110163 0.0103856465 0.0740516 0.3982553
000020 70 33 8b be eb e7 1c 3f
       -0.2718768 0.6129138

conv2.weight f4 [20, 10, 3, 3]
000000 f8 88 c3 3d 99 e1 0b 3d 3f 85 d8 bc 77 af 38 bd
       0.09547609 0.034150694 -0.026430724 -0.04508921
000010 69 d6 ac bd c8 32 c0 3d 3e 3b 88 bc bf 1f d3 3c
       -0.08439333 0.09384686 -0.016629811 0.025771974
000020 92 ac 5a 3c 65 35 33 bd 3f 7e a7 3d 55 49 a2 3d
       0.013346808 -0.043752093 0.081783764 0.07924143
000030 51 63 a0 3c f1 a3 44 bd 27 06 02 bd 99 18 52 3c
       0.019578608 -0.04800791 -0.03174415 0.012823247
000040 22 a4 3d bd 0f 6e 51 bd a5 45 b4 3b fc 6f 7b bc
       -0.046299107 -0.05113035 0.0055014663 -0.015346523
000050 9c a6 0b 3d 1c ab 9c bc 3a be 0b bc 62 9c 01 bd
       0.034094438 -0.01912456 -0.00852924 -0.03164328
000060 cc ef b7 bd 24 72 d5 3d 93 c3 c0 3c d0 fa cf 3d
       -0.089812845 0.10422161 0.023530757 0.101552606
000070 b1 6b 5f bc d7 6a f4 bc a8 e9 c8 bd 51 a9 32 bd
       -0.0136365155 -0.029836101 -0.098101914 -0.043618504
000080 84 b9 85 3d 47 86 dc bd 7b 11 23 bd f4 38 7f 3d
       0.06529525 -0.10767799 -0.039811593 0.062310174
000090 52 40 e7 3d ea f1 d0 3d 11 d7 b9 b9 97 09 74 3c
       0.11291565 0.102023914 -0.00035446187 0.0148948645
0000a0 44 26 3c bc b4 69 66 bd 35 d2 1d 3d 67 6a 53 bd
       -0.011483733 -0.05625315 0.038530547 -0.051615145
0000b0 ae 98 a1 bd da 5e 91 3c df ed a6 bd a7 45 d4 bc
       -0.078904495 0.017745424 -0.08150839 -0.02591212
0000c0 2d 2b 46 3d ec 66 0c 3d 86 6c b5 3d 64 dd 9a bd
       0.04838102 0.03427784 0.0885859 -0.07561758
0000d0 c2 7b 8c bb dc 0d 11 bd 57 cb 97 bd 8f b9 91 bd
       -0.004287214 -0.035413608 -0.07411831 -0.071154706
0000e0 7c a2 61 3c 9c 4f ca ba 60 24 87 bd 24 07 b3 bd
       0.013771649 -0.0015435102 -0.06598735 -0.08741596
0000f0 3b 32 c9 bd 99 56 b8 3d 7d 6c 06 bd 8e df 22 3c
       -0.09824034 0.09000892 -0.032818306 0.009940995
000100 97 68 6f bb 38 91 3b bd a8 e6 a9 bd 34 9e 79 bd
       -0.0036530846 -0.04579279 -0.08295947 -0.06094189
000110 98 1a 5f 3d e7 40 8e 3c f3 f2 28 bd c8 06 0b bd
       0.05446872 0.017364932 -0.04124732 -0.033942014
000120 5f 0f da 3d 3e c6 fd 3d 30 20 05 3e 70 3c 22 3d
       0.10647463 0.12391327 0.1300056 0.03960842
000130 8c 38 81 3d 67 b3 1a bc 10 b4 6c bd 97 e5 dc bd
       0.063096136 -0.009442187 -0.05778891 -0.10785978
000140 0d 8b 46 3d 86 ee 52 bc f1 47 71 3d 95 4a 61 3c
       0.048472453 -0.012874251 0.0589065 0.013750692
000150 96 de ca bd d0 47 4f bd ae ec bf 3c de 10 c5 bc
       -0.09905736 -0.050605595 0.023428287 -0.024055894
000160 ce ec ca bd 92 07 2c 3d 58 b6 04 3e b1 df 02 3e
       -0.09908448 0.041999407 0.12960184 0.12780644
000170 06 76 19 3e fa 4c 2b 3e aa 29 85 3d 68 d4 12 3e
       0.14986429 0.16728583 0.065020874 0.14338839
000180 0a 8a 06 3e 53 a0 bb 3c 9d e1 10 3d 8f 4c ba bd
       0.13138595 0.022903597 0.03537141 -0.09096634
000190 56 56 b5 3d 49 65 7c bd cc be 66 bd 63 7e 2a 3d
       0.08854358 -0.06162003 -0.0563343 0.041624438
0001a0 73 3e 7a bb db 03 8c bc bc 52 8f bd 0e de 72 bd
       -0.0038184195 -0.017091682 -0.06998202 -0.0592938
0001b0 99 ea 2c 3e fb e7 82 3e 34 c5 c5 3d b6 be fd 3d
       0.16886367 0.25567612 0.09656754 0.12389891
0001c0 72 a0 6b 3e b8 ba 64 3d df 95 44 3e d8 80 9f 3d
       0.23010424 0.05584213 0.19197796 0.07788247
0001d0 06 bc 33 3e 20 c3 a7 3d 93 f4 37 3c 84 fb d5 3d
       0.17552194 0.08191514 0.011227745 0.104483634
0001e0 d2 bf 4c 3d 08 fd 38 bd 88 d6 35 bd c7 bb b2 bd
       0.04998762 -0.045163184 -0.044394046 -0.08727222
0001f0 8e 0b 91 bd f0 a5 a9 bd 0d 0b 1f 3d 53 52 c8 3d
       -0.07082282 -0.08283603 0.0388289 0.09781327
000200 16 0e 35 3e 87 54 b6 3d 86 13 4d 3e 57 af 96 3b
       0.17681155 0.08902841 0.20026979 0.004598539
000210 96 18 f4 3d 2f ee 5b 3d 85 dd f5 bd 15 3b 96 3d
       0.11918752 0.053693946 -0.12005142 0.07335488
000220 5a e5 c0 bd 2e 45 9a bd 8c 6a dc bd 17 26 48 3d
       -0.09418745 -0.07532726 -0.1076251 0.04886445
000230 9c 48 cd bc eb 99 74 3d 92 5c 27 bd 9c 91 9c 3c
       -0.025059037 0.0597171 -0.040859766 0.0191124
000240 35 4b de bd c4 85 20 be 30 89 1e bd 6b 20 bc bd
       -0.10854188 -0.15676028 -0.03870505 -0.09185871
000250 eb 9a 8f bd 0f e7 d6 bd da ab 78 bd a5 8e 0d bd
       -0.0701197 -0.1049329 -0.060710765 -0.034559865
000260 6c 89 cd bc 45 30 27 be d2 72 f0 3d c9 00 08 3e
       -0.025089942 -0.16327007 0.1174065 0.1328155
000270 ee 02 d5 3d 47 e8 14 3e a8 e6 25 be 66 e0 de 3d
       0.104009494 0.14541732 -0.1620127 0.10882644
000280 da 1d 6e be 4e 46 74 bd 79 d3 38 bc 61 9a 42 3d
       -0.23253575 -0.05963736 -0.011280888 0.04751051
000290 61 55 00 bd eb 12 16 3d 65 7b a0 3c 04 8d 40 bd
       -0.031331424 0.036639135 0.01959009 -0.047009483
0002a0 a8 80 73 3d 14 21 cd 3d 7b 70 ee 3d f6 77 f2 bd
       0.059448868 0.10016075 0.11642548 -0.11839287
0002b0 86 44 56 bb 3f 98 50 bd 80 23 30 be b8 6b 61 be
       -0.0032694652 -0.050926443 -0.17201042 -0.22013748
0002c0 b8 65 8b bd 72 05 46 be 74 fc e1 bd 24 17 6a be
       -0.06806511 -0.19338015 -0.1103448 -0.2286039
0002d0 c1 f4 e4 3d 5b c8 9b 3d a5 b7 5c 3d ae a6 af 3d
       0.111794956 0.07606574 0.053886075 0.085767135
0002e0 0b 00 e5 bc 01 05 39 bb f6 39 31 3d 05 0b 6e bc
       -0.027954122 -0.0028231742 0.043268166 -0.014528994
0002f0 99 a1 21 3b c8 b1 a5 3b 0c dd ef 3d 8f 44 ea 3d
       0.002466297 0.0050565936 0.11712083 0.11438858
000300 4a ff 09 3e cb f9 eb 3d 1b 1e bc bd 84 57 8f 3d
       0.13476291 0.115222536 -0.0918543 0.06999114
000310 c4 6b 8a 3d ef 0d 8b bd 48 85 8c 3d 6e d8 02 bd
       0.06758836 -0.06789767 0.06861359 -0.031944685
000320 52 65 97 3d 16 ec 99 3d f3 f3 08 3e 6a dd c5 bc
       0.07392372 0.07515733 0.13374309 -0.02415343
000330 5a ff f7 bc f2 aa 0f 3e 89 b6 67 3d 14 0a 7b 3d
       -0.030273128 0.14030054 0.056570563 0.061288908
000340 03 16 12 3d 24 da 07 bd fc a4 9b 3d 47 a1 c1 bd
       0.035665523 -0.03316702 0.07599828 -0.09454589
000350 72 0b 19 3c 6b 03 50 3d 83 e6 a3 3d de c5 68 bd
       0.009341108 0.05078451 0.08002951 -0.056829326
000360 0e 36 8b bd d6 77 a0 3c be 2d 01 be 76 46 ba bd
       -0.067974195 0.019588392 -0.12615106 -0.090954706
000370 9c 0e 05 be 1c 19 ba bd 70 46 5c bd 6e f7 bc bd
       -0.12993854 -0.090868205 -0.053778112 -0.09226881
000380 5c ee 84 bd 0e 54 c0 bd 78 12 87 3d c9 81 bb bc
       -0.06490776 -0.09391032 0.065953195 -0.022889035
000390 46 ae 95 bd d8 be d8 3c 46 cb b8 bd 5b 50 8e 3d
       -0.07308631 0.026458189 -0.09023146 0.0694892
0003a0 21 aa 39 3d 6c a7 dc bd a8 21 15 be 15 e1 05 be
       0.045328263 -0.10774121 -0.1456362 -0.13074143
0003b0 97 b3 e6 bd 10 d4 3e bd 45 74 24 be cb 44 08 be
       -0.11264723 -0.046588957 -0.16059978 -0.13307492
0003c0 33 f3 a5 bb 1d aa bb bd af 91 bc bd 69 c3 82 bd
       -0.005064392 -0.09163306 -0.092074744 -0.06384928
0003d0 6a 70 20 3d d6 e9 19 3d 59 69 04 bd 46 0f e4 bc
       0.039169706 0.03757652 -0.03232703 -0.027839314
0003e0 40 73 29 3d 62 2b 68 3d c3 a0 b0 3d 53 30 3a 3d
       0.041369677 0.056681998 0.08624413 0.04545624
0003f0 68 75 51 bc 27 83 ad bd 4c 51 67 3d c0 37 64 3c
       -0.0127843395 -0.08472281 0.056474015 0.013929307

conv2.bias f4 [20]
000000 47 4d f9 3c bf e9 25 3c c6 6b 27 bc 67 2e 84 bc
       0.030432357 0.01012653 -0.010218566 -0.016135408
000010 56 78 ab 3d d1 6f 8e bc f4 66 ad 3d 31 c0 97 be
       0.08372562 -0.017387303 0.084669024 -0.29638818
000020 19 b7 30 bc d5 f0 76 3d ee 26 cd bd 13 f4 0c 3e
       -0.010785841 0.06028827 -0.10017191 0.13764982
000030 93 61 1e be 39 8c 8e bd 03 00 91 3d f8 f9 52 3b
       -0.15466909 -0.06960339 0.0708008 0.003219245
000040 22 60 a8 bd aa 47 42 bd 2b b5 aa 3d 91 77 d7 3c
       -0.08221461 -0.047431625 0.08335336 0.02630213

conv3.weight f4 [40, 20, 3, 3]
000000 9d cc 69 3d 0d 15 5f 3d 3c 32 64 bd 99 5a 52 bb
       0.0570799 0.054463435 -0.05571197 -0.0032097457
000010 a6 fc 5e 3c bd c0 d8 bc df 88 56 3d 92 a5 16 bc
       0.013610041 -0.026459092 0.052376624 -0.0091947485
000020 89 e3 1f 3c 30 5a 6b bd 27 52 4c 3d bb f3 4e bd
       0.009758838 -0.057459056 0.049883034 -0.05052541
000030 e4 65 f6 bb 1e ed 92 bd cd b7 9f 3d 28 97 d5 3b
       -0.0075194705 -0.07174133 0.07798729 0.0065182634
000040 93 fd 25 3d 05 da 80 bd 37 c2 8e 3b 8a 38 df 3c
       0.04052503 -0.06291584 0.0043566483 0.02724864
000050 3e 83 4a 3d d8 10 47 3d d3 6b b0 bc 8b c8 73 bc
       0.04944157 0.048600048 -0.02153579 -0.014879356
000060 c3 b8 68 3c 27 29 0e bd 4e 13 10 bd 61 75 67 bd
       0.014204207 -0.034707215 -0.03517466 -0.056508426
000070 56 5c d2 bd 7a bd 43 bb 1e ba 33 3c f2 85 01 bc
       -0.10271518 -0.0029867576 0.010969667 -0.00790547
000080 e8 e7 97 3d 36 d6 87 3b d5 96 60 bb a6 1f 91 bd
       0.074172795 0.004145409 -0.003426959 -0.070861146
000090 70 90 94 3d d4 a8 6c bd aa 1f 21 3b d2 77 d1 3c
       0.07254112 -0.057778195 0.0024585524 0.02556983
0000a0 64 ba 82 3c 3f 27 24 bc 6c 0a 8d bd 0e 57 8c 3d
       0.015958019 -0.010019123 -0.068867534 0.06852542
0000b0 6a fa 62 3c 5c d3 86 3d f6 a8 25 bc 83 8c 76 3d
       0.013853649 0.06583282 -0.010111084 0.060192596
0000c0 48 42 84 bb 72 c5 04 bd 8a 55 7d bc f7 7f 5d 3a
       -0.0040362217 -0.03241486 -0.015462289 0.0008449549
0000d0 ac 22 9e 3d 49 f4 5f 3d e1 b0 7c 3d 0d 1e 6e 3d
       0.07721457 0.054676328 0.061692122 0.058134127
0000e0 94 ee 97 3d b3 bd 47 bd df c0 11 bd 72 3d fd 3c
       0.07418552 -0.048764896 -0.035584327 0.030913088
0000f0 63 79 1c bd a4 d0 62 bc a6 62 a9 bc b0 a6 8a 3d
       -0.0382017 -0.013843689 -0.020676922 0.06770074
000100 d0 25 91 bc 4e fe 0f 3e ed 46 9a bd 0e 03 96 bd
       -0.017718226 0.14061853 -0.07533059 -0.073248014
000110 a4 f2 62 3d dd 48 a8 3c a6 86 7d bc 25 b2 2f bd
       0.05540718 0.020542556 -0.015473997 -0.0428945
000120 44 d6 8a 3c 84 95 11 bc 1b e9 1e bc 68 5f d0 3c
       0.016947873 -0.008885745 -0.009699131 0.025436118
000130 36 c1 0d bd e0 ec 63 3d ec ad 5d bd f8 23 2d bd
       -0.03460809 0.055645823 -0.054120943 -0.04227063
000140 3a 01 c4 3c b9 7e fe 3c 55 64 8c bc 4e c5 7e bd
       0.023926366 0.031066285 -0.017137686 -0.062199883
000150 93 ed 92 bc 4d 02 13 bd fa ef 8b bc a8 70 a5 bc
       -0.01793555 -0.035890866 -0.017082203 -0.02019532
000160 11 50 00 3c f0 f5 97 bc c4 7f 86 bd 07 90 69 bd
       0.007831589 -0.01854989 -0.06567338 -0.05702212
000170 68 86 6b bd ce 98 9f bd 3a af 19 3d 6b dc a7 3d
       -0.057501227 -0.07792817 0.037520625 0.08196338
000180 09 37 78 3d 99 1f 4e ba 12 99 de bc 53 96 66 bd
       0.06059936 -0.0007862985 -0.027172599 -0.056295704
000190 7e 41 7c 3c f2 11 5e bd 67 3e 2f 3d 75 da 6c bd
       0.015396474 -0.054216333 0.04278412 -0.057825524
0001a0 7f c5 8a bd 9e 4b 85 bd 72 c3 5b 3d 97 3d 59 3d
       -0.06775951 -0.065085635 0.053653188 0.053037252
0001b0 1b 32 46 3c 40 de f5 bb c5 89 f0 3d f1 be 17 3d
       0.012096907 -0.007503301 0.117450275 0.03704733
0001c0 a1 cf 29 3d b7 f8 6c bc 10 fe 92 3c 60 25 9b 3d
       0.041457776 -0.014463595 0.017943412 0.07575488
0001d0 50 3d 54 bd 69 be a1 3d 8a f3 4d bd 2c 8f b8 bc
       -0.051816285 0.07897646 -0.050281085 -0.022529207
0001e0 67 22 b0 bb be 35 dc 3c 68 9e 60 3d 9a 56 21 bd
       -0.005375195 0.026881095 0.054838568 -0.03938923
0001f0 b1 14 1c 3d fc e5 02 3d 1f ce 3b bc d9 22 e2 bd
       0.03810567 0.03195761 -0.011462717 -0.11041803
000200 14 57 a3 3d 28 9f 25 bd 1d c5 7a bd 8b cc d6 3d
       0.07975593 -0.040434986 -0.061223138 0.10488232
000210 1b 52 56 bd 67 e6 58 3d 35 76 43 3d 9f 9f 67 bd
       -0.052324396 0.052954104 0.047720153 -0.05654871
000220 33 5a 80 bd a9 2c 26 bd f7 4b 92 3c 73 d5 85 3d
       -0.06267204 -0.040569935 0.017858488 0.06534853
000230 3a 70 05 bc fe 6a da bc 10 69 ea bc d1 d4 6a bd
       -0.008144433 -0.026662346 -0.02861455 -0.057331864
000240 41 70 9e 3d 30 e1 e0 bb ed e5 7e bd 37 65 53 bd
       0.077362545 -0.006862782 -0.062230993 -0.051610198
000250 e6 4c 4a 3d 47 6f 33 3d 01 02 45 3d 82 78 e2 bb
       0.049389742 0.043807294 0.048097614 -0.0069113383
000260 28 13 0b bc 1d b1 9a 3c 24 a7 af bc 65 75 fe bc
       -0.008488454 0.018883282 -0.021442004 -0.031061837
000270 ff 94 45 3b 19 de 5a bd 48 be 19 bd 73 06 cb bc
       0.0030148623 -0.053434465 -0.037534982 -0.024783349
000280 77 10 47 bd c4 07 84 3b 21 9c 9c 3c d9 26 a0 3d
       -0.048599686 0.004029246 0.019117417 0.078199096
000290 e3 b9 19 3d 79 99 87 3b 00 d9 40 bd e5 23 90 bc
       0.03753079 0.0041381684 -0.047081947 -0.01759524
0002a0 eb 05 8a ba a7 6f 34 bd 4b 0b bd 3c e8 e9 73 3d
       -0.0010530328 -0.044051792 0.023076674 0.059549242
0002b0 5c 74 0b 3d c5 ee 16 bd fa 4d d6 bc d2 cc 8c 3d
       0.034046516 -0.036848802 -0.026160229 0.06875004
0002c0 1c 6c b6 3b 66 19 93 bd e4 90 cd 3b ec 2f 5a 3c
       0.005567087 -0.07182579 0.006273376 0.0133170895
0002d0 7b 56 dc bc 12 51 bf bb 9a 22 84 bd 44 07 d2 3c
       -0.026896706 -0.0058385218 -0.06451912 0.02563823
0002e0 cd b7 38 bd 18 d4 1d 3d 87 3f 66 3d 52 16 65 bd
       -0.04509716 0.038532346 0.05621293 -0.05592949
0002f0 39 94 1e bd db 25 d6 3b 2a 7d b1 3c 32 b2 84 3d
       -0.038715575 0.0065352744 0.021666128 0.064793006
000300 2d 8b 81 3c c7 91 9f 3c 48 9d 0a bd 4e 7d 15 3d
       0.015813434 0.019478692 -0.0338414 0.036496453
000310 9a cd b2 bc 84 a8 b6 bd a6 c4 37 3d 28 c3 cd bb
       -0.021826554 -0.089188606 0.044865273 -0.006279368
000320 ac 3a 93 3d d0 61 8f bd 67 c2 91 bb be 84 1f 3d
       0.07188925 -0.07001078 -0.0044482234 0.038944952
000330 9b 10 4a 3d 34 09 f3 ba 3f 94 1e bd dd 64 d2 bd
       0.049332242 -0.0018542171 -0.038715597 -0.102731444
000340 b1 74 47 bd 42 e1 1d 3e 94 eb c6 bd 60 7c 55 bd
       -0.04869527 0.1541796 -0.09712902 -0.052120566
000350 3d 17 00 3e 9f af 83 3c 11 42 fe bd a1 81 ad 3c
       0.12508865 0.016074954 -0.12414945 0.021179976
000360 81 ef 0f 3c a5 5a 93 3d d4 71 eb 3c 5c 5f f4 3c
       0.0087851295 0.071950234 0.0287408 0.029830627
000370 26 8c 6c bb 17 05 a0 3d f3 0b b9 bb 99 7a 94 bd
       -0.0036094277 0.07813471 -0.0056471764 -0.07249946
000380 a8 e2 4f 3c cc f9 5c bd 59 bc 1a 3d f5 df 19 3e
       0.012688316 -0.053949162 0.03777728 0.15026839
000390 5a 02 c0 bd d6 3f df bd 5c e9 04 3d dd aa 04 bd
       -0.093754485 -0.109008476 0.03244911 -0.03238951
0003a0 39 41 98 bd 7d 6d ad 3d 87 f2 86 3c 56 0a a8 bc
       -0.07434315 0.08468149 0.016473068 -0.020512741
0003b0 3c 53 5b 3d a5 57 03 bd 8c 51 7a bd d4 97 87 3d
       0.053546175 -0.032066006 -0.061112925 0.06620756
0003c0 56 85 93 bd f3 31 19 bc ca b0 8e 3d 51 1c a5 bd
       -0.07203166 -0.009350288 0.069673136 -0.080620416
0003d0 0e 62 67 3d 2a 13 44 3e 71 56 f7 3b e7 55 89 bd
       0.056489997 0.19147936 0.0075481464 -0.06705838
0003e0 42 d0 6f 3d 37 0e b8 bd 14 07 17 bd 4a 4d c5 3d
       0.05854822 -0.08987086 -0.036871985 0.09633882
0003f0 f7 71 71 3d be 8a 7c 3b 73 ba 6b 3d 11 0f b2 bc
       0.058946576 0.0038534845 0.05755086 -0.0217357

conv3.bias f4 [40]
000000 e5 81 69 3d 14 b3 34 bd 1f 93 24 3d dd 53 33 bc
       0.057008643 -0.044116095 0.040179368 -0.0109452875
000010 f1 46 45 bd f6 c8 1e 3b b4 04 26 3e ff 20 66 bd
       -0.048163358 0.0024228669 0.16212732 -0.05618381
000020 a2 4a 6e bc f7 b5 0d 3c 1c f2 29 bc 9a 26 7d 3d
       -0.014544161 0.008649341 -0.010372665 0.06180439
000030 cd 15 f2 bc f4 8d 86 bc 69 c4 cc bd a2 dc a4 3c
       -0.029551411 -0.01642511 -0.099984 0.020124737
000040 09 f5 c2 bd 13 5a cc bc de 3b 86 bd 0c f4 28 bd
       -0.09519393 -0.024945294 -0.065543875 -0.041248366
000050 db f8 8b bd a6 d3 c4 bd 98 31 64 bd 3b c0 6e bd
       -0.06834575 -0.09610681 -0.05571136 -0.058288794
000060 c6 75 02 3c 88 62 8e bd f6 6b 14 bc 12 78 4a bd
       0.00796265 -0.06952387 -0.009058943 -0.049430914
000070 22 0b 22 3d 2d 9c b7 3d c2 f3 94 3c e9 1e 91 3d
       0.0395614 0.08965335 0.018182639 0.07085974
000080 c4 48 be 3d 38 96 a6 bb a2 cd 0a bc 2d 42 22 bc
       0.09291223 -0.0050838254 -0.008471878 -0.009903473
000090 bb 6e ac 3d a8 33 c3 bc 42 48 16 3d b3 54 00 3d
       0.08419558 -0.023828343 0.036690004 0.031330775

conv4.weight f4 [80, 40, 3, 3]
000000 30 bc d4 bc 82 44 1e bd 83 d5 69 bd 0d 1c 9e 3a
       -0.025968641 -0.038639553 -0.057088386 0.0012062803
000010 27 16 6c 3d 00 87 a8 bc 88 46 bf bb 7a 31 eb 3c
       0.057638314 -0.020572186 -0.0058372654 0.028710116
000020 ed 14 81 3a 15 fc b4 3c 8d b6 0c bc 55 d3 54 bd
       0.0009848155 0.022092858 -0.008588445 -0.051959354
000030 f0 cb ca 3c 06 51 21 3c 50 05 86 bc 18 8c 3d 39
       0.024755448 0.009845978 -0.016359955 0.00018076634
000040 78 3b bf 3d ac 48 65 3c 88 80 6f 3d 5c d9 ab 3c
       0.09337515 0.013994377 0.058472186 0.020977668
000050 b7 42 db ba d5 f9 17 bd 75 d1 96 3c cf 06 40 bc
       -0.0016728257 -0.037103493 0.018410424 -0.011720373
000060 37 12 8e bc c0 1e d8 bb d4 a6 b5 bc ec 9c 8f bc
       -0.01734267 -0.0065954626 -0.022174276 -0.01753088
000070 dc 71 e2 bc 89 ea 10 3d 91 8c 40 bd e2 84 b5 3d
       -0.027642183 0.03537992 -0.047009055 0.08863236
000080 ca e2 86 3c f8 ca 13 bd a0 81 74 3d 77 f1 3a 3d
       0.016465563 -0.036082238 0.059693933 0.045640435
000090 1a f9 c9 bc 13 7c 2f 3d 52 8a 16 3d 29 0a 93 bb
       -0.024654914 0.042842936 0.036753006 -0.004487295
0000a0 9d c3 df 3c 32 54 2e 3d 04 34 58 bb e6 d1 b9 3c
       0.027314955 0.042560764 -0.0032989988 0.022683095
0000b0 4f ad 04 3d cf 3f 18 bc 74 d5 98 bd 5e 20 60 bd
       0.032391842 -0.009292557 -0.07462588 -0.054718368
0000c0 22 2f 93 bc b0 81 c0 bc dc a3 86 3c 9a 71 56 bd
       -0.01796681 -0.02349934 0.016435556 -0.052354433
0000d0 1d d4 a2 3d 0d 94 3d bc 57 3e 11 bd 28 95 c1 3c
       0.07950614 -0.011570943 -0.035459843 0.023630694
0000e0 bb 2f 99 bc 91 94 e7 3c f7 72 3b 3c dd 5f 98 3c
       -0.018699517 0.028269084 0.011440984 0.018600399
0000f0 38 10 da bc 15 b1 9d 3c 27 d9 68 bd 72 58 14 bd
       -0.026619062 0.019249478 -0.056847718 -0.03621716
000100 d1 c3 67 bc e2 9a bb bc 05 d8 1c 3d d9 cc 1d bd
       -0.014145807 -0.022901002 0.03829195 -0.038525436
000110 67 ee e6 bc 45 76 49 3b 31 e6 54 bd 54 11 55 bd
       -0.028189851 0.003074066 -0.05197734 -0.05201848
000120 64 c7 8e 3c 59 e7 ca bb 28 94 8e bd a1 61 49 bd
       0.017429061 -0.0061921296 -0.06961852 -0.04916537
000130 8f 2c 25 3d b8 9b 5d bd 66 13 00 3d 83 8f 04 bd
       0.040325698 -0.054103583 0.0312685 -0.032363426
000140 12 c6 52 bd c5 0c a7 bc 27 18 e7 3c fa 94 05 bd
       -0.051458426 -0.020391831 0.028209759 -0.03261278
000150 65 c1 e3 3c 2d cd c3 3a 14 4c 2a 3d 97 31 18 3c
       0.027802179 0.0014938466 0.04157646 0.009289167
000160 a3 80 ad 3b 46 ec 0d bb 9f 47 25 bd e3 d1 93 bd
       0.0052948757 -0.0021655723 -0.040351506 -0.07217767
000170 0b 2e e9 3c 2e e3 0b 3d f7 04 22 3d 01 b5 61 3d
       0.028464338 0.034152202 0.039555516 0.05510426
000180 0a fe 82 bd 77 c0 46 3d 43 0d cb 3b 83 1c a1 3c
       -0.0639611 0.048523393 0.0061966493 0.019666916
000190 12 e4 c0 3c f4 0e 5f bd dc eb 9b 3c 56 a5 d2 3a
       0.023546252 -0.05445762 0.019033365 0.0016071002
0001a0 c4 9f da 3c fb 95 c5 3c 78 25 6e 3c e1 92 6d 3d
       0.02668751 0.024119368 0.0145353 0.058001403
0001b0 74 ca 0b bd 66 a7 40 3c ce 14 3d bd 0d a5 1f bb
       -0.03412862 0.011758661 -0.04616242 -0.0024359853
0001c0 11 f3 bf bb bb 9b fe 3c e3 bb 34 bd a0 5b d5 bc
       -0.005857833 0.031080117 -0.044124495 -0.026044667
0001d0 f4 b5 30 bd 7f b6 02 bd e9 a8 81 3d 30 18 04 3d
       -0.043142274 -0.031912323 0.06331045 0.03224963
0001e0 90 0e 29 bd 42 f1 7b 3d da 84 8f 3d e4 37 25 bc
       -0.041273654 0.06150938 0.07007761 -0.010084126
0001f0 ea 0e f0 bc 23 be 07 3d 91 08 06 bc 0f c1 d6 bc
       -0.029303987 0.033140313 -0.008180753 -0.026215104
000200 0c f2 93 3c 7d fd 34 3d 50 a6 6d 3d dc 7f 4d bd
       0.018059753 0.044187058 0.058019936 -0.050170764
000210 38 9d 40 3c 2e c4 9b 3d e3 83 cb bb 76 85 ee ba
       0.011756234 0.07605778 -0.0062107905 -0.0018197733
000220 bc cc 33 3d 93 f7 cd bc 0e 9d 09 3d cc 17 08 bd
       0.04389642 -0.025142467 0.033597045 -0.03322582
000230 03 ec 6e 3c c4 34 6a bd 9a 89 fb bc 8d 22 35 3c
       0.014582637 -0.057179227 -0.030705262 0.011055601
000240 ec 3f 81 3c 11 e3 06 bc fe 63 16 bd 54 3b 6c bc
       0.01577755 -0.008232848 -0.036716454 -0.014418442
000250 96 ab eb 3c aa 45 18 3d 0f f3 d3 bd 93 87 be bc
       0.028768342 0.03717581 -0.10349094 -0.023258006
000260 cb 63 b4 3d d7 53 1b 3c 45 36 1c 3d 15 2d 41 3c
       0.088080965 0.009480438 0.038137693 0.011790534
000270 60 ea 58 3d c8 59 9b bd b3 eb 01 3d 91 c0 2d bc
       0.052957892 -0.07585484 0.03171892 -0.010604993
000280 bb d8 9f bd 0c eb df 3d 9e 17 bb 3b 6f 4c 6e bd
       -0.0780501 0.109335035 0.0057096025 -0.05817836
000290 6a ee 39 3c b6 86 8b bd 80 69 81 3d 05 f7 d7 3b
       0.011348346 -0.068128034 0.06318951 0.0065907263
0002a0 66 60 21 be d2 12 37 3d d0 39 91 3d 3c 9b 43 bd
       -0.1575943 0.044695683 0.07091105 -0.047755465
0002b0 ef 1b 1c 3d ed df 78 bb 1b 4e fb bc ff 69 2e 3d
       0.038112577 -0.0037975267 -0.030676892 0.042581555
0002c0 7a 07 6a bc bc 73 89 bc f3 57 35 bd 1d 38 d9 bc
       -0.014284009 -0.01677882 -0.044273328 -0.026516015
0002d0 9b c1 e4 3c 74 9c a8 bc a0 34 84 3d 12 38 d5 bb
       0.02792435 -0.020582415 0.0645535 -0.0065069282
0002e0 83 3e 1c 3d 5e 5d 11 3d 9e c4 ad bd 0f e9 2b 3d
       0.038145553 0.035489433 -0.084847674 0.04197031
0002f0 60 77 ed b8 51 15 5b 3d 31 8c 17 bc 8e 40 a6 3c
       -0.00011323276 0.053487126 -0.009249733 0.020294454
000300 f8 4d 9a 3c 02 8e 16 3d b1 4a 10 3d ae 2c 17 bc
       0.018836007 0.036756523 0.03522748 -0.009226961
000310 b9 d0 4d bd e6 fd 74 3c 07 9b 9b 3d 77 24 96 bc
       -0.05024788 0.014953112 0.075979285 -0.018327935
000320 bd 1d 71 3d 5b be 27 bd 77 d0 ef 3c 1c 08 32 3c
       0.05886625 -0.04095302 0.029274208 0.010866191
000330 5c eb f6 bb a4 3e e7 3c ee 05 1c bc f0 c0 b2 bb
       -0.0075353812 0.028228112 -0.009522898 -0.005455129
000340 d3 30 8c 3c 21 f6 00 3d 6e 50 dd bc 46 9d f7 3c
       0.017113125 0.031484727 -0.02701589 0.030226361
000350 57 1d 43 3d 49 d1 ac bd 4a 67 31 bd 4c d5 23 3d
       0.047635403 -0.084383555 -0.043311395 0.039998338
000360 e9 f4 4f bc 85 84 0a bb 31 32 05 3d 03 04 f5 bb
       -0.0126926685 -0.0021136117 0.03251857 -0.007477285
000370 58 3b 46 bd 5f 29 23 bd 02 5c 04 bd 5a 57 1f 3a
       -0.04839644 -0.039834376 -0.032314308 0.0006078385
000380 c3 dc 1f 3d 11 4d bc 3c a1 82 34 bb 81 c2 fb bc
       0.039028894 0.022985967 -0.0027543681 -0.030732395
000390 7b 92 34 3a d5 d5 f3 3c 70 02 99 3c 46 0e b9 bc
       0.00068882824 0.029765049 0.01867792 -0.022589814
0003a0 1a 39 3c bd e6 7c 40 3c a7 87 0a bd 9f ce 0c 3d
       -0.045952894 0.011748528 -0.033820774 0.034376737
0003b0 00 c5 0e 3d 90 2e 21 bd de 6a 0f 3c c8 05 e5 bc
       0.034855843 -0.039351046 0.0087535065 -0.027956858
0003c0 f6 e6 a4 bd 00 be a1 bd 09 21 a4 3d d3 55 88 3c
       -0.08051865 -0.07897568 0.080141135 0.016642487
0003d0 61 05 c0 bc 0d a5 28 bc 2e 27 b2 3c 74 b7 31 3c
       -0.023440065 -0.010293257 0.021747198 0.010846961
0003e0 43 f2 15 3c 90 12 58 3d 5a b9 d4 bc 55 b4 00 bd
       0.009151998 0.052752078 -0.025967289 -0.031421978
0003f0 ff 18 01 3d 25 ea 8d 3d c5 d5 5a 3d f3 49 24 bc
       0.03151798 0.06929425 0.053426523 -0.0100273965

conv4.bias f4 [80]
000000 47 e4 ce bd 9b 5f 75 bd d0 b0 cb 3c be 95 ad 3c
       -0.10102134 -0.05990563 0.024864584 0.021189567
000010 36 84 a5 3d 48 eb 3a bd d2 24 13 3d 0c 59 f0 bc
       0.08081858 -0.045634538 0.035923786 -0.029339336
000020 b7 a2 70 bd 2e db bf bc c8 bf 24 bc a8 f9 27 3d
       -0.058748927 -0.023419943 -0.01005549 0.041009575
000030 9e dd 59 3c 2b 57 5b 3d 34 4f 47 3d c6 19 0f 3d
       0.013297467 0.053549927 0.04865952 0.03493669
000040 eb 4d 13 3d 44 cf 4a bc 08 fe 27 3e 9e 75 88 bd
       0.03596298 -0.012378518 0.16405499 -0.06663059
000050 2d cf ce bc a9 2e a7 bc 04 41 b1 3d 51 06 aa bd
       -0.025245273 -0.020407991 0.08654979 -0.08301986
000060 d9 fd a0 3a eb 91 8c bc 8c f3 20 bc eb 3d 30 bd
       0.0012282684 -0.017159423 -0.009823691 -0.0430278
000070 9a 35 81 3d ec 4c 1d 3c 35 3e ca bc 9c 40 03 bd
       0.06309052 0.009600859 -0.024687866 -0.03204404
000080 82 77 31 bd 89 5b fc 3c 8d 63 9f 3c 6f 98 06 3e
       -0.043326862 0.030805366 0.01945665 0.13144086
000090 f2 72 88 3c 01 d3 5b 3d d2 5f 3a 3d 7a fd 66 3c
       0.016656373 0.053668026 0.045501538 0.014098519
0000a0 cb a0 4d bc ec 3e 80 3c 42 87 ad 3c d7 7b 04 3e
       -0.012550543 0.015655003 0.02118266 0.12937866
0000b0 bf b1 0b bd 39 0c df 3d 56 a6 e7 b9 69 76 78 bd
       -0.03410506 0.10891003 -0.00044183683 -0.0606598
0000c0 ba bf 13 bd 40 b9 da 3d 43 82 d6 3c 8e 8f 82 3d
       -0.036071517 0.10679865 0.02618516 0.06375037
0000d0 b7 bf 1d bd 51 57 30 3d 42 b9 35 bd 5d e4 d6 3b
       -0.03851291 0.04305202 -0.04436613 0.0065579847
0000e0 54 7c 6b bc b7 44 b7 bc b5 ff 20 3d e5 68 bb ba
       -0.014372904 -0.022371633 0.03930636 -0.0014298229
0000f0 85 d9 96 bc be 28 39 3d 3a 4a 3e 3c 17 be 49 3c
       -0.018414268 0.04520487 0.011614377 0.012313387
000100 c0 b0 9c 3b 21 46 08 be fc d6 04 3b 63 b6 d0 bc
       0.0047818124 -0.13308002 0.0020269742 -0.025477594
000110 59 d5 40 bc 80 aa 97 bc fb 1f 9d 3d c2 dc 59 bd
       -0.011769616 -0.018513918 0.076721154 -0.053189047
000120 c5 ce e1 bc c0 ae 29 bd dd b4 f4 3c 79 a8 39 3d
       -0.027564416 -0.04142642 0.029871399 0.045326684
000130 0d 13 18 3c 30 64 cd 3c a7 7c 86 3b 0d 94 6e bc
       0.009281886 0.025072187 0.004104215 -0.014561665

fc1.weight f4 [64, 1280]
000000 4c 12 14 3c ef 64 4d 3b e2 11 28 bc 92 09 bb 3b
       0.009037565 0.0031340679 -0.01025817 0.005707928
000010 ea 1f 86 bb 35 94 7b bc 20 22 33 bc 30 da 81 bc
       -0.00409316 -0.0153551595 -0.010933429 -0.01585111
000020 9d 31 47 3c 4b af bf 3b 1e 6f 5b 3a 06 11 47 bc
       0.012157825 0.005849754 0.0008370745 -0.012150055
000030 bc 86 3e 3c 9a 9d 38 bc 68 18 4a 3c c3 ed 01 bd
       0.011628803 -0.011268044 0.0123349205 -0.031720888
000040 0b 39 9c 3b 49 e9 c1 3b 9d 47 4c bc 90 72 8e 3c
       0.0047675422 0.0059177023 -0.012468246 0.017388612
000050 24 22 3f bb f9 5c 9a 3b 50 4b 03 3d 71 ce 3b bc
       -0.0029164637 0.0047107902 0.032054245 -0.011462794
000060 78 a6 86 3c 4c 7e f7 3c 9c cb 55 bb 3e 32 b3 bc
       0.0164368 0.03021159 -0.0032622581 -0.021874543
000070 b0 e7 cb 3c 54 b3 a6 3c b1 3b b3 3c 29 61 17 bc
       0.02489075 0.020349182 0.021879049 -0.009239473
000080 8f 77 98 bc 1c c6 38 3c 62 b3 b6 3c b0 76 d0 3c
       -0.018611697 0.011277702 0.022302333 0.02544722
000090 77 c0 42 bc 1b 3b 56 3c e1 ca 32 3c ff 92 ef ba
       -0.0118867075 0.013075615 0.010912628 -0.0018278061
0000a0 98 fe 82 bc ca b7 4e bc bc 72 a4 bc a8 8d ca 3a
       -0.01599054 -0.012617061 -0.02007424 0.0015453594
0000b0 5c 27 c8 3c b6 e8 a4 bc eb 98 5b 3c 5b 0f af 3c
       0.02443283 -0.020130496 0.013403158 0.021369627
0000c0 7b 39 91 bc 39 19 c6 3c 21 ec b9 bc 7a 6f be 3b
       -0.017727604 0.024181949 -0.022695603 0.005811629
0000d0 d9 b1 e5 bb ef 01 82 bc 58 54 73 bc 5e 5c d4 bc
       -0.0070097265 -0.015870063 -0.014851652 -0.02592295
0000e0 78 58 41 3c f3 1b 1f 3b 8a 60 d1 bc ce e0 06 bb
       0.011800878 0.0024278134 -0.025558729 -0.0020580771
0000f0 66 e1 22 bc fd b9 d0 3c aa fb 71 bb ab 72 c2 bc
       -0.0099414345 0.025479311 -0.0036923685 -0.023736319
000100 4c be 9c bc ee fd e5 bb 7d ee aa bc ed ac 61 bc
       -0.01913371 -0.007018796 -0.020865673 -0.013774139
000110 53 25 e7 bc 57 ff 07 bc 7f 83 a9 3c f4 55 d7 bc
       -0.02821604 -0.008300624 0.020692585 -0.026286103
000120 69 91 cd bc 24 67 ad bb d0 5b 4e 3c 21 ee 9b 3c
       -0.025093751 -0.0052918363 0.012595132 0.019034447
000130 11 f1 ef bb e9 bf 67 bc e6 7d 87 bc 2e 23 c9 3c
       -0.0073224385 -0.014144876 -0.016539525 0.024552908
000140 52 f7 59 3c 68 e8 ba bc 7a 18 4e 3c 1f dd f3 ba
       0.013303595 -0.022815898 0.012579078 -0.0018605328
000150 72 48 07 3c 78 fe 99 bb 20 36 ed 3a ef 3f 83 3b
       0.008257018 -0.0046995245 0.0018097796 0.004005424
000160 e5 c5 7f bc 5e 20 20 bc 98 a4 90 3c 47 74 87 bc
       -0.015611147 -0.009773342 0.01765661 -0.016534938
000170 a5 64 57 bc 54 47 6f bc aa db ac 3a cc 76 90 bc
       -0.013146554 -0.014604408 0.0013188024 -0.017634772
000180 4f d2 47 3c b0 9e 00 bb f6 50 5d 3c 70 76 b5 3c
       0.012196138 -0.0019625835 0.013508072 0.022151202
000190 21 8e 21 bc 22 c5 14 bc 2c cd 7b bc f4 78 2f 3c
       -0.009860546 -0.009080203 -0.015368741 0.01070999
0001a0 6b c5 04 3c 78 bd 55 bc da 35 de bb a5 88 dd 3c
       0.008103709 -0.013045661 -0.006781322 0.027042696
0001b0 28 20 90 3c 7b 4c be ba 32 4e 3f 3c 0f b0 e9 bc
       0.017593458 -0.0014518643 0.011676358 -0.028526334
0001c0 ae 10 04 3b 28 04 87 bc 75 52 8c bb fd c0 0c bc
       0.0020151543 -0.016481474 -0.0042822906 -0.008590934
0001d0 6f ff 36 3c fc 63 04 3c cb 96 f1 bb 28 41 5c bc
       0.011169299 0.008080479 -0.0073727123 -0.013443269
0001e0 7d 78 c0 3b 22 21 bc 3c bf 14 5d 3c 40 56 ad bc
       0.0058737383 0.022965018 0.013493716 -0.021159291
0001f0 ec aa 52 bc 7f da 7a bc 57 45 c2 3b 94 af 9b 3c
       -0.012858134 -0.015310883 0.005928676 0.01900462
000200 86 72 bc 3c 26 13 d2 3c 01 e6 b1 bc 31 04 2b bc
       0.023003828 0.025643896 -0.02171612 -0.010438011
000210 69 67 e5 bb d3 88 42 bc 2c 38 1a 39 34 76 9a bb
       -0.007000853 -0.011873442 0.0001470751 -0.004713798
000220 fb 21 5b bc ff c1 8e bc 01 a3 57 3c f9 1c f0 3a
       -0.013374801 -0.017426489 0.013161422 0.0018319181
000230 8f 18 9c 3c 07 37 75 bc dd bb 9d bc 5a 11 b2 3c
       0.01905468 -0.014966733 -0.01925462 0.02173679
000240 27 44 06 bc 1e 3f 9a bc 35 e7 91 3c ad 2b 27 bc
       -0.00819496 -0.018828925 0.017810443 -0.010203284
000250 92 3e 72 bc 44 0a 69 3c 83 41 75 3c e7 9a 01 3c
       -0.014785426 0.014223639 0.0149692325 0.007910467
000260 b9 0e 08 bd da 2d c5 ba fa 3e 1d 3c 1b f7 e9 ba
       -0.033217166 -0.0015043572 0.009597534 -0.0017850132
000270 d7 5e 40 3c 3c 46 9d 3c b6 c2 6f 3c 64 9c f8 3b
       0.011741362 0.01919853 0.014633825 0.0075870026
000280 1f 78 83 bc 2d 9c 5e 3c b1 4f c3 bc 47 7e 99 bc
       -0.01604849 0.01358704 -0.02384171 -0.018736972
000290 f8 76 41 bc c2 ab cc 3c 1c b6 41 bc d5 66 0a bd
       -0.0118081495 0.024984244 -0.011823203 -0.033789475
0002a0 e2 d8 7e 3c cc a9 c4 3c eb 27 9e 3b 59 b8 1d bc
       0.015554639 0.024006747 0.004826536 -0.009626471
0002b0 df 9a 75 bc 2c 65 83 3c ec c4 6a 3c 8d 8b cd bc
       -0.014990537 0.016039453 0.014329176 -0.025090957
0002c0 a6 37 14 bd 2a f8 e7 bc 9a 5f 41 3b 2e ca a8 3c
       -0.036185883 -0.028316576 0.0029506446 0.02060422
0002d0 0b 01 90 bb 50 0a 87 bb 96 35 c5 bb e4 b5 eb 3b
       -0.0043946556 -0.0041211024 -0.006018351 0.007193314
0002e0 c7 94 e3 bc a3 1d 2a 3c ac e2 fc bb 64 c9 d0 bc
       -0.027780904 0.0103830425 -0.007717451 -0.025486656
0002f0 07 10 7a 3c 01 4b e1 3b 16 bb ad 3b fc db 22 bb
       0.01526261 0.0068753962 0.0053018434 -0.002485036
000300 01 b6 db 3c 24 be 6f bc ca 1a 0b 3c 3c e7 a1 bb
       0.026820185 -0.014632735 0.008490274 -0.0049408954
000310 01 8a a8 bb 27 b1 e8 3b 24 29 2a 3c ba 84 bc bc
       -0.0051434045 0.0071011963 0.010385785 -0.023012508
000320 e4 0b 8e bb 62 2e 55 3b 6e a0 e1 3b ef cc a9 3c
       -0.0043349136 0.0032528867 0.00688558 0.020727603
000330 31 f3 35 3c 4a 3d 4b 3c b5 26 d1 3c 2e df 95 bc
       0.011105345 0.012404749 0.025531152 -0.018294897
000340 36 06 a4 3c 3b 6e d0 bc 1c b5 6a 3c 48 6c f7 bc
       0.020022493 -0.025443187 0.014325406 -0.030203
000350 15 24 2e bc f7 68 45 ba f1 32 16 3b 9e eb bb 3a
       -0.01062872 -0.00075305946 0.0022918547 0.0014337187
000360 2d f9 5a bc 7b ef aa bc 65 55 4e 3b 0b 7d 9c bc
       -0.013365072 -0.020866146 0.0031484005 -0.019102594
000370 37 f0 9e bb be 00 9a 3b 17 58 be bc b1 65 a5 bc
       -0.004850413 0.0046997955 -0.023235364 -0.020190092
000380 55 3c 40 3c dd 74 d5 bc 42 c2 89 b9 d5 08 e3 bc
       0.011733134 -0.026056701 -0.0002627541 -0.027714172
000390 cd 11 52 bc 8b 24 33 bc 33 b4 61 bc 62 32 c7 bc
       -0.012821627 -0.0109340055 -0.013775873 -0.024316017
0003a0 14 6d a2 3c 2e ba 7d bc a0 f8 d3 3c ad 03 30 3b
       0.019827403 -0.015486283 0.02587539 0.002685766
0003b0 b6 b7 24 bb 01 1d cd 3c f1 e2 c3 ba a0 91 d1 3c
       -0.0025133914 0.025038244 -0.0014944953 0.025582135
0003c0 cb 45 72 bc d4 ba 3b bc 71 ab ac bc 62 91 b9 ba
       -0.014787148 -0.0114581175 -0.021077843 -0.0014157707
0003d0 4b ed 81 3b da 53 58 bc 0d 43 c3 3c 05 31 b5 bc
       0.003965055 -0.0132035855 0.023835683 -0.0221181
0003e0 4c 6a 01 bc 5d f0 33 bb 75 9c 5c bc 75 2a d3 3a
       -0.007898878 -0.00274565 -0.013465037 0.0016110676
0003f0 bd 45 8f 3c 36 1c 79 3c 76 4d 87 bb ed 90 a1 bc
       0.017489308 0.01520448 -0.004129107 -0.019722426

fc1.bias f4 [64]
000000 a1 ec c7 3b 83 10 dc bc 5d ac c2 3c 81 0f 47 3d
       0.0061012064 -0.026863342 0.02376383 0.04859877
000010 87 17 b1 bc d4 59 4c 3d 56 ec cd 3c 3b cf c8 3c
       -0.021617664 0.049890354 0.025137108 0.024512878
000020 b4 32 2d bd 35 02 33 3d 10 d5 6f 3b 42 a5 18 3c
       -0.042284682 0.043703277 0.00365955 0.009316744
000030 61 ad c5 bb c4 3f 1b bc 5a 17 4a 3c 41 81 be bc
       -0.0060326313 -0.009475652 0.012334669 -0.023254992
000040 0e e7 88 39 76 5f 4d 3c 5e 45 39 3d 83 6e 04 bd
       0.0002611209 0.012534967 0.04523217 -0.032331955
000050 6f ae 9c bd 23 8a 9d 3c 9c a2 5a 3d c8 bc 3d bb
       -0.07650458 0.019230908 0.053377733 -0.0028951634
000060 05 0a c6 bb 99 39 41 3c ef 00 7b bc 4d e3 96 bc
       -0.006043675 0.0117935175 -0.015320047 -0.018418932
000070 b6 7b d7 bc 8b 95 bf bc 0f 77 2d bc 17 5d 83 3d
       -0.026304107 -0.023386737 -0.010587468 0.0641424
000080 ca 05 6a 3d 4b 7e 23 3c fc 19 a2 3b bf 10 d8 bb
       0.057134427 0.009978841 0.0049469452 -0.006593793
000090 8b 3c 09 3b 2e 90 fb 3c 4b a3 1b 3c 78 8b a0 bc
       0.0020940627 0.030708399 0.009499381 -0.019597754
0000a0 07 28 af bb 6b 40 e6 bc 6c e5 4f bc 03 62 73 3b
       -0.005345348 -0.028106889 -0.012688976 0.0037137277
0000b0 20 dd b9 bc cb f7 53 3d 47 b6 e6 bc 4e 38 dd 3b
       -0.022688448 0.051749986 -0.028163088 0.006751097
0000c0 8d 05 e4 bc 40 04 02 bc ee 3d b7 3d b1 79 6e bd
       -0.027834678 -0.007935584 0.08947359 -0.058221523
0000d0 0e 57 f3 bc c9 f8 43 3c 09 b1 f2 bc 2b 8a 2b 3c
       -0.029704597 0.0119611705 -0.029625433 0.0104699535
0000e0 d0 8f 8f bc df ca cf bb 73 48 92 3c 4e 55 af bc
       -0.01752463 -0.006341323 0.017856812 -0.021402981
0000f0 6f 32 b9 bc 8e 5b b2 3c 98 ac 3f 3c 9d d6 9b 3b
       -0.022607056 0.021772172 0.011698864 0.0047558085

fc2.weight f4 [6, 64]
000000 91 da 63 3d 60 47 22 3e 19 9a c1 bd 13 0b 40 3e
       0.055628363 0.1584754 -0.0945322 0.18754224
000010 87 29 8e bc 5b c7 f1 bd 40 15 4c be 80 d3 ab be
       -0.017353786 -0.11805602 -0.19929981 -0.335598
000020 e9 f4 c6 3d 7a 7e 6f be f6 50 a2 3c 70 c3 a4 bd
       0.09714682 -0.2338809 0.019813996 -0.08045089
000030 ec f0 26 be 24 a7 26 3b e2 db 52 be 5c f9 ee 3d
       -0.16302842 0.0025429213 -0.20591691 0.11668655
000040 96 dc 16 3e c3 91 af be f2 21 9e 3d a0 6c b7 3d
       0.14732584 -0.34290895 0.07721318 0.089562654
000050 05 1b 66 3e 5b 38 2e be 4c 3b 9b 3e 9d a6 53 be
       0.22471245 -0.17013685 0.30318677 -0.20669027
000060 5a 0a 85 bd 12 4f a5 bd 35 2f 87 3d f3 b2 61 bc
       -0.06496115 -0.08071722 0.06600801 -0.013775575
000070 79 48 1f be 50 53 2b be a5 9f e3 bd aa f0 35 3d
       -0.1555499 -0.16731 -0.11114434 0.04441897
000080 95 04 87 3e e4 36 f8 3d 31 be bd 3c 0f 51 90 be
       0.26370683 0.121198446 0.02316198 -0.28186843
000090 18 d6 04 3e e5 5a 69 be cb 35 e3 bd f1 f3 2c bd
       0.12972295 -0.2278858 -0.110942446 -0.04222483
0000a0 e7 68 0f 3e 95 47 1b 3e 38 26 85 3e c2 28 30 3d
       0.14004861 0.15164025 0.2600572 0.04300762
0000b0 5a c6 f4 3d f9 c6 ef 3d 0d a7 0d bd 8e 81 e6 bd
       0.11951895 0.11707873 -0.03458314 -0.11255179
0000c0 6a 85 c4 3d 14 50 95 bd 6f d7 f9 bc a9 dd 01 3e
       0.09595759 -0.07290664 -0.030498235 0.12682213
0000d0 9b 62 e4 3d 1c 39 6a 3c 2a 21 7a 3d 0b ef ee 3d
       0.1115162 0.0142958425 0.061066784 0.116666876
0000e0 2e 1c f4 3d a3 52 f5 bc 6e a2 6d be d6 34 9b bd
       0.11919437 -0.02994663 -0.23206493 -0.07578437
0000f0 b5 ea a2 3d ff 58 eb bd 34 ba 7a be f4 2a 9c bd
       0.07954923 -0.11491584 -0.24485093 -0.0762538
000100 c3 17 62 3d 4b 01 5a be 0a 67 11 3e 4c 50 88 be
       0.055198442 -0.21289556 0.14199463 -0.26623762
000110 fc 7e 34 bc dc ba a7 3e 6f 0a 50 3e 31 2a 2a 3e
       -0.011016604 0.3275975 0.2031648 0.16617657
000120 40 2f dc be be 6e 82 bd f9 ba a3 be 7b 9a 16 3c
       -0.430048 -0.06368779 -0.31978586 0.009192104
000130 ef f5 13 be 33 56 0b 3e 1e a3 09 be 73 7c 30 3e
       -0.14449285 0.13607101 -0.1344113 0.17234974
000140 43 0b 1d 3e ad 9e 7d 3d dc 80 5f 3d f7 24 fe 3d
       0.15336327 0.061918903 0.05456625 0.12409394
000150 59 4f a4 3d b2 5e 50 be 74 26 28 bd 63 8d 9b bd
       0.08022947 -0.20348623 -0.041052297 -0.07595327
000160 0e 45 47 be 55 eb 6f 3c b2 6d bc bd a7 cf 81 3e
       -0.19459936 0.01464351 -0.0920061 0.2535374
000170 c8 80 84 be 10 5c 70 be 3b f7 28 bd ea a3 bd be
       -0.25879502 -0.23472619 -0.041251402 -0.3703912
000180 c5 28 94 3e 4f 52 50 be c6 77 df 3b ce 41 47 3e
       0.28937355 -0.20343898 0.006819698 0.19458696
000190 31 2e ae be f9 3a b7 3e 71 20 e7 38 70 71 eb bc
       -0.34019616 0.3578718 0.00011020981 -0.028740615
0001a0 2c 37 8b bd 34 be ae be 6b 43 65 be 24 b3 0a 3e
       -0.067976326 -0.34129488 -0.22388999 0.13544899
0001b0 d2 72 60 be 33 cf 69 be 07 cc 60 bd d8 1e ae 3d
       -0.219188 -0.22832946 -0.054882076 0.08501977
0001c0 04 f3 a5 3e f9 1e ae 3d 0c ee bd 3e 08 d9 dc bd
       0.3241197 0.08502001 0.37095678 -0.10783583
0001d0 da 03 85 be 3e 2e d6 3b e0 4c 54 3d 02 75 b0 bd
       -0.259795 0.006536274 0.051831126 -0.086160675
0001e0 ca 6a f7 3e 4c d4 89 3d 65 3e 40 3e 52 98 17 3e
       0.4832366 0.067299455 0.18773802 0.148042
0001f0 25 a8 cc 3c ac 27 8d be ba e8 0c 3e 32 5e 89 be
       0.024982521 -0.2756933 0.13760653 -0.26829678
000200 3b df 50 3d 85 91 05 be 5d d4 3a be e8 63 25 be
       0.05099414 -0.13043793 -0.18245073 -0.16151392
000210 f4 03 fe 3d 65 c9 fb bd a7 2b 20 3e a1 4d 59 3e
       0.12403098 -0.12294272 0.15641652 0.2122102
000220 f8 09 68 3e 41 68 65 bd 88 87 87 3e c5 ed 87 3d
       0.22660053 -0.056007627 0.2647059 0.06637148
000230 ad c0 8a be 08 7e 90 bd d7 b3 ab 3e df aa 0e be
       -0.27100125 -0.070552886 0.33535644 -0.1393237
000240 0b df 04 3e 6c 24 52 bc 89 57 80 be 86 25 b0 be
       0.12975709 -0.012826066 -0.25066784 -0.34403628
000250 2a 62 fb bc 57 80 ae 3d 76 0e 14 be de 6d 7d 3d
       -0.030686457 0.08520573 -0.14458641 0.061872356
000260 d5 cd 3f be 89 d2 cd be 9a ef 0f be 64 b5 59 3e
       -0.18730862 -0.40199688 -0.14056244 0.21260601
000270 f3 18 cd 3e 7b 21 1a 3e ef 80 0b be 14 59 f4 3e
       0.40058097 0.15051834 -0.13623403 0.4772421
000280 96 e4 33 be fd fd 26 be 6b 5b e7 3d e9 e5 8a 3e
       -0.17567667 -0.16307826 0.112967335 0.27128533
000290 40 7e ab 3e 15 b3 55 3e 00 ee 43 3e 81 cf 6b 3e
       0.3349476 0.20869096 0.19133759 0.23028375
0002a0 b2 cd d9 3d 8f cb 2e 3c bc 97 0b be 42 3f ca bd
       0.106349364 0.010668649 -0.13632101 -0.09875347
0002b0 39 80 34 3e 5a ff 3a be 86 3d c8 3c 71 5a 2d 3e
       0.17627038 -0.18261471 0.0244434 0.16929032
0002c0 ce 17 0e 3e c1 e9 a8 3d 42 6c 97 be 15 45 7f bc
       0.13876268 0.0824771 -0.29574782 -0.015580435
0002d0 b6 ed ac 3d aa 11 06 3d 57 4a f3 3c 16 3c e6 bd
       0.08443777 0.03273169 0.029698534 -0.11241929
0002e0 e4 d0 eb bd d6 06 b8 3d 40 4b 2d 3e 00 4f 28 bc
       -0.11514452 0.08985679 0.16923237 -0.010272741
0002f0 06 20 73 bd 41 8a 4e 3d e5 4b b8 bd ba 9d 6d 3e
       -0.05935671 0.050424818 -0.08998851 0.23204699
000300 75 9f 2c bd 58 63 a4 3e 5b 89 9d 3e e9 97 c3 bd
       -0.042144258 0.32107043 0.30768856 -0.09550459
000310 32 ee 6f bd a8 90 20 3e 9a 3c 45 be 1f 6e 93 3e
       -0.05857677 0.15680182 -0.19261399 0.28794953
000320 4e e1 18 bd d3 f6 c4 bd 0a 63 f6 3d df 6b 26 be
       -0.037324242 -0.096173905 0.12030609 -0.16252087
000330 b7 6b 13 3e 4c a5 ab bd c1 7e eb be fb 2c 1b 3e
       0.14396559 -0.08381137 -0.45995143 0.15153877
000340 ff 6d 6d be 36 2e ed 3e 01 52 57 3e eb b8 dd 3d
       -0.23186491 0.4632432 0.21027376 0.10826286
000350 7e 6d 21 3e 8e cf 7d 3d 5b 18 87 be cd 6c 41 3d
       0.15764424 0.061965518 -0.2638577 0.0472229
000360 b5 60 96 3e 41 da 0a 3d d6 e5 89 3e 2d ce 7b 3e
       0.29370657 0.03389955 0.26933163 0.24590369
000370 04 86 0a 3e 04 e1 72 3e a7 46 8c 3d a4 06 cc be
       0.13527685 0.23718649 0.06849413 -0.39848816
000380 bf 69 85 be e4 aa a6 3e 67 a5 67 bd 0f ab fb 3d
       -0.2605724 0.32552254 -0.056554224 0.12288486
000390 c6 23 51 bd 4c 33 97 3d 45 75 fb bd 76 6f 53 bd
       -0.051059507 0.07382831 -0.12278227 -0.05161997
0003a0 3e c9 e9 bb 3c 1a 97 3e 94 2c c4 3d f5 04 6d 3d
       -0.0071345856 0.29512203 0.09578815 0.057866056
0003b0 06 3a 36 3d de 10 b2 bd c6 38 8d bd 27 4a 79 bd
       0.04448893 -0.086946234 -0.06895594 -0.060861733
0003c0 17 36 d9 be 0b 22 1c 3e 8c 6a 82 be 20 b5 5e 3e
       -0.4242408 0.15247361 -0.25471914 0.21748781
0003d0 ed 86 9b 3e 70 e4 69 3e 4d 52 7a be dc d8 f0 3d
       0.30376378 0.22841048 -0.24445458 0.11760113
0003e0 61 c0 2f be a8 ec e8 3d 4c 39 39 3e 42 78 8e bd
       -0.1716323 0.113732636 0.18088263 -0.06956531
0003f0 a0 80 bd 3d a5 99 81 bd 50 89 de 3d 1b b0 cf 3d
       0.09253049 -0.063281335 0.10866034 0.10141011

fc2.bias f4 [6]
000000 bc 4e bf bd 0e 33 de 3c ac f2 43 be 72 f4 85 bb
       -0.09341189 0.027123954 -0.1913554 -0.004087978
000010 a0 b4 c9 3e af 39 e5 bd
       0.39395618 -0.11192643
